data.pth (torch, 21663 bytes, 6 tensors)

l1.weight f4 [41, 55]
00000000: 6248 ec3d d881 1f3e 0a90 f93d 3be9 843e
00000010: 58f2 173e 6153 623e d32e 4f3e 0e2d 5f3d
00000020: de0e 0abe 1888 1c3e ba21 123d bd52 02bc
00000030: f57d 75be 9fdb 4cbe cc68 5c3e c247 46bd
00000040: 18b4 d33d 40ff 5a3e bd06 eebd 01b8 213d
00000050: 527b b2bc a043 403e 8164 9f3e 0d0e 183e
00000060: a13e 863d 8725 2f3e ee00 3fbe 914f 173e
00000070: f06c 88bc 3670 3c3e baaf 0c3e 3bea 3cbe
00000080: 80ee f83d f2f1 72bc 57e3 443e c163 15bd
00000090: acf2 2cbe d908 3cbe 4590 7e3e 4867 d83d
000000a0: 3932 893e 171d 5cbe df57 02bc 7ed6 7f3e
000000b0: 7abd 8f3c 2147 493e fa91 893e 2d9d c13d
000000c0: afb5 573d 7359 973e 2c0d 63bd 9c28 263d
000000d0: 4404 663c 7400 9b3d e13c 913e 8090 813e
000000e0: 2a6c bd3d 5726 6abe 9f76 06be e3bb 31be
000000f0: 2ef6 a33e 6998 c9bd 901d 6abe 75dd 90be
00000100: 31fc f4bd a840 ecbd 6355 04be 4054 debd
00000110: 6b09 19bd d430 373e a331 953d 48a6 86bd
00000120: 64ce 823e 51be 11be 2835 4dbe 0b32 863e
00000130: 6c94 01be 77ea 5bbe 25a0 8bbc ae6b 65bd
00000140: f286 e5bd 8c9c 573c 1aca d03d 8ee2 05be
00000150: ecf2 803e 0e0a 6b3e 9cc1 0ebe 8ac0 1b3e
00000160: e971 72be c8be f03d e2dd 55bd 1b8a e5bd
00000170: 2497 f0bd 602c bd3c 72cc 6fbe 27c9 953e
00000180: 0da0 51be 6518 2fbd 7091 773e 9bf7 efbd
00000190: fed8 353e 1652 1f3e 626e cf3d 6016 eabd
000001a0: 6e4d 0ebe 1aa3 d6bc b549 d2bd 499b 54be
000001b0: cb39 413c c786 613e 1fa4 b1bd d14c 49be
000001c0: 7378 ee3c f2f1 f9bd c102 6e3e 1e34 10be
000001d0: 5ec6 0dbd adbe 23bd 00f2 f2bd ca98 39be
000001e0: 411f 963e 5e0b 11be 0f26 833e d8b4 0abd
000001f0: 6338 7d3d a1a9 29be a88a 8c3e 44e6 13be
00000200: 91c2 8f3d 6544 223e ea40 1d3d 8fc3 393f
00000210: e16f eb3e ada4 993e c77e 853d 0b24 8bbd
00000220: fd03 823e 6282 2fbe c359 a13b 5104 0cbe
00000230: 1bd7 f0bd 5a61 74be 622a 2ebd 0893 47be
00000240: 3f79 d9bd 88d9 9bbd 3af6 0d3e 1653 98bd
00000250: 5337 ebbd 00df 80bd d6e5 68be 7df8 fc3d
00000260: e85e 14be 889a 53bc 9d1f abbc 1121 abbd
00000270: ea98 63be d8d0 91bd 32f2 f63c 4535 223e
00000280: c6ad 8e3e 456e a1bd 636c 773e 068a 02be
00000290: a5e7 6e3e ef8c 2a3e e59b 443e 12e5 52be
000002a0: 4431 2bbd 5898 6ebe 3ff9 23be 2efa 933d
000002b0: 9dfe 10be 1a67 78bd f78b 58be d354 90bd
000002c0: ab57 8cbd 7676 fa3d b802 cbbd 086f f03c
000002d0: dfa0 803c bda9 b6bd 52f7 23be ce5f 8cbc
000002e0: 31f7 23be a6d5 9d3d a4f5 23bd 24f7 23be
000002f0: 921f 0abe 4929 1fbe de85 08be 6c87 c8bd
00000300: f0cc 0e3e 089f 2fbc 61d5 933e 330e 0fbe
00000310: 59d3 c2bd 293a 583e a284 91be 941a de3d
00000320: 4e71 57bc 9e85 c5bd 6402 98bd 233e 5e3d
00000330: 73a1 10bd 9a51 38be 849f a1bd 3800 9ebc
00000340: 30f5 563d e662 0cbe c398 523e 287e ae3e
00000350: d7ab da3d 0e01 84bd 9407 99bd 1aa4 5fbd
00000360: d0f6 79bd 70fb b73d 166b c4bd 35bc 543e
00000370: 1a5f a2bd b2f0 0a3e f736 30be 5852 6abe
00000380: c40c f23c 369f d0bc e3a9 a7bc 2958 80be
00000390: 7906 70be c219 54be 4035 a8bd bf2b 8fbc
000003a0: 6d26 873e fb25 14be fa8b 963e cb79 14be
000003b0: fd37 52bd b6ca 343d d80e c13d e2fc e73d
000003c0: a4d0 88bd db4b 0bbd 9779 fc3d c8a8 40bd
000003d0: eff4 debd 4418 e0bc 5bce 823e 9d64 923e
000003e0: 6872 9b3e c70e 943e 2b62 25bc 7edb 3d3d
000003f0: 0689 30bd 083a a3be 69c8 9e3e 0a7e 1abe
0.115372434 0.15576875 0.121856764 0.2595919 0.1483854 0.22102119 0.20232706 0.054486327
-0.13482234 0.1528629 0.035676695 -0.007954297 -0.2397383 -0.20005654 0.21524352 -0.048408277
0.103370845 0.21386433 -0.11622379 0.03948212 -0.02178732 0.18775797 0.31131366 0.1484911
0.06554914 0.1710416 -0.18652698 0.14776446 -0.016653508 0.1840218 0.1373891 -0.18448727
0.12154865 -0.014828192 0.19227348 -0.036472086 -0.16889447 -0.1836275 0.24859722 0.10566574
0.2679613 -0.21495472 -0.00795552 0.24984166 0.017546404 0.1965604 0.26869184 0.09453807
0.0526635 0.29560432 -0.055432484 0.040566072 0.014039103 0.07568446 0.2836676 0.25305557
0.09249146 -0.22866188 -0.13131188 -0.1735683 0.32023758 -0.09843523 -0.2286284 -0.28293958
-0.11962164 -0.1153577 -0.12923197 -0.10855913 -0.037362497 0.1788972 0.07284858 -0.065746844
0.2554809 -0.14232756 -0.20039809 0.26210055 -0.12654275 -0.2147616 -0.017044136 -0.056010894
-0.112073794 0.013159882 0.10194798 -0.13074705 0.25185335 0.22953054 -0.13941044 0.15210167
-0.23676266 0.11755139 -0.052213557 -0.11207982 -0.11747578 0.023092449 -0.23417833 0.2925503
-0.20471211 -0.042747874 0.24176574 -0.11717149 0.17758557 0.15558657 0.10128476 -0.11430049
-0.13896725 -0.02620082 -0.10267965 -0.20762362 0.011793564 0.2202407 -0.08673882 -0.1965821
0.029110169 -0.122043505 0.23243238 -0.14082381 -0.034613006 -0.039976764 -0.11862564 -0.1812469
0.2932072 -0.14164492 0.25614974 -0.033863872 0.061821353 -0.16568615 0.27449536 -0.14443308
0.070195325 0.15846403 0.038391985 0.72564024 0.45983794 0.3000845 0.065183215 -0.06793984
0.25393668 -0.17139581 0.0049240305 -0.13673522 -0.11759778 -0.23865262 -0.04252089 -0.19489682
-0.10618829 -0.0760985 0.13863459 -0.074377224 -0.11485162 -0.06292534 -0.22743925 0.12352083
-0.14489329 -0.012915261 -0.020889098 -0.08355916 -0.22226301 -0.07119912 0.030144785 0.15840633
0.27866954 -0.0788236 0.2416244 -0.12747964 0.23330553 0.16655324 0.19200094 -0.20595196
-0.04179503 -0.23300302 -0.16013049 0.07225452 -0.14159627 -0.0606452 -0.21147142 -0.07047429
-0.06852659 0.12229626 -0.09912628 0.029349819 0.01570171 -0.08919094 -0.16012314 -0.017135527
-0.16012265 0.07706766 -0.040029183 -0.16012245 -0.13488606 -0.15543093 -0.13332316 -0.09791455
0.13945365 -0.010719068 0.28873733 -0.1397026 -0.095129676 0.21115936 -0.28421503 0.10844913
-0.013149573 -0.09644626 -0.07422331 0.054258477 -0.03531022 -0.17999879 -0.07891753 -0.019287214
0.052479923 -0.13709602 0.20566086 0.34080625 0.10677307 -0.06445514 -0.074721485 -0.05459986
-0.061026394 0.08983505 -0.095907375 0.2077492 -0.079282954 0.1356838 -0.17208467 -0.22882974
0.029547103 -0.025466543 -0.02046675 -0.2506726 -0.23439969 -0.20712951 -0.08213282 -0.017476914
0.26396504 -0.14467613 0.2940367 -0.14499585 -0.051322926 0.044138633 0.09426659 0.113275304
-0.0668042 -0.03400789 0.12327879 -0.047035962 -0.10886561 -0.02735532 0.25548062 0.28592387
0.30360723 0.28917524 -0.010094206 0.046351902 -0.043099426 -0.31880212 0.31012276 -0.15087143

l1.bias f4 [41]
00000000: 5ee4 673e f81c b53e a733 103e 9df7 233e
00000010: 99ec 253e 12c4 813e d602 ab3d 50d9 733d
00000020: 4db5 5f3e c7c2 efbd b4e3 a73e 2f03 133e
00000030: dd21 653e 18cb 913e e156 8f3e d021 883e
00000040: eb41 263e 22fa 3c3e 3b2f b43e 3ea0 a03e
00000050: 931a 353e cbd0 163e b7e2 623e e5d3 093e
00000060: e490 683e 00f5 2e3e bf8e 2d3e f1f5 8d3d
00000070: de77 963e 3529 0d3e de4d 703e a306 563e
00000080: 8cef 8f3e 336c 883e f494 633e 9038 193e
00000090: 074e 603e 7b41 2b3e 22c8 713e 42ed 613e
000000a0: 3fc2 903e
0.22645709 0.35373664 0.14082204 0.16012426 0.16203536 0.25344902 0.0835015 0.059533417
0.21846505 -0.11707073 0.3279091 0.14356683 0.22376199 0.2847526 0.2799597 0.26588297
0.16236083 0.18454793 0.35192284 0.31372255 0.17685919 0.14728086 0.22156797 0.13459738
0.22711521 0.17085648 0.16948985 0.06931675 0.29388326 0.1378525 0.23467204 0.20900969
0.28112447 0.2664505 0.2222479 0.14962983 0.21904765 0.16724198 0.23611501 0.22063163
0.28273198

l2.weight f4 [41, 41]
00000000: 7871 0f3e 179c e9bd b513 ac3d b099 6a3e
00000010: c08e a83e f0f5 133e e030 973e 0214 12be
00000020: ff1b 81be 36ee 22bd 576c e5bd 266d bb3e
00000030: 7c63 863e 2513 b23e 9f28 883e a180 a9be
00000040: 7205 1abe e570 54be f08b 7bbe 511a 7a3e
00000050: 90d6 7c3e 74f8 9d3e 0ba7 f83d 4f44 903e
00000060: 1b91 623e f5f5 7a3e fb0b af3e 9c67 9b3e
00000070: b912 00be 2bd6 e1bd 8b59 bfbc dc1a 623e
00000080: 80a8 84be acb2 363e f7ee 2a3e 319f 553e
00000090: 3ed9 9a3d cd8c 2e3e 8bf6 8b3e 453f 79bc
000000a0: 3fb6 3cbe 4820 a33e 9442 97bd cf13 0f3e
000000b0: 2dae a03e 1199 aa3e 67be 0f3e 96b9 a13e
000000c0: 9005 69be 36b7 6ebe 448b 01be c6f2 54be
000000d0: bbba 843d cea7 333e 7446 c73d 1ef3 803e
000000e0: 1b63 553e 7c36 d03e 742b c73e afe8 0abe
000000f0: 7cf6 1c3e 289d 9dbe 2e3b 443e dc8b 9abe
00000100: 5ec0 993e b52b b13d a488 14be a2ae 233e
00000110: 90b4 843e 5eba cd3b 90f0 6d3e 5547 873b
00000120: 1db8 a83e bb52 6cbe 5f55 92bd 3ae2 c83e
00000130: a0aa c6bd 9e35 813e 76bb 0a3e b585 8bbe
00000140: df52 943e 64a0 3a3e 1072 de3d a5a9 0abe
00000150: 3025 693d de70 32bd 2cd6 c23d 947a 01be
00000160: c0df f3bd 2278 173e 2296 5abd 1481 0f3e
00000170: 041b 043d b655 dcbd 6c35 8a3d 8d4d 1ebe
00000180: 1c28 4b3d b4c8 1abd fd99 b6bd b056 dd3c
00000190: 2bc7 f6bd 3538 19be 7c4a ee3d d096 853c
000001a0: 3295 ab3d c13e 9dbd 508a 333d 14e5 bc3d
000001b0: 402f 7ebb 7c84 eabd ac3f 3e3d 2ea0 0c3e
000001c0: 216f 1dbe 4b25 08be f4d9 9b3d 7f0a 19be
000001d0: 0050 443b 2a0f a93d 98f3 89bd 6d1d bebd
000001e0: 5c4b 7f3d 486c cb3d 00b5 0f3e 4bbb 3d3e
000001f0: 9462 273e de03 91be cd6d f83d 86fd 7a3e
00000200: 5448 17be c2c1 25be 2508 9fbd 2d10 8a3e
00000210: 2ee5 193e ce2d 273e 95cb c0bb fb04 203e
00000220: 0cea 1f3e 4989 9dbe f9e0 cc3e 4ae7 afbe
00000230: 3a1d cbbe b458 a23e e0b4 963e a538 be3e
00000240: 4056 8dbe 4a2c 913d 4eb7 363e dd34 313e
00000250: b753 6e3e eb77 973e 0283 37be 0cb8 943e
00000260: f941 8b3e 4ae6 dfbd 3f15 333e 6e32 d33e
00000270: 626f 69be 5157 543d 0fb2 2f3e a86d b5be
00000280: b0fd d9bb b8a6 32bd d05c 45be e751 353e
00000290: 6ba6 b43d 78c3 663e 16b1 b1be 91e5 a13e
000002a0: 4953 803d 169a b3bc 9c2e 9c3e f18c 3abe
000002b0: 1523 943e 3fe3 d4bd 6bab e2bc aa5e 21bd
000002c0: 8bcb 7a3d d5fd 453e 3077 acbc 8b84 2abe
000002d0: 4ccd 0cbe dcc8 23be 7fd8 2cbe b113 823e
000002e0: a2af b63e 9413 ffbd 786c 98be 4fce 403e
000002f0: 5337 74be a09d 8d3e 833f fc3d b432 183e
00000300: 9ed7 3d3e d623 6b3e 152a a03d db15 a83e
00000310: 23b5 c9be b28c 74be a971 423e c348 b83d
00000320: 8ddd 92be dc32 14be 130a b13d 4a8e b9bd
00000330: e91c 943e e66f b93e bb53 a03e 2805 923e
00000340: cb12 973e 8591 2ebe b168 8b3e a96d a7be
00000350: 0a43 71bd 5cfd 823c 45ce 33be abe3 473d
00000360: 723e 90be 890e 7cbe 899f debc 4bff 333e
00000370: 3d20 3c3e 5a11 e9bb 890e b53e 6958 6e3e
00000380: a379 373c 90f5 753e ff73 cebd 8d69 90bd
00000390: 6aed 8dbe 0b8f 8f3e 140a c83d e358 3dbe
000003a0: 029a aabe ac12 883e a311 823e 9620 d23d
000003b0: 25a6 b63d 4f58 453e b720 f23d d3bd 383e
000003c0: f56f 0a3e 7a1c 2abe 3df7 223e a94a 9d3e
000003d0: 051f 913e 55fa 0e3e 918c d33d d4b7 54be
000003e0: fe94 39be 1c38 fdbd 319c 85be 0132 0d3e
000003f0: be32 033e 9647 383e d10c 9b3e 8f1b 3e3e
0.14008129 -0.11406725 0.08402196 0.2291019 0.3292141 0.14449286 0.29529476 -0.14265445
-0.25216672 -0.039777957 -0.11202305 0.3660671 0.26247776 0.3478023 0.2659349 -0.3310595
-0.1504114 -0.20746191 -0.245651 0.24424101 0.24691224 0.30853617 0.12141236 0.28177115
0.22125666 0.24507888 0.34188828 0.30352485 -0.12507142 -0.110271774 -0.023358127 0.22080559
-0.25909805 0.17841595 0.1669272 0.20861508 0.07560967 0.17045899 0.27336535 -0.015212839
-0.18428896 0.31860566 -0.07385746 0.139724 0.31382886 0.33319905 0.14037476 0.31586903
-0.22756028 -0.23312077 -0.12650782 -0.20795736 0.064809285 0.17544481 0.09730235 0.25185484
0.20838587 0.40666568 0.3890034 -0.13565324 0.15328401 -0.30783963 0.191632 -0.3018483
0.30029577 0.086509146 -0.1450525 0.15984586 0.25919008 0.00627832 0.23236299 0.0041283765
0.32952967 -0.23078434 -0.071451895 0.39235097 -0.09700513 0.2523622 0.13548073 -0.27250448
0.28969476 0.18225247 0.108615994 -0.13541277 0.05692023 -0.04356467 0.09513506 -0.12644416
-0.11907911 0.14791921 -0.053365834 0.14014083 0.032252327 -0.107585356 0.06748471 -0.15459271
0.0495988 -0.03778906 -0.0891609 0.027018875 -0.12049707 -0.14962848 0.116353005 0.016307265
0.08378066 -0.07677985 0.043833077 0.09223381 -0.0038785487 -0.11451051 0.04644744 0.13732979
-0.15374424 -0.13295476 0.07609931 -0.1494541 0.002995491 0.082548454 -0.06735915 -0.09282956
0.062327728 0.099327624 0.1403389 0.18528478 0.16346198 -0.28323263 0.12130318 0.24510774
-0.14773685 -0.16187194 -0.07765225 0.26965466 0.15028831 0.16326067 -0.005883644 0.156269
0.15616626 -0.30768803 0.4001539 -0.34356147 -0.39670736 0.317083 0.29434872 0.3715259
-0.27604866 0.070885256 0.17843363 0.17305322 0.23274122 0.29583678 -0.1792107 0.29046667
0.2719877 -0.10932596 0.17488573 0.41249412 -0.22796395 0.051841084 0.17157768 -0.35435224
-0.0066525564 -0.043616027 -0.19273686 0.17707025 0.08820804 0.22535503 -0.34705418 0.31620458
0.062658854 -0.02192406 0.3050431 -0.18217827 0.28933015 -0.10394906 -0.02766963 -0.03939692
0.06122927 0.1933511 -0.021052927 -0.16652124 -0.1375019 -0.1599459 -0.16879462 0.25405648
0.35680872 -0.12454906 -0.29770255 0.188287 -0.2384923 0.2765932 0.123168014 0.14863092
0.18539283 0.22962889 0.078205265 0.32829174 -0.3939601 -0.23881796 0.1898867 0.08998253
-0.28684655 -0.14472526 0.086445 -0.090603426 0.28928307 0.36218184 0.3131388 0.2851956
0.29506525 -0.17047699 0.2722831 -0.32700852 -0.058901824 0.015989952 -0.17559154 0.048801105
-0.28172642 -0.2461492 -0.027175682 0.17577855 0.18371673 -0.007112664 0.35362652 0.23275913
0.011198434 0.24019456 -0.10080718 -0.07051382 -0.27720195 0.2803882 0.09767547 -0.18490939
-0.33320624 0.26576746 0.2540408 0.102601215 0.08918408 0.19271968 0.11822646 0.18041162
0.1351927 -0.16612425 0.15914626 0.30721024 0.2834398 0.13962682 0.10329545 -0.2077325
-0.18123242 -0.12364218 -0.26095727 0.13788606 0.12812325 0.17996058 0.30283216 0.185652

l2.bias f4 [41]
00000000: 99ba 0cbe 857c 263e f838 c9bd 0cc4 6a3e
00000010: 263e 103e 06c6 233e 0268 7c3d 37e2 e83d
00000020: 27b7 833e 5ac2 1cbb 470c 13be 7f0a 173e
00000030: 88c3 90bd dc60 eb3d 1936 173e 2e5f 8c3d
00000040: 84c2 04be 51b1 0abe eb40 613e 1621 1fbe
00000050: cc80 1d3e 9064 e03d 797d 183b 8068 8c3d
00000060: e217 5b3e aa53 723e 10d7 333c 6b04 e13d
00000070: 51a5 153e 99e7 c73c 059a dab7 e304 553e
00000080: 0711 13bd 6671 813e eb27 0d3e dd0e 0a3e
00000090: 42c2 ff3d 541e 6a3e 2e5b 26be 9f06 803d
000000a0: 1ae4 943e
-0.13743056 0.16258438 -0.09825319 0.22926348 0.14086208 0.15993509 0.061622627 0.11371272
0.25725672 -0.0023919553 -0.14360152 0.14750098 -0.070685446 0.11493084 0.1476673 0.068540916
-0.12964827 -0.13544203 0.2199742 -0.15539965 0.15381163 0.10956681 0.0023268147 0.06855869
0.2139583 0.23664728 0.010976568 0.10987171 0.14613844 0.024402427 -2.6059346e-05 0.20802645
-0.03590491 0.2528183 0.13784759 0.13482232 0.124882236 0.22863132 -0.1624572 0.06251263
0.29080278

l3.weight f4 [7, 41]
00000000: 93b3 bbbe 32b9 b43e 2a8c 943d 6d08 03be
00000010: d436 8ebe f84b a53e 7a88 abbe d896 0f3f
00000020: decd b93e cf96 2cbd c088 b6bb e647 a0be
00000030: 13f4 683e e118 b83e 7048 b03e b0de a0be
00000040: 86f5 31be b333 ff3d ce21 9cbe 1083 b1bd
00000050: 3ee9 56be aa3c 8cbe 05fa b1be 3709 83be
00000060: 86e4 723e 5e62 733e 625a acbe 2b84 babe
00000070: a747 9a3e 2839 bbbe 5f45 153e c62d 93be
00000080: 613d 8dbe 97b7 713e 0a96 5ebe e30b 92be
00000090: a3a4 ba3e 60c4 8d3e 8aea 84bd 352d 9e3e
000000a0: 688d 81be b317 a2be b5be d8be aca3 93bd
000000b0: d754 a83e b3dc 95be 95ae 103e bbd8 3b3d
000000c0: d4d1 df3e 5238 d1be 3618 a1bd af51 87bd
000000d0: 9413 c5be e3e9 adbe d084 a8be b3af 17be
000000e0: 6134 9bbe c984 d5be 4c16 ab3d 7cab a93e
000000f0: 4487 8a3d 94fb a1be b330 31bd cb43 82be
00000100: 10cb 6bbe c23d d8be ed67 e53e 3668 c6be
00000110: 6978 6cbe 2973 ab3e 0642 a63e afc4 87be
00000120: fd63 a53e 1902 93be f120 af3e 883f 423e
00000130: e18e 853e 3c60 87be 0816 e43e 1636 0bbe
00000140: d2e4 96be 261d 7b3e 3de4 40be c317 8ebe
00000150: 067d 61bd 8ba9 763e 539e a83e 3a42 6f3e
00000160: 3fa5 1e3e 7f0f cbbe adaf 83bd 8180 b43d
00000170: c036 f5bc a04a a33e e7bd 61be 75c8 903e
00000180: 6b17 7bbe 719b 78be 8be1 17bd 7400 943c
00000190: eb11 b9bd 7474 b03d f217 a1be 41df cdbe
000001a0: 5867 b23e 3874 cb3e 15d3 bd3e 2b95 88be
000001b0: 3d6a b8be 4dd4 983e 6f76 493e d2b0 4a3e
000001c0: 5c39 bcbe 406b a23e 28c5 66be af4d 75be
000001d0: df3b 98be 2dec 88be 357d 38be b878 debe
000001e0: 4c10 133e 4685 9b3e 1a16 a33e e432 653e
000001f0: 3750 6e3e 7082 e4bc 34b5 53be 1621 a3be
00000200: 8b40 a5be e8d0 bbbe 997b 08bf f6de f63d
00000210: a713 55bb 56a6 023e 660c 543e 9732 a83e
00000220: 566f a7be 34fb 9d3e 6cf0 b63e 8069 80be
00000230: f26a cabd fbe8 a9be e54a cfbd e5b6 873e
00000240: a1fe babe df16 26be 51f9 92be f20a b2be
00000250: d717 05be fd08 903e a3c7 57be 2da0 b2be
00000260: 00af b4be 5656 663e 0802 55be baa8 9f3e
00000270: 3639 57be dbb7 8dbe 819e 9cbe ff20 71be
00000280: 56d2 fdbd 1976 073e 2e72 1abd a19a 79be
00000290: abad a43e ab05 82be 6a32 09be f9e4 b1be
000002a0: ed64 8fbe 1a93 41be cd33 863e 479e afbe
000002b0: b690 a4bd d791 10be eb96 0fbe b477 a4be
000002c0: e9be 813e a393 e8bc 6e57 89be 7011 97bd
000002d0: 9e7a b43e 170f 323c 5ac2 563e 698d 823c
000002e0: a33c b43e 383d aabe d79a 72be 0a90 1cbe
000002f0: 7206 15bd f4c2 86be 0f7a 6dbe 2f22 21be
00000300: e96b 87be a4cd b4be 2488 8e3e e80a 913d
00000310: 2f40 b1be 1cab ab3e 6b9b 543e faaa 9b3e
00000320: 0036 71be 2709 7fbe ff24 9bbd b4f8 a3be
00000330: 14dc 883e b066 a6be 1738 84be 6926 02be
00000340: dcc8 39be 3252 40be 1b5a b2be 4d40 1d3e
00000350: f823 cebe f0ae 413e 6558 a8bd 0a5e 1d3e
00000360: fa11 1d3e 3f11 323e 352a a9be c0a7 0abe
00000370: 3af9 90be 8bb6 11be a33e 633d 7b2a 8a3e
00000380: 5a52 73bd eca6 193e 416d cd3e 3154 873e
00000390: 05b3 0e3e 9ec7 9f3e 682e 923c fad6 823e
000003a0: d894 17be df26 8ebe d17c 8dbe 5f62 12be
000003b0: 2c6c a6be d778 c53d 2b9a 3fbe a8b0 d1bd
000003c0: 46a5 573e c837 923e b00b 3bbe 70d7 4ebd
000003d0: 5d73 8ebd e3a1 a8be 1380 ac3e b72f 753e
000003e0: 44bb bf3d 6d9b 003e f6bf ae3e 7571 81be
000003f0: aacf a6be 9d75 85be ec4a acbe 610c 133e
-0.36660442 0.35297543 0.07253297 -0.12796183 -0.27776206 0.32284522 -0.3350256 0.56089544
0.36289877 -0.04213601 -0.005570501 -0.31304854 0.22749357 0.3595648 0.34430265 -0.31419897
-0.17378816 0.12461033 -0.3049454 -0.08667576 -0.20987412 -0.27390033 -0.34761062 -0.25592968
0.23719987 0.23767993 -0.33662707 -0.3642896 0.3013279 -0.36567044 0.14577244 -0.2874586
-0.2758589 0.2360519 -0.21736923 -0.28524694 0.36453733 0.27688885 -0.06490047 0.30893865
-0.25303197 -0.31658706 -0.42332998 -0.07208952 0.32877228 -0.29269943 0.14129098 0.045860987
0.43714774 -0.4086328 -0.07865946 -0.06607377 -0.384915 -0.33967504 -0.32913828 -0.14813118
-0.303134 -0.4170287 0.08353862 0.33138645 0.06764081 -0.3163725 -0.043259334 -0.25442347
-0.23026681 -0.42234617 0.44805852 -0.38751382 -0.23092808 0.33486298 0.32472247 -0.26517245
0.32302848 -0.28712538 0.3420482 0.18969548 0.2608557 -0.26440609 0.44548059 -0.13594851
-0.2947145 0.24522838 -0.18837066 -0.27752504 -0.055050872 0.24088113 0.32933292 0.23365107
0.15492724 -0.3966026 -0.06429992 0.08813573 -0.029933333 0.31892872 -0.22045098 0.28277937
-0.24520652 -0.24278046 -0.03708033 0.018066622 -0.09036621 0.08615962 -0.3146358 -0.40209392
0.3484447 0.39737105 0.37075105 -0.26676306 -0.36018553 0.29849473 0.19674085 0.19794014
-0.36762512 0.3172245 -0.22536147 -0.23955415 -0.29733178 -0.26742688 -0.18016513 -0.43451476
0.14361686 0.30375117 0.318528 0.22382694 0.23272787 -0.027894229 -0.20674592 -0.3186118
-0.32275805 -0.3668282 -0.53313595 0.12054245 -0.0032512934 0.12758765 0.20707855 0.32851097
-0.3270213 0.30855715 0.35730302 -0.2508049 -0.098836794 -0.33185562 -0.10121707 0.26506725
-0.3652239 -0.16219662 -0.28705838 -0.34773976 -0.12997375 0.28131858 -0.21072249 -0.3488783
-0.35289764 0.22493872 -0.20801556 0.31183416 -0.21017918 -0.27679333 -0.3058968 -0.23547743
-0.12393634 0.13228644 -0.037706546 -0.24375392 0.32163748 -0.2539495 -0.13398138 -0.34745005
-0.28006688 -0.18903771 0.26211396 -0.34300444 -0.08035414 -0.14118133 -0.14022414 -0.32122576
0.25340965 -0.028390711 -0.26824516 -0.07376373 0.352498 0.0108678555 0.20972577 0.01593657
0.35202512 -0.3324983 -0.23691879 -0.15289322 -0.0363831 -0.26320612 -0.23191093 -0.15735696
-0.26449516 -0.3531314 0.27838242 0.07082158 -0.3461928 0.33528984 0.20762412 0.30403882
-0.23555756 -0.24905835 -0.07575416 -0.32025683 0.26730406 -0.3250022 -0.25824043 -0.12709965
-0.18143028 -0.18781355 -0.3483437 0.1535656 -0.40261817 0.1891439 -0.08219985 0.15367904
0.15338889 0.17389391 -0.33040014 -0.13540554 -0.28315145 -0.14229791 0.055479657 0.26985535
-0.05940471 0.15005082 0.40122417 0.2643142 0.13935478 0.31206983 0.017844394 0.2555464
-0.14802873 -0.2776403 -0.2763429 -0.14295338 -0.32504404 0.09642189 -0.18711154 -0.10238773
0.2105914 0.28558183 -0.18266177 -0.050498426 -0.069555975 -0.3293601 0.33691463 0.23943983
0.0936189 0.1255929 0.3413083 -0.25281873 -0.3258031 -0.26066294 -0.3365091 0.14360191

l3.bias f4 [7]
00000000: 0ef5 153e befb 1d3d 39b8 2ebd 586c 973d
00000010: c2be b8bd 1495 9dbd a608 5abe
0.14644262 0.03857016 -0.042656157 0.07393712 -0.09020759 -0.0769445 -0.21292362
