data.pth (torch, 114817 bytes, 6 tensors)

l1.weight f4 [101, 131]
0.13201608 -0.04196529 -0.03939595 0.09490213 -0.13126679 -0.06478412 0.06190934 0.06478459
0.009487082 -0.10661219 -0.21072729 -0.09199077 -0.079483435 0.0054448503 0.18345855 -0.12514737
0.002525413 0.103465185 -0.15486147 -0.05344619 -0.01271957 0.0703721 0.039559256 0.0869756
0.19847786 0.097054124 -0.2412237 -0.1756637 0.12523839 0.07241737 0.0928886 -0.10407167
0.11612036 0.19428676 -0.12856191 -0.0963338 -0.033117246 0.25852734 0.045557998 -0.1433325
0.19227897 -0.18373194 -0.06254845 -0.1646308 0.0039023673 0.18536344 0.069042064 0.13052222
0.17772967 -0.11173388 -0.089112595 0.2529427 -0.050380524 -0.13177648 0.26282704 -0.12948668
0.07974337 0.026368191 -0.09428093 0.098095484 -0.023621557 0.14153099 -0.13766266 -0.040014513
-0.10146669 0.11247997 -0.1326879 0.07071526 -0.121183015 -0.07506759 -0.1471716 0.19215515
0.28783855 0.1245988 0.17270681 0.03997099 0.08655026 0.09784172 -0.15997744 -0.059725016
0.1887151 0.06961037 -0.014025684 -0.0083186105 0.18774794 -0.03541225 -0.23075049 -0.14426178
-0.0954018 0.04661012 -0.033136785 -0.13015091 -0.13878958 0.1373533 -0.073129535 0.002170835
-0.06942457 0.045517977 0.17681225 -0.102630645 -0.18775715 -0.05820859 0.023002936 0.089837864
-0.11663521 0.27423972 0.19901885 0.18196975 0.17606778 -0.21332228 -0.019143183 0.14220668
0.12899424 0.15126961 0.06870271 -0.13789305 -0.07121838 0.18852276 -0.26360554 0.0032209067
-0.025713399 -0.08892439 -0.03985894 0.07115216 -0.019789323 -0.16816303 0.07937181 -0.090074696
0.08530567 0.1509906 0.09421672 0.12811309 -0.0792556 0.102275014 0.039215583 0.1248726
-0.004922501 0.124877185 -0.08225169 0.119613394 0.20741582 -0.19271994 -0.21596287 -0.0049288403
-0.07590754 -0.14647092 0.1980637 -0.0023116379 -0.1475511 -0.070062496 0.13400708 0.022230657
-0.12425186 0.06681348 -0.0015019539 -0.041399445 0.116146244 -0.06687363 -0.14909601 0.093331955
-0.037583042 -0.08510305 0.12218246 0.046121538 0.13350345 0.059624948 -0.14284465 -0.17943329
-0.08461929 -0.036695823 -0.29597008 -0.024313625 -0.051159672 -0.0055694897 -0.23023209 -0.0070980694
-0.08645238 0.21120311 -0.07471364 -0.04973859 0.095625766 0.17614678 -0.1004494 0.12820679
0.053748548 -0.16055551 0.13949092 0.048836954 -0.08524697 -0.19815412 0.2067001 0.15717643
-0.0032896425 0.11119751 0.11463088 0.17276984 -0.011824429 -0.16449857 -0.0021192348 -0.11457748
0.025112245 0.16025543 -0.1391163 -0.17238243 -0.0051740734 -0.03413547 0.14050527 -0.08514745
0.10918368 0.19543257 0.09210559 0.08039911 -0.07521428 0.12281103 -0.04090377 -0.014805673
0.03134264 -0.015909566 0.27392718 0.0528368 -0.07970625 -0.01872998 -0.13936661 0.007539463
0.2338884 0.21496934 -0.02406401 0.1304689 -0.040988788 0.27947414 -0.109024994 -0.1159467
0.14768845 -0.102666266 0.1725706 0.029943483 0.27204895 0.19357218 0.022597974 -0.10096303
-0.16028374 0.061357006 0.15893151 0.15886539 -0.11191412 0.0060480093 0.17694615 -0.09208407
-0.26796913 0.005333523 0.13130926 -0.011381831 -0.08370495 0.16495731 -0.26188737 0.11765222
00000000: 392f 073e cce3 2bbd a65d 21bd 0c5c c23d
00000010: cd6a 06be 89ad 84bd a694 7d3d c8ad 843d
00000020: b56f 1b3c 7e57 dabd e5c8 57be a865 bcbd
00000030: 36c8 a2bd b76a b23b 8fdc 3b3e a226 00be
00000040: 6681 253b 8ee5 d33d 0194 1ebe 64ea 5abd
00000050: be65 50bc 3f1f 903d e308 223d 4320 b23d
00000060: c83d 4b3e 50c4 c63d 5803 77be 2fe1 33be
00000070: 7e3e 003e 8f4f 943d 613c be3d 8723 d5bd
00000080: 83d0 ed3d 1cf3 463e bca5 03be a84a c5bd
00000090: f3a5 07bd b25d 843e 069b 3a3d c1c5 12be
000000a0: c7e4 443e 3a24 3cbe 6719 80bd fa94 28be
000000b0: dcbe 7f3b eacf 3d3e ed65 8d3d 9ea7 053e
000000c0: c4fe 353e bcd4 e4bd aa80 b6bd b581 813e
000000d0: cf5b 4ebd 6af0 06be 4491 863e 2898 04be
000000e0: 7e50 a33d 1b02 d83c 5c16 c1bd 49e6 c83d
000000f0: ff81 c1bc 80ed 103e 71f7 0cbe 42e6 23bd
00000100: c5cd cfbd e65b e63d 56df 07be 2ad3 903d
00000110: cd2e f8bd 09bd 99bd 27b4 16be 52c4 443e
00000120: 935f 933e a82d ff3d 0eda 303e 9fb8 233d
00000130: 4341 b13d 3d61 c83d 20d1 23be 38a2 74bd
00000140: 883e 413e e28f 8e3d fccb 65bc c84a 08bc
00000150: ff40 403e 6f0c 11bd db49 6cbe 5cb9 13be
00000160: 0562 c3bd 41ea 3e3d 70ba 07bd 4846 05be
00000170: db1e 0ebe 58a6 0c3e f0c4 95bd 9144 0e3b
00000180: 782e 8ebd 0f71 3a3d 450e 353e 0430 d2bd
00000190: 6943 40be 216c 6ebd a770 bc3c eafc b73d
000001a0: 71de eebd 2669 8c3e 99cb 4b3e 4756 3a3e
000001b0: 1d4b 343e 2871 5abe 2ad2 9cbc a19e 113e
000001c0: 1117 043e 6ce6 1a3e 02b4 8c3d d633 0dbe
000001d0: f1da 91bd 1c0c 413e 4ef7 86be d915 533b
000001e0: e8a4 d2bc fe1d b6bd 2143 23bd 39b8 913d
000001f0: 381d a2bc ee32 2cbe b08d a23d 1579 b8bd
00000200: bdb4 ae3d 489d 1a3e b2f4 c03d 1430 033e
00000210: c350 a2bd 9075 d13d 85a0 203d 35bd ff3d
00000220: ee4c a1bb 9cbf ff3d 9373 a8bd def7 f43d
00000230: d064 543e 6058 45be 5f25 5dbe 1c82 a1bb
00000240: 6a75 9bbd 79fc 15be 36d1 4a3e d97e 17bb
00000250: a317 17be ed7c 8fbd 2739 093e 111d b63c
00000260: c277 febd 81d5 883d 36dd c4ba 7792 29bd
00000270: 15de ed3d 0bf5 88bd a0ac 18be d324 bf3d
00000280: adf0 19bd 824a aebd cc3a fa3d f0e9 3c3d
00000290: 21b5 083e 4a39 743d de45 12be 5cbd 37be
000002a0: e14c adbd 5c4e 16bd 6489 97be 5e2d c7bc
000002b0: ce8c 51bd 4480 b6bb f6c1 6bbe ec96 e8bb
000002c0: f20d b1bd a145 583e 7703 99bd b1ba 4bbd
000002d0: 71d7 c33d d25f 343e 6ab8 cdbd a448 033e
000002e0: 7027 5c3d aa68 24be b5d6 0e3e 4209 483d
000002f0: f795 aebd eae8 4abe 31a9 533e dcf2 203e
00000300: 0b97 57bb 85bb e33d 98c3 ea3d 94ea 303e
00000310: 40bb 41bc 5072 28be dce2 0abb 99a7 eabd
00000320: 32b8 cd3c 001a 243e 8174 0ebe 0585 30be
00000330: 468b a9bb a2d1 0bbd 9de0 0f3e c961 aebd
00000340: b19b df3d 7a1f 483e dba1 bc3d 4aa8 a43d
00000350: f209 9abd 5984 fb3d b68a 27bd 7e93 72bc
00000360: 2461 003d c754 82bc 2f40 8c3e 676b 583d
00000370: 083d a3bd 9d6f 99bc 1fb6 0ebe 9a0d f73b
00000380: 7180 6f3e ec20 5c3e e321 c5bc a499 053e
00000390: dce3 27bd 3c17 8f3e 7f48 dfbd 7775 edbd
000003a0: a43b 173e b142 d2bd 59b6 303e 094c f53c
000003b0: 004a 8b3e c937 463e 631f b93c b4c5 cebd
000003c0: 6c21 24be 7c51 7b3d f1be 223e 9cad 223e
000003d0: 3b33 e5bd 612e c63b 5f31 353e 9396 bcbd
000003e0: 4033 89be d5c4 ae3b ef75 063e dc7a 3abc
000003f0: 806d abbd 92ea 283e 1a16 86be a6f3 f03d

l1.bias f4 [101]
0.18372937 0.05238403 0.17013478 0.16477928 0.1886235 0.184287 0.1454471 0.14998856
0.18570249 0.09311962 0.19829476 0.2154756 0.098992646 0.07785139 0.2276735 0.23185126
0.21708894 0.18919411 0.18931456 0.26329622 0.09374493 0.11126603 0.15877767 0.07574215
0.14836812 0.097072266 0.17899528 0.17298038 0.035929203 0.10590134 0.10685308 0.1383971
0.22670741 0.17913812 0.12708476 0.1310728 0.19065121 0.13990748 0.17561708 0.2672965
0.2330186 0.08404823 0.23127605 0.16855799 0.20262569 0.21118796 0.09033439 0.14685854
0.15594392 0.119931474 0.16990276 0.18457146 0.1523868 0.17199017 0.09533288 0.15605903
0.12349731 0.08340697 0.19295439 0.22156471 0.09248232 0.098738454 0.10437931 0.09147363
0.05747041 0.22589529 0.21068282 0.1058149 0.15182596 0.15334658 0.014897596 0.21201697
0.10966662 0.10838465 0.12995231 0.19807272 0.0439421 0.10917896 0.25307792 0.20289905
0.047561303 0.22812346 0.09347244 -0.0029166278 0.16275464 0.16076094 0.21180573 0.059855975
0.1871591 0.22508943 0.09958833 0.10575264 0.04235683 0.06488161 0.17592864 0.25355893
0.08609869 0.15695484 0.16368157 0.19546181 0.046647947
00000000: 8d23 3c3e a390 563d d037 2e3e e6bb 283e
00000010: 8526 413e bbb5 3c3e 16f0 143e 9a96 193e
00000020: cb28 3e3e 80b5 be3d c80d 4b3e a3a5 5c3e
00000030: a8bc ca3d 8d70 9f3d 3e23 693e 6b6a 6d3e
00000040: 904c 5e3e 1abc 413e addb 413e c3ce 863e
00000050: 58fd bf3d 72df e33d 9d96 223e b31e 9b3d
00000060: d0ed 173e d3cd c63d 8a4a 373e c521 313e
00000070: 802a 133d cde2 d83d cad5 da3d f8b7 0d3e
00000080: fd25 683e fc6f 373e 8222 023e f337 063e
00000090: 123a 433e e843 0f3e f7d4 333e 16db 883e
000000a0: 6e9c 6e3e 7a21 ac3d a1d3 6c3e 779a 2c3e
000000b0: 1c7d 4f3e a841 583e 3d01 b93d 1662 163e
000000c0: c3af 1f3e a29e f53d fdfa 2d3e 4d00 3d3e
000000d0: 490b 1c3e 311e 303e e33d c33d f0cd 1f3e
000000e0: 28ec fc3d 46d1 aa3d d695 453e dce1 623e
000000f0: 5f67 bd3d 6337 ca3d d2c4 d53d 8756 bb3d
00000100: 1866 6b3d 1851 673e 3dbd 573e 7bb5 d83d
00000110: 4478 1b3e e306 1d3e 0c15 743c fa1a 593e
00000120: e598 e03d c5f8 dd3d 3812 053e 93d3 4a3e
00000130: a2fc 333d 3899 df3d 6e93 813e c5c4 4f3e
00000140: a4cf 423d 3299 693e 7b6e bf3d e524 3fbb
00000150: 27a9 263e 849e 243e 9ae3 583e 8a2b 753d
00000160: a3a6 3f3e d87d 663e f7f4 cb3d d794 d83d
00000170: 5b7e 2d3d a6e0 843d a326 343e 7ad2 813e
00000180: 8354 b03d c5b8 203e 249c 273e 2427 483e
00000190: eb11 3f3d

l2.weight f4 [101, 101]
0.06583887 -0.16853924 0.025888277 0.09860253 0.13693 0.2478945 -0.020823514 0.060615562
0.20174135 -0.0066473237 -0.092908666 0.21319005 -0.05198176 0.22935452 -0.14388545 0.09635444
0.02106468 -0.08222532 -0.15915154 -0.1963614 -0.02672126 -0.014065371 0.24490738 0.07418436
0.25417772 0.2542811 0.1796143 0.15355448 0.13592233 0.06553868 -0.17608902 -0.104079366
-0.07148716 0.13258316 0.12650621 0.22572364 -0.20197532 0.22398604 -0.10168404 -0.024115127
-0.033637173 -0.019601144 -0.05140392 -0.053871468 -0.25429848 0.06994103 -0.23525277 0.21659265
-0.04689694 0.06161209 -0.120720826 0.1939462 0.109345764 -0.030533642 0.1653039 0.10336409
0.17530212 0.074761234 0.0308679 0.20701478 0.096412234 -0.08734735 -0.05603902 0.103136234
0.114650704 0.02529906 0.117322095 -0.14277166 0.12598129 -0.10359676 -0.2068566 -0.057667084
0.15600921 0.06550372 0.15607698 -0.16432405 0.15968241 0.21253842 0.059058174 0.01894569
0.19209118 0.27302596 0.08385838 0.11278276 0.20238677 -0.24512169 0.11514631 0.2598074
0.1344386 -0.1882341 -0.11039901 -0.04113061 0.251301 -0.006171904 0.061114952 -0.09623296
0.18023846 -0.13099697 0.30561566 -0.051549405 -0.2295666 0.06930779 -0.09189607 -0.09993436
0.03184847 0.1330625 -0.040869705 -0.07260694 -0.18891378 -0.119851515 0.22808635 0.14530076
0.2182461 0.23999992 0.12412335 -0.058539346 0.10153429 0.15737613 0.086265914 0.03334382
0.040208448 0.16717649 -0.08513236 0.1142521 0.23408972 -0.13644573 -0.13171142 -0.08273144
0.1552893 0.11215347 -0.16497579 0.16884623 0.11254047 0.14195432 0.21867917 -0.072239086
0.11640361 -0.15548395 0.24247313 0.11010651 -0.20884243 0.14075764 0.21154869 -0.06241976
-0.1440021 -0.10608216 -0.14407064 0.19807453 0.05641899 0.10703605 -0.10799027 0.10118234
-0.13390581 0.10607202 0.13094881 -0.16398124 0.032403104 -0.06696705 0.1870776 -0.029646937
0.19286111 0.080441594 0.051853694 0.13413109 0.14931758 -0.12591173 0.044622164 -0.090607695
0.11987497 -0.043500178 0.1704359 0.104187705 0.07003246 -0.2710861 -0.102155335 -0.07867465
-0.20947479 -0.06530372 0.19756635 -0.18002713 -0.06227934 0.10705782 0.16914153 0.19017352
-0.16409843 -0.22258721 0.26237044 0.033418752 0.029506868 0.20768914 0.23718056 0.2026101
-0.18418512 0.24869059 0.23775749 0.1068229 0.028019408 -0.23326658 0.22949573 0.20881926
-0.15607794 0.21070486 -0.2145959 0.13859457 0.17237683 0.19716656 0.23454617 0.1946735
-0.17249638 0.12062401 -0.19206996 -0.15023108 0.017815592 0.074384496 -0.20315573 0.21880352
0.25758785 -0.1770636 -0.104824446 -0.15787151 -0.18243062 -0.10102337 -0.0077060903 0.11711149
-0.097809464 -0.08910056 -0.18067065 0.29134166 -0.027136376 0.2015935 -0.11875881 -0.11316049
0.24064079 0.033803675 0.16041185 0.1811474 -0.2028561 -0.1499001 0.26075673 0.15403476
0.25146884 -0.105125666 0.25355786 0.05477517 0.20810984 -0.14953253 0.23550457 -0.13817073
0.061020408 -0.22224931 0.22136812 0.28123719 0.19611993 -0.17356376 0.2455715 0.16526505
00000000: 88d6 863d 8d95 2cbe a713 d43c 20f0 c93d
00000010: 6137 0c3e 0ed8 7d3e 1396 aabc 0648 783d
00000020: 4995 4e3e cbd1 d9bb e646 bebd 7e4e 5a3e
00000030: d3ea 54bd e9db 6a3e b556 13be 7a55 c53d
00000040: d68f ac3c c065 a8bd 9ff8 22be f612 49be
00000050: 8be6 dabc 7172 66bc 00c9 7a3e f8ed 973d
00000060: 9523 823e 2231 823e d0ec 373e 633d 1d3e
00000070: 392f 0b3e 2539 863d ae50 34be 9027 d5bd
00000080: dc67 92bd e1c3 073e d88a 013e 1924 673e
00000090: 9ed2 4ebe 995c 653e b93f d0bd 168d c5bc
000000a0: 22c7 09bd 9492 a0bc eb8c 52bd 54a8 5cbd
000000b0: 6933 82be 3e3d 8f3d 1ae6 70be 77ca 5d3e
000000c0: 0117 40bd f55c 7c3d 7b3c f7bd d599 463e
000000d0: acf0 df3d b021 fabc 6d45 293e 8db0 d33d
000000e0: 6682 333e 6b1c 993d aede fc3c affb 533e
000000f0: c773 c53d 2be3 b2bd 2c89 65bd 1739 d33d
00000100: fdcd ea3d f93f cf3c 9146 f03d bc32 12be
00000110: 3d01 013e 8a2a d4bd 37d2 53be 5234 6cbd
00000120: e1c0 1f3e d026 863d a5d2 1f3e 9044 28be
00000130: c983 233e aca3 593e fce6 713d fe33 9b3c
00000140: 8db3 443e 0fca 8b3e f1bd ab3d a6fa e63d
00000150: 7a3e 4f3e 2e01 7bbe d4d1 eb3d 7a05 853e
00000160: 46aa 093e 71c0 40be e018 e2bd 9278 28bd
00000170: 86aa 803e af3d cabb ac53 7a3d c915 c5bd
00000180: 6e90 383e 1224 06be a879 9c3e 7825 53bd
00000190: 8213 6bbe 3ef1 8d3d 0234 bcbd 63aa ccbd
000001a0: 8b73 023d 8941 083e fe66 27bd f3b2 94bd
000001b0: 9d72 41be b674 f5bd 788f 693e b9c9 143e
000001c0: e87b 5f3e 8ac2 753e 6234 fe3d f4c6 6fbd
000001d0: 36f1 cf3d 3527 213e 2fac b03d 8893 083d
000001e0: 9db1 243d 5030 2b3e e059 aebd 01fd e93d
000001f0: 37b5 6f3e 6eb8 0bbe 5cdf 06be 1a6f a9bd
00000200: 2904 1f3e b8b0 e53d 6aef 28be 07e6 2c3e
00000210: 9e7b e63d 795c 113e 6fed 5f3e 16f2 93bd
00000220: 0465 ee3d 2f37 1fbe e04a 783e 867f e13d
00000230: cada 55be c522 103e 38a0 583e ddab 7fbd
00000240: 4975 13be 9a41 d9bd 4187 13be 0dd4 4a3e
00000250: 9917 673d b735 db3d 012a ddbd b038 cf3d
00000260: 9b1e 09be 4a3c d93d 7217 063e b3ea 27be
00000270: 1eb9 043d 0526 89bd 4591 3f3e 22de f2bc
00000280: 627d 453e 90be a43d 8a64 543d a959 093e
00000290: b5e6 183e 01ef 00be bbc5 363d 8790 b9bd
000002a0: 0281 f53d 3e2d 32bd c086 2e3e 5d60 d53d
000002b0: 2e6d 8f3d cccb 8abe d136 d1bd 2d20 a1bd
000002c0: 8f80 56be f5bd 85bd d54e 4a3e 0859 38be
000002d0: 9f18 7fbd 2141 db3d 7033 2d3e d9bc 423e
000002e0: 6b09 28be e7ed 63be 6b55 863e 1ae2 083d
000002f0: 63b8 f13c 76ac 543e 76df 723e 0679 4f3e
00000300: 069b 3cbe bfa8 7e3e b376 733e f7c5 da3d
00000310: f588 e53c 6fdd 6ebe ee00 6b3e b7d4 553e
00000320: e5d2 1fbe 04c3 573e 07bf 5bbe bceb 0d3e
00000330: 8d83 303e 08e6 493e df2c 703e 7d58 473e
00000340: e4a2 30be b909 f73d fdad 44be 2dd6 19be
00000350: 01f2 913c e656 983d 0e08 50be 080e 603e
00000360: 8ee2 833e 2950 35be 33ae d6bd 12a9 21be
00000370: 18cf 3abe 57e5 cebd 5f83 fcbb 26d8 ef3d
00000380: 5450 c8bd 5b7a b6bd ba01 39be bc2a 953e
00000390: 1b4d debc 876e 4e3e d237 f3bd b0c0 e7bd
000003a0: 8a6a 763e b975 0a3d 0143 243e b47e 393e
000003b0: 82b9 4fbe 697f 19be e881 853e 4abb 1d3e
000003c0: 86c0 803e 204c d7bd 56d2 813e ee5b 603d
000003d0: bf1a 553e 0e1f 19be 1c28 713e a17c 0dbe
000003e0: 89f0 793d 5395 63be 53ae 623e 52fe 8f3e
000003f0: aad3 483e b3ba 31be 1877 7b3e 3e3b 293e

l2.bias f4 [101]
-0.051587313 -0.06305266 0.10883482 -0.030096449 0.035232503 0.03896426 -0.08256452 -0.012323955
0.09619006 -0.012693717 -0.0035559447 -0.10723876 0.17826757 0.20279251 0.16966031 0.07247417
0.09167 0.14990894 0.16184084 -0.08097588 0.1636669 0.113127016 0.033189937 -0.038578805
-0.05466459 0.10742883 0.1833341 0.12302532 0.14520384 -0.05934755 -0.1143566 0.1122271
0.039865427 0.018205516 -0.13736308 -0.028982924 0.20263077 -0.016363608 0.050783593 -0.029863434
-0.015998626 0.005574908 0.19837077 0.1464443 -0.053327903 0.20899494 0.09400104 0.057294186
0.16209945 0.21817829 0.17688899 -0.04645601 0.15405604 0.19486643 0.039768223 -0.018337183
-0.0469121 -0.05248758 -0.09877031 0.12477324 -0.06717732 0.004318455 0.0024335224 -0.08065485
0.19378956 -0.000341463 0.06791772 0.15065186 -0.08500669 0.17734823 0.17867194 0.19126485
0.1600974 0.010404419 -0.07243067 0.08835817 0.06995174 0.1224132 -0.18745129 0.064837225
0.11021976 0.11127323 0.04776604 0.10426831 -0.06025114 -0.049999095 -0.06789547 0.18188123
0.2012846 0.122792035 0.031680506 0.09296806 0.11479282 0.113041066 -0.037238892 0.0074129505
0.16135733 0.09579797 0.18039343 0.10404835 0.2402471
00000000: 384d 53bd c121 81bd cae4 de3d d48c f6bc
00000010: f54f 103d fd98 1f3d 9617 a9bd 6aea 49bc
00000020: 4bff c43d 4ff9 4fbc da0a 69bb ff9f dbbd
00000030: c68b 363e d7a8 4f3e 6fbb 2d3e 566d 943d
00000040: 7bbd bb3d bb81 193e 9bb9 253e afd6 a5bd
00000050: 4c98 273e 23af e73d 2cf2 073d cf04 1ebd
00000060: fae7 5fbd a503 dc3d efbb 3b3e b3f4 fb3d
00000070: 51b0 143e 6b16 73bd cb33 eabd 52d7 e53d
00000080: ee49 233d bc23 953c e8a8 0cbe 996d edbc
00000090: 717e 4f3e f90c 86bc 7502 503d 29a4 f4bc
000000a0: 8d0f 83bc b8ad b63b b521 4b3e 7ff5 153e
000000b0: 5c6e 5abd c502 563e 9e83 c03d 4fad 6a3d
000000c0: 66fd 253e 216a 5f3e 6322 353e a848 3ebd
000000d0: dec0 1d3e 118b 473e 01e4 223d dc37 96bc
000000e0: e726 40bd 37fd 56bd 1748 cabd 1d89 ff3d
000000f0: 4394 89bd d381 8d3b bb7b 1f3b 5f2e a5bd
00000100: c570 463e 6306 b3b9 7218 8b3d 7b44 1a3e
00000110: fd17 aebd c69a 353e c7f5 363e efda 433e
00000120: 93f0 233e 4c77 2a3c 8856 94bd 21f5 b43d
00000130: dc42 8f3d c6b3 fa3d 3bf3 3fbe 61c9 843d
00000140: e6ba e13d 38e3 e33d 53a6 433d a08a d53d
00000150: e6c9 76bd dacb 4cbd c80c 8bbd 133f 3a3e
00000160: 8d1d 4e3e 647a fb3d 6bc3 013d 0a66 be3d
00000170: 7f18 eb3d 1382 e73d cf87 18bd 56e8 f23b
00000180: db3a 253e ba31 c43d 0eb9 383e 4d17 d53d
00000190: 5603 763e

l3.weight f4 [21, 101]
-0.27521014 -0.2739977 -0.27051294 -0.21278189 0.07081837 -0.2811109 -0.24186407 0.17695285
0.07409083 0.1972934 0.13478485 0.08106255 0.12758712 0.058344454 0.0772961 0.2224825
0.005948549 0.21954273 0.106009744 -0.24529763 0.237416 0.040675275 -0.22912389 -0.1821496
0.0009024551 0.17524739 0.14807382 0.117741406 0.18737648 -0.29143405 -0.1086891 -0.30026025
-0.24471192 -0.22953396 -0.2857251 0.026665645 -0.07551602 -0.29693875 0.17845917 -0.19782396
-0.23911515 0.163807 0.23351015 0.16539423 0.23984511 0.21042168 0.19450398 -0.27846092
-0.2353728 0.0959719 0.2144111 -0.19300948 -0.2117711 0.23854052 0.09490249 -0.12403771
-0.050469693 -0.2226435 -0.27506402 0.26197988 -0.2342891 -0.23233631 -0.21418126 -0.14423825
0.13223898 -0.16221863 -0.2609924 -0.26679227 -0.2507946 0.23714383 0.16839287 0.23657744
0.0951672 -0.21814696 0.0260835 0.12732725 0.0879623 0.18470788 -0.26234886 0.10488687
0.23216109 0.13972674 -0.25833675 0.105110414 -0.20447542 -0.06387153 -0.14377862 -0.14603786
0.78771925 -0.25307173 -0.1411629 0.08257533 0.25056848 0.14670333 -0.16398247 -0.3130782
0.17174794 -0.17862497 0.24785647 -0.14424455 -0.6445081 -0.33455414 -0.27129355 0.217273
-0.1640599 0.06885011 -0.26044217 -0.22799018 -0.16972391 0.04953673 0.24278073 -0.30963975
-0.042244438 -0.26033318 0.25927567 0.19450781 -0.31977776 -0.16816355 -0.08551543 -0.041753344
-0.07789735 0.09532084 -0.28708854 -0.024051545 -0.25588343 0.0071006794 0.19984283 0.26157308
-0.25558165 -0.10332012 0.00033062667 0.075366035 0.2417418 0.12902287 0.037030358 -0.1496871
-0.061502352 0.25199166 0.12495881 0.1912177 -0.2773963 -0.26933235 -0.15092601 0.10300347
0.12960601 -0.19530821 0.17300524 -0.05826534 -0.1353705 0.2653691 0.30173174 0.032811735
-0.20065252 0.08557852 0.2824769 -0.27410826 -0.22884353 -0.24423331 0.09462151 0.30804247
-0.29630846 0.04669244 -0.22806436 -0.28363618 -0.18479162 0.15039322 -0.16496693 0.21479069
0.03255977 -0.24027959 0.16767853 0.23336056 0.12934408 0.14743817 -0.26830792 0.03575113
-0.18486239 0.1624663 0.10353412 -0.18413325 -0.1650576 -0.12685831 0.09958588 0.030569848
0.1372122 -0.24875791 -0.10268694 0.036967468 0.029379645 -0.4452638 0.20929673 0.073924586
-0.2990386 -0.19842543 0.21232106 -0.20836823 -0.1573191 0.24723825 0.054256566 0.16156119
-0.16409157 0.6295024 0.00092697283 -0.20723328 -0.109936096 -0.3056406 -0.32175958 0.11589971
-0.17125957 -0.23503587 0.07835606 -0.27582917 -0.278619 -0.023292005 0.20584059 0.08005835
0.14280157 0.19436969 0.08417603 -0.08245447 -0.05511745 -0.2067973 0.24915817 0.25269103
-0.21566118 -0.13208097 -0.04295235 -0.21138805 0.11669898 0.16349274 -0.27783877 0.21893223
-0.047115684 0.27224115 -0.25563326 -0.1476658 0.06522737 -0.02092022 0.24230577 0.13297215
-0.24070014 -0.21455796 -0.22414032 0.016088966 0.2392416 -0.21686491 -0.22205438 -0.011342475
-0.23242661 0.13549598 -0.20460196 0.10836906 -0.20508686 -0.29790357 -0.25327528 0.14448749
00000000: 58e8 8cbe 6d49 8cbe ac80 8abe 7fe3 59be
00000010: 3909 913d c5ed 8fbe 37ab 77be 2133 353e
00000020: efbc 973d 4807 4a3e 0a05 0a3e 1f04 a63d
00000030: 33a6 023e 98fa 6e3d 6b4d 9e3d 74d2 633e
00000040: 0cec c23b cfcf 603e a31b d93d 4d2f 7bbe
00000050: 2e1d 733e 1e9b 263d 749f 6abe 6d85 3abe
00000060: bd92 6c3a 0d74 333e aaa0 173e 6822 f13d
00000070: 9fdf 3f3e d836 95be 6498 debd b6bb 99be
00000080: c395 7abe f30a 6bbe 8f4a 92be e971 da3c
00000090: 25a8 9abd 5b08 98be 00be 363e 5d92 4abe
000000a0: 9ada 74be 06bd 273e 491d 6f3e 1b5d 293e
000000b0: f599 753e c878 573e 0d2c 473e 6e92 8ebe
000000c0: 9105 71be ea8c c43d 958e 5b3e 47a4 45be
000000d0: 86da 58be f743 743e 3d5c c23d 7c07 febd
000000e0: 4fb9 4ebd a8fc 63be 31d5 8cbe 3a22 863e
000000f0: 7be9 6fbe 92e9 6dbe 5552 5bbe 31b3 13be
00000100: a869 073e a41c 26be cca0 85be ff98 88be
00000110: 2668 80be d5d5 723e 2e6f 2c3e 5b41 723e
00000120: 05e7 c23d eb61 5fbe 10ad d53c 1362 023e
00000130: 9425 b43d 1024 3d3e 9752 86be edce d63d
00000140: a3bb 6d3e 8714 0f3e b744 84be 2144 d73d
00000150: 0162 51be 14cf 82bd b43a 13be f38a 15be
00000160: f8a7 493f 9e92 81be 028d 10be 411d a93d
00000170: 834a 803e 6639 163e 05eb 27be c94b a0be
00000180: b1de 2f3e 77e9 36be 16ce 7d3e d8b4 13be
00000190: 7cfe 24bf ae4a abbe fde6 8abe d07c 5e3e
000001a0: 52ff 27be 4901 8d3d ad58 85be 4276 69be
000001b0: 1bcc 2dbe 07e7 4a3d 839b 783e 1a89 9ebe
000001c0: 8108 2dbd 644a 85be c8bf 843e 0e2d 473e
000001d0: e9b9 a3be 1133 2cbe b722 afbd 8e05 2bbd
000001e0: a588 9fbd 9337 c33d 45fd 92be bf07 c5bc
000001f0: 2703 83be d1ac e83b 99a3 4c3e e8ec 853e
00000200: 99db 82be 8099 d3bd f657 ad39 8259 9a3d
00000210: 2a8b 773e 921e 043e 25ad 173d 9347 19be
00000220: e4e9 7bbd 0d05 813e 68ea ff3d 93ce 433e
00000230: e306 8ebe eee5 89be 598c 1abe 7cf3 d23d
00000240: 70b7 043e e0fe 47be 4928 313e a3a7 6ebd
00000250: 909e 0abe 75de 873e 957c 9a3e 9965 063d
00000260: db77 4dbe cb43 af3d d0a0 903e eb57 8cbe
00000270: f555 6abe 4c18 7abe ecc8 c13d beb7 9d3e
00000280: beb5 97be 9240 3f3d b489 69be c338 91be
00000290: 043a 3dbe ae00 1a3e 17ed 28be 17f2 5b3e
000002a0: 655d 053d da0b 76be ecb3 2b3e 12f6 6e3e
000002b0: c672 043e 08fa 163e a85f 89be c76f 123d
000002c0: 914c 3dbe 915d 263e b209 d43d 6d8d 3cbe
000002d0: dc04 29be 25e7 01be aff3 cb3d 9e6d fa3c
000002e0: 5b81 0c3e 65ba 7ebe 884d d2bd 336b 173d
000002f0: 95ad f03c 9ef9 e3be e251 563e c665 973d
00000300: 961b 99be 0930 4bbe b16a 593e 7b5e 55be
00000310: 4218 21be 062c 7d3e 223c 5e3d 4c70 253e
00000320: 9f07 28be 1227 213f 1800 733a f634 54be
00000330: 2d26 e1bd ed7c 9cbe acbd a4be d45c ed3d
00000340: ab5e 2fbe 3ead 70be 2479 a03d 7b39 8dbe
00000350: 26a7 8ebe e0ce bebc e0c7 523e a2f5 a33d
00000360: 933a 123e d908 473e 7b64 ac3d e4dd a8bd
00000370: d6c2 61bd acc2 53be 5223 7f3e b860 813e
00000380: 49d6 5cbe 3c40 07be ceee 2fbd 1c76 58be
00000390: e0ff ee3d a46a 273e e240 8ebe c52f 603e
000003a0: 60fc 40bd 3163 8b3e 5de2 82be b435 17be
000003b0: ed95 853d e260 abbc 011f 783e da29 083e
000003c0: 197a 76be 15b5 5bbe 0a85 65be 02cd 833c
000003d0: c0fb 743e d611 5ebe 3962 63be cad5 39bc
000003e0: 3e01 6ebe 75bf 0a3e 2d83 51be 99f0 dd3d
000003f0: 4a02 52be d186 98be 4cad 81be 87f4 133e

l3.bias f4 [21]
0.018012425 -0.009030692 0.11956228 -0.0038518454 0.059559602 0.018970601 -0.20952763 0.0059927045
0.015691802 -0.03917659 -0.16009225 -0.04266687 -0.083813064 -0.18503787 -0.032339536 -0.021908002
-0.16719331 0.063746184 0.13425876 0.055713262 -0.024310486
00000000: cb8e 933c 78f5 13bc 12dd f43d 3e6f 7cbb
00000010: c5f4 733d 3c68 9b3c 698e 56be 735e c43b
00000020: 188c 803c a277 20bd 39ef 23be 75c3 2ebd
00000030: 2fa6 abbd 917a 3dbe 7676 04bd 6978 b3bc
00000040: b934 2bbe 5c8d 823d 217b 093e 9733 643d
00000050: c926 c7bc
