data.pth (torch, 159297 bytes, 6 tensors)

l1.weight f4 [120, 154]
-0.019982312 -0.07633861 0.13539939 0.061208233 0.021757828 -0.078645006 -0.070541024 0.1604232
0.018554157 0.16558398 -0.17558236 -0.18428853 -0.2059356 0.13351437 0.06731871 0.14864032
-0.13782206 0.12610182 0.08276027 -0.0029513459 -0.02886333 -0.09456412 0.20141813 0.15606378
0.27020293 0.062388618 0.1640093 0.18209971 0.03844251 0.1393397 0.09290491 0.19231614
0.090277225 0.022547439 -0.008524797 -0.11083521 0.09085551 0.2313733 0.13600932 0.20940848
0.20002519 -0.028792018 -0.083281465 0.07486129 -0.06344273 0.11362276 0.119957745 0.051282924
-0.056731753 -0.071437165 -0.21069501 0.11041382 0.27234092 -0.043216567 -0.18430033 0.0011497085
0.1288639 0.1327319 -0.20058185 0.12511945 0.12625428 -0.2354275 0.08319599 0.19233254
0.066606686 0.10787969 -0.22068252 0.35816735 -0.1417318 0.13762757 0.18402694 0.07122734
-0.23941642 -0.11602463 0.18518148 0.13698024 -0.011171586 -0.099951595 0.11871602 -0.050159164
-0.082285434 0.078561254 -0.13267033 0.17717059 0.22407965 0.14171726 0.32826635 -0.17597349
-0.00023862443 -0.035142977 -0.03904478 0.13589548 -0.101153806 0.26411462 0.082351 0.14825761
0.13300401 0.16522756 0.12700585 -0.08537968 0.15350701 -0.13319428 0.13943163 0.031403743
0.13094203 0.05517316 0.09976464 0.18446285 0.21336365 -0.13959081 0.07391262 0.19395348
0.03412144 -0.20941037 0.15283774 0.18081073 -0.0778021 -0.1640091 -0.033819623 -0.11688842
0.20688064 0.06178034 0.0123405 0.18952489 0.08222584 0.096625924 0.036664356 -0.15260729
-0.08355595 0.13813393 0.13891235 0.036677882 -0.18870425 0.0041080494 -0.07916849 0.15695173
1.0536704 -0.0058561433 0.19957805 0.12053807 -0.2174863 0.06729301 -0.18560624 -0.175454
0.018882733 0.10535433 0.0412156 0.02469557 0.18476534 -0.13562828 -0.05547998 0.13377035
-0.050121617 -0.19874495 0.20234402 0.07246304 -0.11154668 0.16083816 -0.02216697 -0.20815368
0.05019068 0.101559654 -0.06973471 0.09780133 -0.1829974 0.031593576 -0.16011678 0.2268246
-0.05586181 0.073240325 0.22408636 -0.15577507 0.06258223 0.0303639 -0.05948529 -0.015696721
0.30672145 -0.014482236 -0.07918788 -0.061190065 0.11719105 -0.071345486 -0.16560242 0.1495452
-0.11610633 0.17251383 0.08452574 0.00857578 -0.10023296 0.04634416 -0.1981281 0.16223301
0.12876715 0.15732555 -0.06567621 -0.08641274 0.035782106 -0.14176087 -0.16809553 -0.12414426
0.123305485 -0.15224987 -0.12792377 -0.07784454 -0.014773849 0.12515153 0.2833817 -0.08964079
-0.12368002 -0.036367983 -0.015623402 0.23516463 -0.16809969 0.24637102 0.2415555 -0.08679545
0.007913595 0.14806454 -0.07791613 0.062190276 -0.09569197 0.2725539 0.12884031 0.110057816
-0.12114676 0.0124295065 -0.034188982 0.20713572 0.12705563 -0.096981674 -0.13123772 -0.05978657
-0.03447664 0.056582406 -0.07984982 -0.08051466 -0.099124625 -0.09095144 0.09395833 0.14718784
-0.16809714 -0.1047255 0.11169428 0.08970482 0.039330352 0.14519303 0.036382083 -0.28147152
-0.061996378 -0.027353024 -0.049328662 0.19767605 0.07384127 0.047908273 0.1640736 0.17526495
00000000: f2b1 a3bc 6b57 9cbd 23a6 0a3e 7cb5 7a3d
00000010: 793d b23c a210 a1bd d077 90bd fb45 243e
00000020: e3fe 973c d98e 293e ddcb 33be 22b6 3cbe
00000030: c8e0 52be feb7 083e 64de 893d 2b35 183e
00000040: 3a21 0dbe d620 013e 377e a93d 5e6b 41bb
00000050: ca72 ecbc d5aa c1bd 8e40 4e3e 2fcf 1f3e
00000060: 0a58 8a3e 358b 7f3d 0ef2 273e 5978 3a3e
00000070: e575 1d3d 11af 0e3e ee44 be3d 86ee 443e
00000080: 44e3 b83d 68b5 b83c 97ab 0bbc 92fd e2bd
00000090: 7412 ba3d 1fed 6c3e 0746 0b3e 2d6f 563e
000000a0: 67d3 4c3e 3ddd ebbc 798f aabd e050 993d
000000b0: 43ee 81bd 0db3 e83d 68ac f53d 0b0e 523d
000000c0: 8e5f 68bd a64d 92bd 6fc0 57be a420 e23d
000000d0: 4570 8b3e db03 31bd 3ab9 3cbe d1b1 963a
000000e0: e6f4 033e dfea 073e 5465 4dbe 501f 003e
000000f0: cd48 013e e813 71be a962 aa3d d2f2 443e
00000100: 1669 883d 07f0 dc3d 99fa 61be b661 b73e
00000110: 2422 11be 3eee 0c3e 8f71 3c3e a4df 913d
00000120: 9429 75be 529e edbd 37a0 3d3e 8c44 0c3e
00000130: 0709 37bc 6cb3 ccbd 6221 f33d b273 4dbd
00000140: 4485 a8bd b9e4 a03d bbda 07be 356c 353e
00000150: 2375 653e 541e 113e 8712 a83e 6532 34be
00000160: 4237 7ab9 15f2 0fbd 6bed 1fbd 2f28 0b3e
00000170: ba29 cfbd 083a 873e a4a7 a83d d8d0 173e
00000180: 3432 083e 6a31 293e d20d 023e 8bdb aebd
00000190: f130 1d3e 1564 08be 2ac7 0e3e 36a1 003d
000001a0: ab15 063e 40fd 613d 6751 cc3d d4e3 3c3e
000001b0: 007c 5a3e e5f0 0ebe 805f 973d be9b 463e
000001c0: ecc2 0b3d ac6f 56be 7f81 1c3e 7326 393e
000001d0: b556 9fbd 00f2 27be 7286 0abd 3263 efbd
000001e0: 85d8 533e 620d 7d3d cf2f 4a3c d012 423e
000001f0: 0566 a83d d0e3 c53d 5d2d 163d 1645 1cbe
00000200: 621f abbd fb72 0d3e 0a3f 0e3e 8c3b 163d
00000210: b03b 41be d19c 863b 1723 a2bd f4b7 203e
00000220: acde 863f e4e4 bfbb 305e 4c3e aadc f63d
00000230: bbb4 5ebe ebd0 893d 900f 3ebe 37aa 33be
00000240: f6af 9a3c 03c4 d73d b0d1 283d 5d4e ca3c
00000250: 2033 3d3e 24e2 0abe fa3e 63bd 18fb 083e
00000260: 534c 4dbd cc83 4bbe 4533 4f3e 8167 943d
00000270: 9672 e4bd c2b2 243e 8197 b5bc 3d26 55be
00000280: be94 4d3d 82fe cf3d 12d1 8ebd 104c c83d
00000290: ac63 3bbe 4468 013d a7f5 23be b544 683e
000002a0: 5acf 64bd 06ff 953d e576 653e 8083 1fbe
000002b0: 1d2b 803d b7bd f83c d9a6 73bd 6996 80bc
000002c0: 980a 9d3e e646 6dbc 412d a2bd 6fa2 7abd
000002d0: dc01 f03d 951d 92bd ae93 29be 6022 193e
000002e0: 28c9 edbd 77a7 303e d51b ad3d 6e81 0c3c
000002f0: f046 cdbd 60d3 3d3d 18e2 4abe 6920 263e
00000300: 89db 033e f319 213e 4081 86bd 2af9 b0bd
00000310: 4290 123d c329 11be 3c21 2cbe 593f febd
00000320: 9687 fc3d 64e7 1bbe 73fe 02be f56c 9fbd
00000330: 040e 72bc b927 003e 6817 913e 9795 b7bd
00000340: f34b fdbd 98f6 14bd 4cf9 7fbc ffce 703e
00000350: 5322 2cbe af48 7c3e 535a 773e d0c1 b1bd
00000360: 06a8 013c 3b9e 173e 7e92 9fbd 3bbb 7e3d
00000370: 27fa c3bd 2f8c 8b3e b7ee 033e fe65 e13d
00000380: cb1b f8bd 21a5 4b3c bf09 0cbd 631b 543e
00000390: df1a 023e 549e c6bd 2e63 06be c3e2 74bd
000003a0: 6137 0dbd f4c2 673d 4d88 a3bd dfe4 a4bd
000003b0: da01 cbbd c044 babd 3a6d c03d 69b8 163e
000003c0: a821 2cbe 537a d6bd f8bf e43d 29b7 b73d
000003d0: dd18 213d 7bad 143e 6105 153d 091d 90be
000003e0: eaef 7dbd 7313 e0bc da0c 4abd 976b 4a3e
000003f0: 173a 973d 773b 443d e902 283e a878 333e

l1.bias f4 [120]
0.27956727 0.16809973 0.17510383 0.13827026 0.15714407 0.23920251 0.26330099 0.12867442
0.20037164 0.24066275 0.07648698 0.26560393 0.20377547 0.18881936 0.2284689 0.1995116
0.14472057 0.15434903 0.16725282 0.15027663 0.16378608 0.179784 0.16445504 0.2566215
0.17792845 0.23787007 0.108435854 0.1584515 0.26452428 0.08927602 0.15887883 0.15597364
0.22019678 0.22864127 0.20190845 0.15301979 0.22016145 0.15808325 0.3249705 0.15241113
0.2550471 0.18263423 0.2074022 0.07990973 0.23587781 0.23756415 0.09954548 0.0883733
0.12169909 0.1343816 0.23121591 0.18627095 0.25466707 0.18533237 0.18196887 0.20575297
0.08412456 0.24770482 0.2543189 0.21616524 0.22770832 0.25417033 0.2658271 0.1731024
0.15287828 0.26389247 0.20367932 0.13741171 0.28034025 0.09727893 0.2540178 0.25241572
0.17611377 0.18439248 0.15982856 0.1634278 0.16902092 0.17296267 0.24390565 0.13382736
0.1196746 0.10148796 0.14498687 0.2294792 0.09217938 0.24192387 0.27019557 0.121510886
0.22416459 0.11274816 0.2743868 0.16346237 0.2847369 0.2886442 0.09939073 0.20760913
0.2054263 0.16246928 0.16138922 0.2546017 0.1688548 0.17007096 0.15153022 0.18614906
0.09475938 0.23174731 0.12670766 0.18382105 0.11969796 0.18189609 0.21821816 0.13940051
0.1590084 0.19175066 0.20890711 0.19367516 0.24773882 0.15979852 0.16443971 0.15605895
00000000: 7123 8f3e 5622 2c3e 6b4e 333e b896 0d3e
00000010: 60ea 203e 81f1 743e 63cf 863e 3ac3 033e
00000020: 392e 4d3e 4c70 763e 35a5 9c3d 3dfd 873e
00000030: 84aa 503e dd59 413e c0f3 693e c54c 4c3e
00000040: a131 143e ac0d 1e3e 5344 2b3e 1ee2 193e
00000050: 8ab7 273e 4c19 383e e766 283e e563 833e
00000060: e032 363e 3694 733e 9e13 de3d 1c41 223e
00000070: ba6f 873e 59d6 b63d 22b1 223e 8eb7 1f3e
00000080: 447b 613e f020 6a3e 17c1 4e3e 38b1 1c3e
00000090: 0172 613e 93e0 213e 8962 a63e aa11 1c3e
000000a0: 8995 823e 7804 3b3e 3e61 543e b6a7 a33d
000000b0: f489 713e 0444 733e 80de cb3d 10fd b43d
000000c0: 5f3d f93d 559b 093e ddc3 6c3e d0bd 3e3e
000000d0: b963 823e c5c7 3d3e 0c56 3a3e e8b0 523e
000000e0: 7f49 ac3d 55a6 7d3e 1636 823e 6c5a 5d3e
000000f0: 5f2c 693e 9d22 823e 7d1a 883e c141 313e
00000100: 208c 1c3e ea1c 873e 5091 503e a8b5 0c3e
00000110: c288 8f3e 2d3a c73d 9f0e 823e a23c 813e
00000120: 2b57 343e 62d1 3c3e 19aa 233e 9e59 273e
00000130: d213 2d3e 201d 313e 67c2 793e 0a0a 093e
00000140: f517 f53d ebd8 cf3d 7077 143e 98fc 6a3e
00000150: 8bc8 bc3d e4ba 773e 1357 8a3e b3da f83d
00000160: 678b 653e 82e8 e63d 6d7c 8c3e ae62 273e
00000170: 09c9 913e 2cc9 933e 5e8d cb3d 7d97 543e
00000180: 465b 523e 595e 263e 3743 253e 275b 823e
00000190: 46e8 2c3e 1527 2e3e bd2a 1b3e dc9d 3e3e
000001a0: 3511 c23d 2b4f 6d3e a7bf 013e 963b 3c3e
000001b0: 3424 f53d f842 3a3e 9574 5f3e 02bf 0e3e
000001c0: 19d3 223e 495a 443e bfeb 553e c852 463e
000001d0: 3faf 7d3e 39a2 233e e262 283e ebcd 1f3e

l2.weight f4 [120, 120]
0.19673398 0.12545635 -0.13112472 -0.18316033 0.09981498 -0.095281824 0.19688469 -0.1422433
0.15467587 0.20644854 -0.08384791 0.15061547 0.15208668 0.07045483 0.072077766 -0.031406023
-0.07898874 0.13913032 0.26030222 -0.22372168 0.19466446 -0.32668948 0.19358663 0.20067297
0.30491003 0.10655795 -0.39052123 -0.16237412 0.059715822 -0.111494444 0.010012292 0.120655425
0.026556466 0.28320137 0.03293716 -0.07546234 0.17405799 0.19173554 0.16909537 0.1786279
0.24892476 0.14164996 0.06549293 -0.0639792 0.021565633 -0.1980645 -0.022679593 -0.21059324
0.102363154 0.031487685 0.12777011 0.16975512 0.24456125 0.17020059 -0.09108528 0.1530812
-0.20814133 0.123592995 0.06993374 0.021214476 0.22824311 0.26433632 0.22905852 0.060274173
-0.024365067 0.20324361 -0.16892312 -0.066252194 0.041627813 -0.12128087 0.13564597 0.2955499
-0.18043311 -0.055558745 -0.105132215 -0.10286822 0.095385775 -0.029856415 0.2825618 0.26274174
-0.20910887 -0.018600624 -0.05260211 0.08445931 -0.3114155 0.12695394 0.10906466 -0.2111558
-0.060198788 -0.22731726 0.12950355 0.24269499 0.26458237 0.2348087 -0.17071263 -0.007900165
0.24463166 -0.095621265 -0.05998838 0.24490562 -0.056596886 0.13622051 -0.22091381 0.060109634
-0.12270669 0.33992642 0.19568133 0.30044857 -0.06874941 -0.07533701 0.12917897 -0.12066062
0.026839478 0.07936831 0.350583 -0.30703145 0.14486252 0.0906417 0.22984993 0.14971928
-0.15411709 -0.08441783 0.33926192 0.16904768 0.2721742 0.25321564 0.11971806 0.08643605
0.26965764 -0.09923912 -0.017881794 -0.20976354 0.10959511 0.18369159 0.09712081 -0.15801112
0.0956277 -0.02586273 -0.05427484 -0.19033042 -0.10882598 0.17545857 0.25057632 -0.032547235
-0.2403834 6.841888e-05 0.099771425 0.28267214 0.19547693 0.018850707 -0.08314643 -0.19833522
-0.05725822 -0.27068406 -0.018232945 -0.20142701 0.079342596 -0.1912441 -0.19173607 -0.11340198
0.028606758 0.025186658 0.24073458 0.09409674 0.2716185 0.016217845 0.0055649546 -0.09565263
0.0013308594 -0.13508047 0.12175158 0.23832884 0.010345471 0.2885823 0.15432946 0.13211814
-0.023153013 0.021131592 0.27895018 0.0706144 0.023367826 0.14319715 0.07694168 -0.20883161
0.26358175 -0.00040681974 0.10762131 0.010889899 -0.17350815 0.0008365419 -0.10587707 0.010384536
0.06417017 0.32727802 -0.18237741 0.038972624 0.17588094 0.035968658 -0.026771434 -0.24604946
-0.14054297 -0.028484004 -0.027015122 0.23751016 -0.003961185 0.06289567 0.20202649 0.07639358
0.030551463 0.21538936 -0.047958322 0.07986273 0.1848066 0.06458647 0.03653592 0.27168256
-0.16615883 -0.09359135 -0.014692354 0.08120691 -0.11062457 -0.108779885 -0.017097866 0.21807268
0.13234238 -0.041183967 0.1334727 -0.039915536 0.2520469 -0.00077839784 0.22194012 -0.046078898
0.18401448 0.2697173 -0.3206476 0.09644493 0.18384488 -0.035214905 -0.26533246 0.15222351
-0.1228101 0.053587 0.31555432 -0.08395621 0.25326332 0.27329007 -0.12554698 -0.012339998
0.3474463 0.18051769 -0.21281715 0.23804899 0.3024089 -0.04690718 0.026391214 -0.19181527
00000000: a274 493e a177 003e 8f45 06be 628e 3bbe
00000010: cc6b cc3d 1e23 c3bd 249c 493e 3aa8 11be
00000020: 5a63 1e3e 3f67 533e 74b8 abbd f13a 1a3e
00000030: 9cbc 1b3e 9f4a 903d 829d 933d 9aa3 00bd
00000040: d9c4 a1bd 2e78 0e3e 5546 853e 4c17 65be
00000050: 1f56 473e d843 a7be 933b 463e 377d 4d3e
00000060: 2b1d 9c3e 0e3b da3d 66f2 c7be 6745 26be
00000070: 9498 743d 3357 e4bd 990a 243c 311a f73d
00000080: f28c d93c c5ff 903e 1ee9 063d 008c 9abd
00000090: 423c 323e 5256 443e 5627 2d3e 3bea 363e
000000a0: 22e6 7e3e b00c 113e 2821 863d 8707 83bd
000000b0: 69aa b03c 6cd1 4abe 8eca b9bc c1a5 57be
000000c0: c6a3 d13d 3bf9 003d 2bd6 023e 49d4 2d3e
000000d0: 446e 7a3e 1049 2e3e eb8a babd 51c1 1c3e
000000e0: 0023 55be 531e fd3d 6c39 8f3d fbc9 ad3c
000000f0: 90b8 693e 1757 873e 518e 6a3e 0de2 763d
00000100: 4099 c7bc 181f 503e 2ffa 2cbe 3baf 87bd
00000110: ed81 2a3d 1b62 f8bd c7e6 0a3e 5152 973e
00000120: 75c3 38be 9191 63bd 8f4f d7bd 93ac d2bd
00000130: 9e59 c33d 7195 f4bc f1ab 903e 1686 863e
00000140: a320 56be 5660 98bc 4f75 57bd 01f9 ac3d
00000150: da71 9fbe 3700 023e 4b5d df3d 3a39 58be
00000160: 0193 76bd dbc5 68be 949c 043e 0985 783e
00000170: 5777 873e b171 703e 4bcf 2ebe b26f 01bc
00000180: b980 7a3e 15d5 c3bd 60b6 75bd 8ac8 7a3e
00000190: 23d2 67bd 647d 0b3e 3b37 62be 8535 763d
000001a0: a54d fbbd d60a ae3e b060 483e 65d4 993e
000001b0: 7ecc 8cbd 4a4a 9abd 7e47 043e ea1c f7bd
000001c0: 77de db3c da8b a23d 9d7f b33e 3a33 9dbe
000001d0: d756 143e 5ba2 b93d c85d 6b3e 0350 193e
000001e0: dfd0 1dbe 41e3 acbd bdb3 ad3e d61a 2d3e
000001f0: 6b5a 8b3e 7ba5 813e be2e f53d 6205 b13d
00000200: 9110 8a3e e13d cbbd d77c 92bc 41cc 56be
00000210: 6773 e03d a619 3c3e 46e7 c63d abcd 21be
00000220: 75d8 c33d 13de d3bc 4b4f 5ebd fae5 42be
00000230: 28e0 debd 69ab 333e 8a4b 803e 4050 05bd
00000240: 1127 76be 1b7c 8f38 f654 cc3d 67ba 903e
00000250: 1b2b 483e cc6c 9a3c ad48 aabd 6318 4bbe
00000260: 9887 6abd 1a97 8abe 425d 95bc e242 4ebe
00000270: 5f7e a23d 7ed5 43be 7656 44be 4c3f e8bd
00000280: b858 ea3c 4054 ce3c 2083 763e cbb5 c03d
00000290: 9411 8b3e 49db 843c 395a b63b 87e5 c3bd
000002a0: 3b70 ae3a 8952 0abe e458 f93d 7a0c 743e
000002b0: 0d80 293c 0fc1 933e 8b08 1e3e fa49 073e
000002c0: 63ab bdbc 291c ad3c 8fd2 8e3e 489e 903d
000002d0: e26d bf3c 46a2 123e 9993 9d3d f4d7 55be
000002e0: 30f4 863e 6c4a d5b9 9068 dc3d 8c6b 323c
000002f0: 1fac 31be 604b 5b3a 14d6 d8bd e723 2a3c
00000300: a66b 833d fc90 a73e 25c1 3abe c2a1 1f3d
00000310: 221a 343e df53 133d c44f dbbc 64f4 7bbe
00000320: 7fea 0fbe 4957 e9bc d14e ddbc dd35 733e
00000330: d4cc 81bb 72cf 803d 08e0 4e3e 3d74 9c3d
00000340: 1047 fa3c 078f 5c3e f26f 44bd 128f a33d
00000350: f13d 3d3e e945 843d b0a6 153d fa19 8b3e
00000360: 8a25 2abe d2ac bfbd 33b8 70bc cf4f a63d
00000370: 228f e2bd fdc7 debd d310 8cbc 724e 5f3e
00000380: c384 073e 85b0 28bd 11ad 083e 797e 23bd
00000390: 4b0c 813e 650d 4cba 4544 633e 3abd 3cbd
000003a0: 4b6e 3c3e 6318 8a3e ec2b a4be eb84 c53d
000003b0: d541 3c3e 813d 10bd a8d9 87be 7be0 1b3e
000003c0: dd83 fbbd 0b7e 5b3d 5690 a13e 3cf1 abbd
000003d0: bbab 813e adec 8b3e 638f 00be b42d 4abc
000003e0: 7be4 b13e a1d9 383e bdec 59be 1dc3 733e
000003f0: 57d5 9a3e be21 40bd 6332 d83c 396b 44be

l2.bias f4 [120]
0.14453992 0.008471439 -0.01765968 0.0034008839 0.05815104 -0.019934997 -0.06657254 0.12933527
0.16363086 -0.090349436 0.07515533 0.011159398 0.015548604 -0.012645776 -0.03088076 0.074930646
-0.12326982 0.14380455 -0.041089267 0.030630738 0.075813144 0.046914835 0.053895127 0.17618655
-0.03424217 -0.08166525 0.042255837 -0.023973461 -0.07306885 -0.04675524 0.012916249 0.13103777
-0.05828627 0.12652893 0.06840425 0.07749999 -0.059280165 0.072780475 0.096342474 0.03961535
0.14964777 0.12726134 0.17251393 0.00097288715 0.09086213 0.041948617 -0.012859929 -0.0114266
0.042661056 -0.011601176 0.13449623 0.08991337 0.08894307 0.060118265 0.10527202 0.0034194014
-0.029889047 0.04647875 -0.083095744 0.028739164 0.14161842 0.01602549 0.13497813 0.13852082
0.1545353 0.0389993 -0.06315815 0.06924225 -0.05891913 0.10493524 -0.013266198 0.07843464
-0.03635466 0.12607731 -0.03863093 0.08885318 0.19995803 0.1271278 0.009861868 0.052105494
0.0018443768 -0.06299824 -0.0146042025 0.14270416 0.060006294 0.15586835 0.02248098 0.09431131
0.084111266 0.0082988795 0.07193106 0.047924913 0.011070086 0.012534784 0.07605543 0.111030184
0.15216818 0.087599434 0.064613655 0.027840974 0.17565411 0.038878083 0.09060942 0.07799423
-0.026997825 0.058367513 0.066116616 -0.039683633 0.100240365 0.13334794 0.033915907 -0.009013248
0.10578141 0.072846815 0.06506055 0.05032049 0.076108985 0.09066562 0.13265756 0.037971754
00000000: 4602 143e cacb 0a3c 09ab 90bc 5de1 5e3b
00000010: c92f 6e3d b84e a3bc 2f57 88bd 7770 043e
00000020: d98e 273e 2009 b9bd 0aeb 993d e8d5 363c
00000030: 92bf 7e3c 3b30 4fbc a6f9 fcbc 3d75 993d
00000040: e374 fcbd 8041 133e 384d 28bd 50ed fa3c
00000050: ec43 9b3d c529 403d 23c1 5c3d 3f6a 343e
00000060: 8541 0cbd 1c40 a7bd 7514 2d3d fe63 c4bc
00000070: 1fa5 95bd 6c82 3fbd ad9e 533c c42e 063e
00000080: 95bd 6ebd cd90 013e 8717 8c3d 51b8 9e3d
00000090: c2cf 72bd ee0d 953d 344f c53d b543 223d
000000a0: 443d 193e cc50 023e 7ea7 303e 5a09 7f3a
000000b0: ed15 ba3d 50d2 2b3d 74b2 52bc a236 3bbc
000000c0: 5cbd 2e3d dc12 3ebc 61b9 093e 8024 b83d
000000d0: c927 b63d 923e 763d db98 d73d 0918 603b
000000e0: e0d9 f4bc 8060 3e3d 1a2e aabd 656e eb3c
000000f0: 6b04 113e e347 833c b537 0a3e 67d8 0d3e
00000100: 803e 1e3e bbbd 1f3d 0f59 81bd e1ce 8d3d
00000110: 3055 71bd 49e8 d63d 785a 59bc 57a2 a03d
00000120: a0e8 14bd 691a 013e 773b 1ebd a8f8 b53d
00000130: ccc1 4c3e ca2d 023e ac93 213c 926c 553d
00000140: 04bf f13a 3905 81bd 7746 6fbc 0a21 123e
00000150: 29c9 753d f49b 1f3e 082a b83c 4a26 c13d
00000160: 8742 ac3d 06f8 073c 9750 933d ea4c 443d
00000170: 4e5f 353c b25e 4d3c f3c2 9b3d cb63 e33d
00000180: fad1 1b3e 5567 b33d 2a54 843d c112 e43c
00000190: acde 333e a03e 1f3d 6e91 b93d 70bb 9f3d
000001a0: 8b2a ddbc c612 6f3d 2668 873d 4e8b 22bd
000001b0: d24a cd3d 5d8c 083e 68eb 0a3d 4dac 13bc
000001c0: eda3 d83d b630 953d 773e 853d dc1c 4e3d
000001d0: 07df 9b3d e6ae b93d 62d7 073e 4588 1b3d

l3.weight f4 [27, 120]
-0.096598186 0.118858 0.01375655 -0.076683305 -0.038727727 -0.07545476 -0.016408155 -0.36618704
-0.063862294 0.01940198 -0.012904544 0.12640023 -0.37907422 0.10837597 -0.06997883 0.18467169
-0.30857632 -0.28667197 -0.13496816 -0.104320824 0.11310537 -0.114171736 -0.100781046 -0.24236472
-0.006283852 -0.08837776 -0.07759832 0.022739735 0.019310515 -0.21000709 -0.2073534 -0.03932526
-0.39345935 -0.40055713 0.02681634 0.0803709 -0.27539045 0.16599105 -0.038103335 0.20285505
0.1629883 0.17221119 -0.21760009 -0.017846696 -0.099668294 0.15203321 0.12067076 0.034626763
0.135479 0.0448578 0.11715535 -0.35696182 0.15231022 -0.13555492 0.0034413657 -0.2426786
-0.20920427 -0.1781338 0.043511502 -0.33975828 -0.35061958 0.035630256 0.20537645 -0.18830308
0.012561802 -0.11576243 -0.056919 -0.21626315 0.049151793 0.02528857 -0.36296174 0.070391625
0.14922673 -0.10142078 -0.32337156 0.15523066 0.1728061 0.07477223 0.065026805 -0.019048598
-0.2124048 -0.07974526 -0.04250677 -0.27140182 0.08642444 -0.06444485 0.064200014 0.17711903
0.05167126 -0.108746044 -0.056952342 0.0838086 -0.064803295 -0.1341776 -0.11160659 0.08243453
0.101700984 -0.049129758 -0.18504278 0.055674326 0.03668682 -0.28680545 -0.34602258 0.087019295
0.079571255 0.14752242 -0.027358102 0.05658874 0.23872907 0.10645739 -0.16985857 -0.023770314
0.054465648 -0.09626995 0.16531244 0.043495193 -0.058390085 -0.2715097 0.034681708 0.009820533
-0.10290506 -0.31135803 0.13564871 -0.1986963 -0.26115552 -0.29602134 0.05299441 0.12114495
-0.06969723 0.001812861 -0.20431101 -0.25403374 -0.15712635 -0.024671404 0.20790781 0.18523705
-0.30446118 -0.2782924 0.21438988 -0.02268335 0.21646781 0.22312947 -0.041363943 0.10230161
0.10292467 -0.06442309 0.2027298 -0.080654554 0.0084357625 0.07351397 0.1382048 0.1358533
-0.31273997 -0.06895299 -0.31991902 -0.1775442 -0.040269945 0.046608057 0.14243205 0.054493275
0.111774795 -0.007174813 -0.30906072 0.06603383 -0.038212232 0.1126521 -0.10600485 -0.15413207
-0.19036782 0.0073307194 0.18339363 0.056527983 -0.032169648 0.026490679 0.14992572 -0.2787002
0.109503016 0.11001576 -0.037949204 -0.049350772 0.2191113 0.19323918 -0.2401123 -0.090547375
-0.18247765 -0.23143739 -0.0090704365 0.07109066 0.020571243 -0.2579051 -0.10751955 -0.056374248
-0.331296 -0.18902175 0.163387 -0.1293543 0.23749992 -0.22206454 -0.1967141 -0.1515261
-0.18365368 -0.018513387 0.025813134 -0.21412188 -0.18296814 0.011908842 0.049595423 0.12878199
0.10739095 -0.2877052 -0.15423636 0.17702833 -0.21746041 -0.22401448 0.11459984 0.17275694
-0.07478058 -0.036587384 -0.0704879 -0.09394491 -0.14178073 -0.31442446 0.15043816 -0.13939628
-0.07431674 -0.09107775 0.06914405 0.11182633 -0.37613207 0.18737651 -0.041549165 0.16196312
-0.24120034 -0.18340804 0.083486356 -0.25591907 0.17402583 -0.28150126 0.047213156 -0.28656253
-0.29261196 -0.24676424 0.1238339 0.14907013 -0.10829639 -0.10552053 -0.044999186 -0.05390133
0.18963152 -0.007574438 -0.13957031 -0.04415682 0.041164804 0.12199884 0.0077082505 -0.07010441
00000000: 45d5 c5bd d36b f33d 2763 613c 230c 9dbd
00000010: f7a0 1ebd 0688 9abd 656a 86bc de7c bbbe
00000020: 3cca 82bd e7f0 9e3c 956d 53bc 106f 013e
00000030: 0416 c2be 38f4 dd3d 1051 8fbd 931a 3d3e
00000040: b7fd 9dbe abc6 92be 1835 0abe 28a6 d5bd
00000050: caa3 e73d dfd2 e9bd 4b66 cebd 752e 78be
00000060: c5e8 cdbb 66ff b4bd deeb 9ebd ae48 ba3c
00000070: 1631 9e3c 190c 57be 7354 54be 8613 21bd
00000080: 8173 c9be d315 cdbe f1ad db3c 8099 a43d
00000090: faff 8cbe 8ff9 293e 3e12 1cbd 3cb9 4f3e
000000a0: 68e6 263e 2158 303e 8fd2 5ebe 3c33 92bc
000000b0: e41e ccbd 98ae 1b3e 3b22 f73d cbd4 0d3d
000000c0: 02bb 0a3e d0bc 373d 25ef ef3d b3c3 b6be
000000d0: 36f7 1b3e e9ce 0abe 8988 613b bd80 78be
000000e0: a539 56be b568 36be 1e39 323d ccf4 adbe
000000f0: 6984 b3be 08f1 113d 344e 523e 86d2 40be
00000100: 04d0 4d3c da14 edbd e623 69bd 1674 5dbe
00000110: 6453 493d fa29 cf3c 1fd6 b9be 7c29 903d
00000120: e4ce 183e b3b5 cfbd f590 a5be c9f4 1e3e
00000130: 15f4 303e 2f22 993d c62c 853d ce0b 9cbc
00000140: a580 59be 7c51 a3bd 941b 2ebd 2ef5 8abe
00000150: 4cff b03d a9fb 83bd 4c7b 833d b15e 353e
00000160: 3ea5 533d 3fb6 debd dc46 69bd d8a3 ab3d
00000170: 97b7 84bd da65 09be ff91 e4bd 6fd3 a83d
00000180: 9b48 d03d 493c 49bd db7b 3dbe c30a 643d
00000190: eb44 163d 2ad8 92be df29 b1be 2c37 b23d
000001a0: 41f6 a23d 1e10 173e 191e e0bc 98c9 673d
000001b0: 6575 743e 5506 da3d 68ef 2dbe f6b9 c2bc
000001c0: 5f17 5f3d 2e29 c5bd aa47 293e 0428 323d
000001d0: 712a 6fbd 5203 8bbe 680e 0e3d 4de6 203c
000001e0: e3bf d2bd 526a 9fbe 7fe7 0a3e 0b77 4bbe
000001f0: 2db6 85be 1c90 97be ab10 593d d81a f83d
00000200: 6cbd 8ebd 859d ed3a e836 51be b610 82be
00000210: bbe5 20be af1b cabc c9e5 543e c8ae 3d3e
00000220: 56e2 9bbe 577c 8ebe 0589 5b3e 6fd2 b9bc
00000230: bda9 5d3e 0d7c 643e 3d6d 29bd 8283 d13d
00000240: 2bca d23d 41f0 83bd 6798 4f3e 372e a5bd
00000250: 2736 0a3c 7e8e 963d 8f85 0d3e 211d 0b3e
00000260: 741f a0be 3a37 8dbd 6dcc a3be 26ce 35be
00000270: 19f2 24bd 17e8 3e3d b5d9 113e 5734 5f3d
00000280: 2fea e43d b21a ebbb 353d 9ebe bf3c 873d
00000290: 6e84 1cbd 25b6 e63d 1219 d9bd ccd4 1dbe
000002a0: c8ef 42be 8836 f03b 8acb 3b3e e389 673d
000002b0: 52c4 03bd fb02 d93c 2186 193e cbb1 8ebe
000002c0: 1e43 e03d f14f e13d a070 1bbd 0924 4abd
000002d0: b65e 603e 7ee0 453e 00e0 75be e770 b9bd
000002e0: 6cdb 3abe ecfd 6cbe 2b9c 14bc fb97 913d
000002f0: 0685 a83c 230c 84be 3633 dcbd afe8 66bd
00000300: a19f a9be eb8e 41be ec4e 273e 7475 04be
00000310: 2e33 733e e364 63be 6c6f 49be a829 1bbe
00000320: b60f 3cbe 63a9 97bc 1176 d33c c442 5bbe
00000330: 005c 3bbe 4e1d 433c 9224 4b3d 6ddf 033e
00000340: c9ef db3d 194e 93be 23f0 1dbe ea46 353e
00000350: f1ad 5ebe 0d64 65be 52b3 ea3d 32e7 303e
00000360: 9026 99bd a7dc 15bd f65b 90bd 3066 c0bd
00000370: f82e 11be 3efc a0be 760c 1a3e e6bd 0ebe
00000380: 6033 98bd f986 babd 659b 8d3d 3405 e53d
00000390: 6294 c0be a1df 3f3e 752f 2abd a9d9 253e
000003a0: 39fd 76be 51cf 3bbe e5fa aa3d d307 83be
000003b0: d433 323e ef20 90be 9562 413d 53b8 92be
000003c0: 3cd1 95be c4af 7cbe a19c fd3d d7a5 183e
000003d0: 7fca ddbd 261b d8bd 1151 38bd a4c7 5cbd
000003e0: c42e 423e fe32 f8bb 85eb 0ebe c8dd 34bd
000003f0: 6d9c 283d 87da f93d 7e95 fc3b e792 8fbd

l3.bias f4 [27]
0.045984354 0.03336733 -0.040991385 0.025203658 0.077672474 -0.05933263 -0.03674942 -0.08993287
-0.028646298 -0.0071067465 -0.071909755 -0.11270068 -0.03690397 0.09541915 -0.033107392 -0.024318688
0.036986634 -0.03483302 -0.03661271 0.022609744 0.07857037 -0.06592057 0.08899723 -0.01865631
-0.00657204 0.1088485 -0.045310285
00000000: 175a 3c3d 2eac 083d 95e6 27bd e777 ce3c
00000010: bf12 9f3d c606 73bd 8f86 16bd b92e b8bd
00000020: a4ab eabc b6df e8bb 6c45 93bd 9dcf e6bd
00000030: 9e28 17bd 1e6b c33d 9e9b 07bd fc37 c7bc
00000040: 4c7f 173d 12ad 0ebd 36f7 15bd 1238 b93c
00000050: 81e9 a03d 5d01 87bd 2e44 b63d 1ed5 98bc
00000060: 445a d7bb f6eb de3d 4797 39bd
