data.pth (torch, 114753 bytes, 6 tensors)

l1.weight f4 [101, 131]
00000000: 422b febb 475e f13e 6c55 1d3e b671 283d
00000010: c9e1 973d c26a 80bd 325c 403d 69b6 90bd
00000020: 186f 9e3c 1b89 debc 9bae 0bbe 9d6e 29bc
00000030: e43a 373e 444b 2f3e 4961 7a3d 308f 1c3e
00000040: 5301 1c3d a02d 2f3e f580 52bd aada 993b
00000050: b7c4 1d3e f212 553c ded1 173e e082 e83d
00000060: b5b1 18bd a83a c83c 8876 993d 5ed1 9cbc
00000070: d140 c33d 6229 203e bc7b 813e 91cb 993d
00000080: 104b 5f3d 732a 5b3e 4e15 99bd 90f7 b83d
00000090: da3d 40be fcb1 f33d f956 4abd e997 2cbe
000000a0: 8169 fabc 0b0b 8bbd 57cf 19bd 083a 2d3e
000000b0: b268 ecbd 3c0a 8bbd afd4 2fbd 07d9 8abd
000000c0: 3a0a 8bbd 1f54 06be 37a7 cd3d 9775 51be
000000d0: 23f2 8ebd ee9b debb 9011 413e fcb7 79be
000000e0: 6411 243c d298 373e 05fc bfbd 6d08 81bd
000000f0: ee60 153e f4e0 a1bd fb4f bf3a 43df e63d
00000100: cfcb a23d b02c c3bd fd03 56bd 1bcc 973d
00000110: 5a71 babc 496a 9abd f82c c63b 1f6a 82bd
00000120: 7f78 143e a8f0 453e 0923 f43d 4050 86bb
00000130: fd9a 06be 68c7 f13c ac6d 313d 851e e53c
00000140: da7e 743e c956 253e 0de6 063e 04c6 233e
00000150: 2939 f83d 4ee2 063e 139c 3f3e 725d 663e
00000160: 1097 1b3e 47a8 223e 8703 b1bd b2c2 0cbe
00000170: 4de4 e43d 4fc6 2a3e 3a1a 05bd 6706 b4bb
00000180: 6c72 83bd 92c6 793d 2d5e 783e 5664 e0bd
00000190: 3c5d e63d 5595 a03d 2e8b 643d 50b7 ebbc
000001a0: d855 5b3e 40a9 ddbd b2f7 8cbc 8a94 1abe
000001b0: 5896 ef3c 3124 5a3e 218b 92bd 4563 df3d
000001c0: 9713 bc3d 226a 4cbe cdd1 993d 65ed dbbd
000001d0: 1e1e ea3d f651 44be c74a 33bb 14a9 583e
000001e0: cb08 a33c c8ae c83d d787 e13d 0411 58be
000001f0: fb9b 063c f505 783e ac77 2d3d e258 eb3e
00000200: f15c 2e3e 1649 2a3e 8f17 bdbd e26a c0bd
00000210: a337 053c d230 aa3c c185 9a3d b3da 9a3c
00000220: 224d 5b3e ecde d7bd cd4d 14bd 202f d4bb
00000230: 4017 493c b2ae 30be 89b5 ed3d 064d 34be
00000240: edcc aa3f 2f3e 923d 5155 633c c581 82bd
00000250: 8a90 da3d 4e4e 8d3e ba79 0abe 2bec f4bd
00000260: 7670 65bd c84a f6bd 12e7 053e 9404 03be
00000270: 28c9 cfbd 2b64 e03d 5ca6 d03d 06e9 82be
00000280: f733 833e baa7 193e aeb7 f0bd 45db 0fbe
00000290: 3e89 bbbc cf93 483e b38e 21be ac44 313e
000002a0: 40cf 0fbe 7053 a93e 77ca 1abe d2e3 253b
000002b0: c0f5 b13e 664c 1c3e e279 323e aa27 543c
000002c0: f6ad 05be 8319 83bc f629 ffbd 54ac 05be
000002d0: e279 76be c333 55bd 76b1 793b cd93 813d
000002e0: 76eb 383e 434d 82bd 0641 803e 97e0 7d3e
000002f0: cef0 59bd 591d 283e 6a06 ab3d 94cc f7bd
00000300: 1a1e 963e 6025 983d a0a4 5abb 9930 febd
00000310: 5010 38bd fae5 323e e556 483e 4e5d 383e
00000320: cb24 133e 0209 d73d d891 b5bd b986 b6bd
00000330: b090 ffbc cb7e d53d 7034 913b 5c59 e8bc
00000340: 2c6a c4bd 7bec 3cbe b7f5 8ebb e28c 813d
00000350: 6bc2 9a3c f7e5 86bd 5963 c9bd c039 383e
00000360: 57ab a6bd 6ab8 633e f329 b1bb 1ebf df3d
00000370: 74e4 1e3e 9406 c33d 487d 863e 41c5 2ebe
00000380: c45e 36be 9a45 41bc abf8 423e 8671 b4bd
00000390: 8f2c 3cbd 251f 19be 998c 143e 46fd 14be
000003a0: 1564 383c 35d3 643d 1caf 523e 6a1e 0cbd
000003b0: 10ac 05be 3802 23bc 44cb f0bc cb24 62bd
000003c0: 5bd0 ad3d 41ce 51be 1ede cc3d 4645 1dbc
000003d0: 96a5 27be 862b 983d 2471 763c c977 393e
000003e0: b6db 573e 2040 1c3e 4071 0d3d f60e 753d
000003f0: afde b7bd e3da 47bc 7069 dc3d 18f4 913b
-0.0077566216 0.4714224 0.15364617 0.04112407 0.07416112 -0.062703624 0.046962924 -0.07066042
0.019340083 -0.027164986 -0.13640825 -0.010341314 0.17893559 0.17118555 0.061127935 0.15288997
0.0380872 0.17107248 -0.051392514 0.0046952562 0.15407072 0.013005005 0.14826152 0.113530874
-0.03727885 0.024442032 0.07493311 -0.019142803 0.09533847 0.15640786 0.25289714 0.0750953
0.054514945 0.21402912 -0.07474767 0.09031594 -0.18773594 0.11899182 -0.04939935 -0.16854824
-0.030567886 -0.06789216 -0.03755125 0.16916668 -0.115434065 -0.067890614 -0.04292744 -0.06779676
-0.0678906 -0.13118027 0.10041659 -0.20455013 -0.06979778 -0.0067934906 0.18854356 -0.2438659
0.010013912 0.1792939 -0.09374241 -0.06300435 0.14587757 -0.079042345 0.001459598 0.112730525
0.0794903 -0.09530008 -0.052249897 0.07411977 -0.022759128 -0.075398035 0.006047841 -0.06367897
0.1449909 0.19330084 0.11920745 -0.004098922 -0.13145061 0.02951403 0.043317482 0.027968654
0.23876515 0.16146387 0.13173695 0.15993506 0.121202774 0.13172266 0.18711881 0.22496584
0.15194345 0.15884505 -0.08643251 -0.13746145 0.111763574 0.16677211 -0.032495715 -0.0054939273
-0.064183086 0.060980387 0.24254675 -0.109566376 0.11248252 0.07840983 0.055796795 -0.028773934
0.21419466 -0.108232975 -0.017207954 -0.15095726 0.029246494 0.21302868 -0.07155443 0.10907606
0.09183424 -0.19962361 0.075107194 -0.10738639 0.11431526 -0.1917189 -0.0027357803 0.21158248
0.019901654 0.09798962 0.110122375 -0.21100241 0.0082159 0.24221022 0.042350456 0.4596625
0.17027642 0.16629443 -0.09233009 -0.09395386 0.008130941 0.020775232 0.07545043 0.018903112
0.21416143 -0.10540566 -0.03620701 -0.0064753443 0.01227361 -0.17254141 0.11606891 -0.17607507
1.3343788 0.07140767 0.0138753215 -0.06372408 0.106721 0.27598804 -0.13522997 -0.11959108
-0.056015454 -0.12025982 0.13076428 -0.12794715 -0.101457894 0.109566055 0.101879805 -0.25568408
0.25625584 0.15005389 -0.11753784 -0.14048488 -0.02289259 0.19587635 -0.15777092 0.17311352
-0.14043903 0.3307147 -0.15116297 0.0025312793 0.34757805 0.15263519 0.17429307 0.01294891
-0.13054642 -0.016003376 -0.12459175 -0.13054019 -0.24069932 -0.052051317 0.003810016 0.06327019
0.18058571 -0.06362393 0.2504961 0.24792705 -0.053208165 0.16417445 0.08350833 -0.12099567
0.2931984 0.07429004 -0.0033362284 -0.12411613 -0.04493743 0.17470542 0.19564398 0.18004343
0.14369504 0.10499765 -0.08865708 -0.08912415 -0.031196922 0.104245745 0.0044313 -0.028362922
-0.09590563 -0.18449585 -0.0043627876 0.063256994 0.018891534 -0.06586831 -0.09833402 0.1799078
-0.08138149 0.22238317 -0.005406612 0.109251246 0.15516835 0.09522739 0.26267457 -0.17067434
-0.17809588 -0.011796379 0.19040172 -0.088107154 -0.045940932 -0.14953287 0.14506759 -0.14549741
0.01125433 0.055865485 0.20574611 -0.034208693 -0.13053918 -0.009949259 -0.0293938 -0.05521087
0.08487006 -0.20488836 0.10003303 -0.009599036 -0.1637176 0.074301764 0.015041623 0.181121
0.21079907 0.15258837 0.03453183 0.05982872 -0.089780204 -0.012198183 0.10762298 0.004454147

l1.bias f4 [101]
00000000: 1e0a 8b3d ccab 053e cd25 473e 1233 973d
00000010: d3e8 663e da97 723e 3d47 5f3e d60c 333e
00000020: a67e 203e 14ad 2b3e 887d 7c3e 39e6 af3d
00000030: 0c00 053e d251 523e 6814 6a3e 28e1 013e
00000040: f7b6 ea3d 44b0 3b3d e9a8 683e 2993 703e
00000050: d3d6 033e 01f0 103e 9323 383e 0eb7 1e3e
00000060: 596e 273e 0ed5 ef3d 89db 483e ecf9 b03d
00000070: 7a70 dd3d 2615 fa3d 06c9 663e bd21 803e
00000080: 80f1 c23d 8d79 343e 11ae 613e 2b63 3d3e
00000090: 598e 1a3e 6fa8 403e fd19 153e b6fb cd3d
000000a0: dbc1 ef3d be1c 513e ded1 903d e10c 7a3e
000000b0: 9136 1e3e 6bec 633e a28d d13d 4f5a 3a3e
000000c0: 98b3 1e3e 71b4 603e 9320 193e e4f4 433e
000000d0: 58a2 c13d 6c2f 6c3e 6406 003e 3759 543e
000000e0: c3e4 a03d c195 d03d 3356 f63d d0ef ee3d
000000f0: b551 a93d 3cc8 c63d fbb9 e73d 85e0 623e
00000100: 3daa 223d e07b d13d 1c24 703e d535 d83d
00000110: 63a1 df3d e5e5 0e3e 865b 2b3e b273 5d3e
00000120: aad0 153e bbf2 303e 8975 013e 0f22 3c3e
00000130: 013b 1b3d b8fb ea3d 224e 5f3e cfce 723e
00000140: 6395 5b3e 4e85 2f3e a6b1 ef3d 8b09 7e3e
00000150: 8a1a b63d 64bd 1e3e d246 e23d b532 ed3d
00000160: c8ef 583e 2595 943d 7819 df3d ede7 e93d
00000170: 565a 5e3e c3fd 043e 7cfd 003e ae71 353e
00000180: a085 153e 14ee fc3d 513b 0e3e 0aa0 ea3d
00000190: 2045 433e
0.06789039 0.13053817 0.19448014 0.07382788 0.22549753 0.2369074 0.21804519 0.17485365
0.15673313 0.16765243 0.24657261 0.08588833 0.12988299 0.20539024 0.22859347 0.12683547
0.11460679 0.045822397 0.22720684 0.23493637 0.12874918 0.14154054 0.1798232 0.15499517
0.16350688 0.11710559 0.19614996 0.08641419 0.10812469 0.12211065 0.22537622 0.2502574
0.09518719 0.17624493 0.22039057 0.18494861 0.15093364 0.18814252 0.14560695 0.10057776
0.11706897 0.2042112 0.07071279 0.24418975 0.15450503 0.22258155 0.102320924 0.18198512
0.15498197 0.21943833 0.14953832 0.19136387 0.09454793 0.23064965 0.12502438 0.20737158
0.07856133 0.10184813 0.1202816 0.11666834 0.082675375 0.097061604 0.1131477 0.2215596
0.039713133 0.102287054 0.23451275 0.10557143 0.10919454 0.13954885 0.16734132 0.21626166
0.1463038 0.17280094 0.12642492 0.18372367 0.037898067 0.11473793 0.21807149 0.23711704
0.21443705 0.17140695 0.117038056 0.24808328 0.08891781 0.15501934 0.11048664 0.11581937
0.2118522 0.072550096 0.1089353 0.114211895 0.21714148 0.12987427 0.12596697 0.17719147
0.14601755 0.12350097 0.13889815 0.11456306 0.19069338

l2.weight f4 [101, 101]
00000000: 6eb2 843e 5c0d 2c3e 2b9f ad3d b7d7 91be
00000010: 40d0 1a3e 4026 41be 35d9 2a3c 76bc 14be
00000020: ea54 05be d512 8cbe ed65 5d3d e077 463e
00000030: c0c2 013e 111d 7b3e 13e1 aa3b 2262 f3bc
00000040: 8d64 9bbd c749 febd e643 8dbd 2876 6f3e
00000050: 1559 123c 3350 fa3d 80f3 333e 8d67 883c
00000060: 063f 7a3e 0442 793e 8590 23be 8cd9 433e
00000070: 3d96 6d3e d1c4 d93d 6f10 3dbe ddd1 233e
00000080: 6f88 873e 6abf 5abe 4a13 1d3e 49c1 f6bd
00000090: ad8a 6b3e 688f 083e 92ea 4c3e 8d0b 843e
000000a0: 0252 62be 9e1f cfbc 3afa 3f3e c06f 1d3e
000000b0: 4dc9 0cbe ad8a 723e f0ef 843e 01f9 32be
000000c0: eec1 89bd 6b64 333e f88f b2bd cd60 66be
000000d0: acbb 133e a329 04be 1dda 5dbe 582c 093e
000000e0: 2a1d 02bd 382c 92bc 2cd8 493d 300f 4c3e
000000f0: d549 2c3e e754 9a3c b49d 143d e791 22be
00000100: 0aed 753e c73a 533d 24f8 25bc 6ecc 153e
00000110: 10c9 133e c736 5c3e 9bb1 863d 7734 ec3d
00000120: 72e6 4f3e cfa1 4bbe f3b6 6b3e f468 02be
00000130: a1c7 e2bd 5377 5e3e d10a 71be 1eec d4bd
00000140: a058 6d3e 1b5d 3e3d d029 84be 2f66 1cbe
00000150: 5f2c 483e d45a 69be 6fee f13d 2dc8 5bbd
00000160: b3b3 273e 7547 163d 5406 85bd 6b32 d1bc
00000170: cc24 373d 8a7f 02be c4d1 823e 1261 fe3d
00000180: 69bf 2bbe 12e3 f43d 542e cabc 5642 b13d
00000190: 6462 363e 39d3 28be 74dc 32be 5459 8e3d
000001a0: cac5 d53d eabe 113e 7bee 65be 7e21 4a3e
000001b0: 0462 e0bd bf47 cc3d e0c0 e2bc 0fc3 0d3e
000001c0: 4b2d 543e fb3e d8bd d82d e73d 2b66 df3c
000001d0: 606d e5bd 452d f13d 5b5d e0bd ad59 d9bd
000001e0: dd39 5f3d 3bd6 4dbd f723 423e 8984 4f3d
000001f0: e6b0 19be 0a6f 8cbd f5ae 543e fa7c 6abc
00000200: 9f35 9c3d f725 dc3d b0fe 943d 3c3a 0dbe
00000210: c387 f63c f05d 893e d2b6 8fbd 4efc 923e
00000220: 9613 36be 2896 02bd f5a9 463e 5a9d 3a3e
00000230: 7c01 bbbc 2f82 57bd ce39 893c 1671 093e
00000240: 3d38 20be f555 05be b962 4d3e bd0b 513e
00000250: 291b 23bd 8210 b13d b72e 333e 41ec b6bd
00000260: c147 e43d 5805 19bd 13b9 393e 5d15 2cbe
00000270: 4ac3 153e e383 843e 715b 8f3d f048 ea3d
00000280: 3934 2bbd 7fb8 90bc 17f1 05bd 3188 f4bc
00000290: 9db0 e8bc 5220 403c 7263 efbb 46ad d43d
000002a0: c57c 2cbd 4aa5 57be eba7 80bd c778 b73c
000002b0: 4b64 3b3e 026a 373e cd0f d63d 0102 803e
000002c0: 6e08 c33d 9cd0 7cbe d3e5 623e ce97 27be
000002d0: 6a0b 573e cbdd 3a3d 13bc 37be 4463 d43d
000002e0: 1392 2fbe f679 223e df58 9a3d 88f2 c43d
000002f0: 7d37 ae3d 0727 ff3d 7feb ba3d a9ae 143e
00000300: 233c 273e 2b0e 683e 7ca7 a73d 03d4 a23b
00000310: 5c52 ef3d 3765 14be b2be bbbd 0777 8d3d
00000320: 08e4 1ebe dbea ed3d 5c1c 78bd 9022 2ebd
00000330: 3c09 b0bb 3955 6b3c fc23 7d3c 60b4 093c
00000340: 9f5b 883c c91e bfbd 7220 afbd 63b7 54bd
00000350: 4868 403c 0c78 0c3c 23b1 85bd 6ae5 73bd
00000360: 073e 9ebd 6e43 08bd b355 94bd 1483 b2bd
00000370: a441 c8bd ba1c 733d 6158 c43c eae1 8c3d
00000380: a09d 713d 1858 a1bb b7be 00bd 7999 c1bd
00000390: bdb3 7a3d 3ec3 98bd d6da 4e3c e543 2ebd
000003a0: e5d7 20bd 7600 163d 7af3 b5bd 3fb4 c4bd
000003b0: 55d0 34bc ead2 16bd 412b 05bd 2307 7fbd
000003c0: 7295 8c3d b69a ac3d 8e99 2e3d 7657 bfbd
000003d0: e2e6 57bd 5d63 42bd 2c1e bcbd 3856 33bc
000003e0: 5117 2e3a c0ee 373c c7fa bfbb c137 85bc
000003f0: 584b c33d 77a8 07bd 8db9 94bd 2fb1 52bb
0.2591738 0.16801971 0.084776245 -0.2848489 0.15118504 -0.18862247 0.010427763 -0.14525017
-0.13020673 -0.27358118 0.054052282 0.19381666 0.12671947 0.24522807 0.005214819 -0.02970988
-0.07587538 -0.12416416 -0.06897716 0.23384917 0.008932372 0.12222328 0.17573357 0.01665094
0.24438104 0.24341589 -0.15973099 0.19125956 0.23201843 0.10633243 -0.184633 0.15998025
0.26471278 -0.21362081 0.1533939 -0.12048585 0.2300212 0.13335955 0.20011356 0.25790063
-0.22101596 -0.025283631 0.18747798 0.1537466 -0.13748665 0.23685713 0.25964308 -0.174778
-0.06726442 0.17518775 -0.08718866 -0.22497864 0.1442706 -0.12906508 -0.21665235 0.13395822
-0.031766094 -0.01784335 0.049278423 0.19927669 0.1682504 0.018839313 0.03628321 -0.1587597
0.24016204 0.051569726 -0.010129962 0.14628765 0.14432168 0.21505271 0.06576844 0.115334444
0.20302752 -0.19885944 0.23019008 -0.12735349 -0.110732324 0.21725206 -0.23539282 -0.10396598
0.23178339 0.04647551 -0.2581315 -0.15273355 0.19548176 -0.22788554 0.11813056 -0.0536577
0.16377144 0.03668924 -0.064953476 -0.025536736 0.044712827 -0.12743965 0.25550663 0.124208584
-0.16772236 0.11957373 -0.024680294 0.08655231 0.1781097 -0.16486825 -0.17466909 0.06950632
0.10438116 0.14232984 -0.22454254 0.19739339 -0.10956195 0.09974622 -0.02767986 0.1384394
0.20720403 -0.105588876 0.11288041 0.027270397 -0.11202502 0.117762126 -0.10955306 -0.106128074
0.054498542 -0.050253134 0.18959032 0.050663505 -0.15008888 -0.068571165 0.20769866 -0.014312023
0.07627415 0.10749429 0.0727514 -0.13791746 0.030094033 0.2682948 -0.07017292 0.28708118
-0.17780909 -0.03188148 0.19400771 0.18224087 -0.022827856 -0.052614387 0.016751196 0.13422045
-0.15646453 -0.13021071 0.20057191 0.20414634 -0.039820824 0.08645727 0.17498289 -0.089317806
0.111464985 -0.03735861 0.18137006 -0.16805024 0.14625278 0.25881872 0.06999863 0.11439693
-0.04179785 -0.0176661 -0.032700624 -0.029850097 -0.028404528 0.011726456 -0.007305556 0.10384612
-0.042111177 -0.21059147 -0.06282028 0.022396458 0.18299977 0.17911533 0.104522325 0.2500153
0.09523092 -0.24688953 0.22157983 -0.16366503 0.21000448 0.045621675 -0.17942838 0.10370496
-0.17145567 0.15866837 0.07536482 0.09616572 0.08506677 0.12458616 0.091269486 0.14519753
0.16331534 0.22661655 0.08186242 0.0049691214 0.11685631 -0.14491735 -0.091672316 0.06907468
-0.15516675 0.11617061 -0.06057392 -0.04251343 -0.0053721946 0.01436358 0.015450474 0.008404821
0.01664525 -0.09332044 -0.0855111 -0.051932704 0.011743613 0.008573543 -0.06527927 -0.05954496
-0.077266745 -0.03326743 -0.07242908 -0.087164074 -0.09778145 0.059353568 0.023967924 0.06879027
0.058988214 -0.0049238317 -0.03143188 -0.09453101 0.061206568 -0.074591145 0.012625417 -0.042545218
-0.039268393 0.036621533 -0.0888433 -0.09604692 -0.011035998 -0.036822237 -0.032511953 -0.062262665
0.06864442 0.08427946 0.04262691 -0.09342854 -0.05271042 -0.04745804 -0.09185442 -0.010945849
0.00066410477 0.011226356 -0.0058587524 -0.016261937 0.09535855 -0.033119645 -0.072619535 -0.0032149067

l2.bias f4 [101]
00000000: 6eaf 593d cafa 9cbb 231a 383b ed1f 1b3e
00000010: 7720 ca3d 20da 5b3e 5ac2 173e 1b71 88bd
00000020: 22f6 9b3b 3654 053e 9b7a 1a3d 2796 963d
00000030: fedf 40bc 59c8 e33c 7a8a 223e a206 e0bd
00000040: 5e2f 64bc 50a1 173e 253b 1bbd 63c0 893d
00000050: fc78 df3d b7f0 9d3d 3898 273e f865 a2bd
00000060: 0278 5d3e ea9e 6fbd d200 30bd bbf8 243e
00000070: 06d5 cf3d c0f8 453e 12c5 debd 0c41 153d
00000080: f9da 093e 3a5a 3a3d fbee 01bc 51e0 1a3d
00000090: 2b1c 073e 713a e83d f5e5 f73d ec3e 253e
000000a0: b498 c93d c9fc c6bd 3f4b 1fbd 569a 4b3d
000000b0: 3699 d53d 9fc0 6dbd 5e14 ef3d 52aa 0d3e
000000c0: 2e37 c73d c92e 01bd 675f 7fbd fa36 e23d
000000d0: c19c 343e 6dac de3d d2c4 643e e786 0a3e
000000e0: 24db 283e 71d1 a7bd fa89 b5bd adf1 a1bc
000000f0: 44c1 84bd 7b02 043e 978c a6bc 8947 4f3d
00000100: 3c11 643e a230 debd c25d 283e a723 cabb
00000110: 329f 73bd 093f 9c3d 536d 84bd 73c6 a7bd
00000120: c148 053e c25a 45bd 69f4 083e eb17 ef3d
00000130: dc7d 5c3e 1bf3 bfbd 4fad e53d c681 fe3d
00000140: a4a0 133e c346 8cbc bc22 c03d 0670 213c
00000150: c2ad 093e f4b8 103d 5c08 373e ef6b aabd
00000160: 803d 493e 0611 b03d bb6b 393e 8c45 543d
00000170: 96b5 823d cd7a 08be ba61 debd 3750 913d
00000180: ba8c 013e 2d54 5e3d 673e 4dbd 26fb 473e
00000190: e87b cc3d
0.05314582 -0.0047906386 0.002809175 0.15148897 0.098694734 0.21469927 0.14820233 -0.06662198
0.004759566 0.13020405 0.037714582 0.07352858 -0.011772154 0.027805494 0.15873137 -0.10938765
-0.013927309 0.1480763 -0.0378982 0.06726148 0.10911748 0.07711928 0.1636666 -0.07929605
0.2162781 -0.05850116 -0.042969532 0.16110508 0.10148053 0.19333172 -0.10877432 0.036438987
0.13462438 0.045496203 -0.007930513 0.03781158 0.13194339 0.11339272 0.12104408 0.16137284
0.09843579 -0.09716184 -0.03889012 0.049707733 0.10429613 -0.058045026 0.116738066 0.13834503
0.097273216 -0.03153876 -0.062346842 0.11045642 0.17637922 0.10872731 0.22340706 0.13528024
0.16489846 -0.08194245 -0.088642076 -0.01976856 -0.06482175 0.12891571 -0.02033071 0.05060533
0.222722 -0.1084912 0.16442016 -0.006168801 -0.059477992 0.076292105 -0.064661644 -0.08192148
0.13016035 -0.048182257 0.13374485 0.11674484 0.21532387 -0.093725406 0.112146966 0.12427096
0.14416748 -0.017123586 0.09381625 0.009853369 0.1344519 0.035332635 0.17874283 -0.08321368
0.19652367 0.08596997 0.18107502 0.051824138 0.06382291 -0.13328095 -0.108584836 0.07095378
0.12651339 0.054279495 -0.05010834 0.195294 0.09984571

l3.weight f4 [21, 101]
00000000: 97f6 0fbe 1204 223e b649 613d b1ab 393e
00000010: 1b1e 553e 1b04 573e 87d3 513e f281 9cbd
00000020: e891 81be 5795 4c3d 931f e83d 4216 643e
00000030: 1299 6dbe 0c18 e4bd 062d 693d e602 ffbc
00000040: f322 37be 7583 f03d 00a8 cdbd e2f9 2fbe
00000050: c37f 6e3e 02b8 843e ec9c 663e d5cd 7fbe
00000060: 175e e63e 4a14 c6bd a1d0 21bd 08c1 013e
00000070: 8243 b1be decc 3cbe 68c4 05bd b6e4 5cbf
00000080: b005 843e db88 62be 50a5 6abe ea36 2abe
00000090: e300 b43d 5dab 54be 7331 483e b7f6 2c3e
000000a0: e6e8 99be cc61 79be 470e 333e db5e f1bd
000000b0: 6745 563e ccc4 2fbe fe7a 4c3e 60b0 57bc
000000c0: dd2d 7abe b283 b83b 1483 853d 72c7 5d3e
000000d0: ef88 143d c5b9 8fbe ce51 403e f1fa 9dbe
000000e0: c68a 873e 6f3a 52bd 6ca6 96bc e077 80be
000000f0: a0af 2cbe c9f7 313e 1f36 8b3f dbf2 81bd
00000100: 2fae 133e c25e 80bc b2e2 fb3d a60b 71be
00000110: 9ee7 76be 5ba6 7c3e 6906 25be c090 30be
00000120: 5507 8fbe 9b5a e9bc 2ef7 e83d ad61 6dbe
00000130: f13c 23be 4514 cebd 8479 543e 4fde 1e3e
00000140: 0b72 213e 7aa7 61be 77ad 6d3e 58d0 803e
00000150: de79 31be 7170 73be baea 523e 3a05 6fbd
00000160: a029 a53d be50 4a3e 8487 7e3e 758f 86be
00000170: 180b 453e f45d 72be 2e7a c2bd 5572 203e
00000180: b473 953d 21a9 8d3e 781c 8cbe c382 8cbe
00000190: 3b81 42be a97c a4bd a688 8cbe 569d 6c3c
000001a0: da7f 323e ea45 de3d e0b6 7f3e 547f 573e
000001b0: 69d0 af3d 42e5 e6bd 233a 293e 5dee c3ba
000001c0: 3e02 31be d951 85be f9a9 133e caf6 643e
000001d0: 60e6 79bd 8719 833d c891 21bc 18dc 1abe
000001e0: 403a f93d 87d9 40be fd7a 89be ade3 1a3e
000001f0: b1b5 6abe 304f febe 6013 35be a901 4abc
00000200: 0398 103e cc6f 2f3d c7e8 7f3e ba7d a4bd
00000210: 8c32 f6be 328e ce3d 1473 56be 37c5 91be
00000220: bd87 72be 9c33 03be ea9f 9d3d e5d2 68be
00000230: f3ae 753e b0dc d63d be7c 85be e7fb 91be
00000240: ad85 99be e440 ecbb 86b8 96be 1c38 443e
00000250: c031 363e e2f1 42be 2f9c 2cbe c506 b13d
00000260: 4aa1 8e3e 1735 e13c db57 9b3e 402d 5a3e
00000270: d679 903e b525 3f3e b748 be3c 2a5f a23d
00000280: 6953 96bd 6544 bcbd 1833 533d cdd9 983f
00000290: a32d 87bd 27ad 703e b6ec 2abd 1d12 cd3c
000002a0: 1902 143e b9fd 7dbe 0f31 25be d6e0 7ebe
000002b0: de48 60be 4b15 443e 6438 1cbe 6385 5d3e
000002c0: 70c3 4e3e cd0d 97be cf9c 5e3d 62b9 f63d
000002d0: 4815 8d3d db3b 53be ecb0 14be f05b 78be
000002e0: 14fb c2bd c509 a6be d8d2 073e 03b8 8f3d
000002f0: d6c1 16bd 49f0 6c3e 5a4d afbd 774f 533e
00000300: f232 353e ec70 153e 255e 13be 0ea7 163d
00000310: 9d6c 00be cc26 f1bd 2968 acbe 8937 1b3e
00000320: cb68 043e 454c 90be 310b a0bd f5f4 8c3e
00000330: 6593 86bc f0b2 4e3e 7b39 82be 4f6e 8b3e
00000340: c192 9ebe 9449 943d 2d5b f0bd b21a eb3d
00000350: 23be 98be d2c3 51be 2322 86be 7fd3 fd3d
00000360: 9a71 093e d0ba 54be d53c 60be 577c 88be
00000370: 25ae 44be d781 1c3e 0d5c 78be dc05 bebd
00000380: d1cb 3b3e 929c 883e 513a 5f3f e483 5fbe
00000390: edda 763c 989a 9d3d 860f 623e 80d7 63be
000003a0: b731 73bd 29e0 47bf fe44 9a3d 0ff6 423e
000003b0: 3de9 1fbe b911 65be 9e23 17be 4b21 7b3e
000003c0: a11f 84be 68ca 7f3e 0d20 813e ee9d 93be
000003d0: 51b8 64be 21bf 1a3e 6d35 5d3d 1853 3cbe
000003e0: e012 87be d34f 283e 057b 52be a809 393e
000003f0: aee8 8a3c febf ffbd e340 36be 0911 febd
-0.1405891 0.15821865 0.055001937 0.18131901 0.20812266 0.2099766 0.20490848 -0.076419726
-0.2530663 0.04994711 0.11334147 0.22274116 -0.23202923 -0.11137399 0.056927703 -0.031129312
-0.17884426 0.117438234 -0.10041809 -0.17185166 0.23290925 0.25921637 0.22520798 -0.24980862
0.4499366 -0.096718386 -0.039505605 0.12671292 -0.34621817 -0.18437526 -0.03265801 -0.86286485
0.2578559 -0.22122519 -0.22914624 -0.1662251 0.08789232 -0.20768495 0.19550113 0.16890989
-0.300605 -0.24353713 0.17485915 -0.1178567 0.20924912 -0.17164916 0.19968793 -0.01316461
-0.24431558 0.0056309337 0.06519142 0.21658114 0.036263403 -0.28071418 0.18781206 -0.30855516
0.26473063 -0.051325258 -0.018389903 -0.25091457 -0.1686387 0.17379679 1.0875891 -0.06345149
0.14421915 -0.015670184 0.12299098 -0.235396 -0.24111792 0.24672835 -0.16115727 -0.17242718
-0.2793528 -0.028485587 0.11375271 -0.23181792 -0.15941216 -0.1006246 0.2074948 0.15514491
0.1576616 -0.22036543 0.23210703 0.25158954 -0.17331645 -0.23773362 0.20597354 -0.058354594
0.0806458 0.19757363 0.24856383 -0.26281324 0.19242513 -0.23668653 -0.0949596 0.15668614
0.07297459 0.27668098 -0.2736547 -0.27443513 -0.1899461 -0.080315895 -0.27448004 0.014441809
0.17431584 0.10853179 0.24972105 0.21044666 0.08584673 -0.11274196 0.16526084 -0.0014948357
-0.17286012 -0.26039007 0.14420308 0.22359768 -0.06101072 0.06401353 -0.009861417 -0.15123022
0.121693134 -0.1883298 -0.26851645 0.15125914 -0.22920872 -0.4966979 -0.17683172 -0.012329497
0.14120488 0.042831227 0.24991141 -0.08031793 -0.4808544 0.10085715 -0.20942336 -0.28470775
-0.23684593 -0.12812656 0.07696517 -0.227367 0.23992519 0.104913116 -0.26071733 -0.285125
-0.299848 -0.007209884 -0.29437655 0.19162029 0.17792416 -0.19037583 -0.16856454 0.08643869
0.2785743 0.027491136 0.30340466 0.21306324 0.28217953 0.18666728 0.023228033 0.07928307
-0.07340128 -0.09192733 0.0515624 1.1941468 -0.066005014 0.23503552 -0.04172965 0.025033051
0.14453925 -0.24803819 -0.16131996 -0.24890456 -0.21902797 0.19148748 -0.15255886 0.21632914
0.20191741 -0.29502717 0.054348763 0.12047078 0.06888825 -0.20628302 -0.14520615 -0.24253821
-0.095205456 -0.3242933 0.13264024 0.07017519 -0.03680595 0.23138537 -0.085596755 0.20635782
0.17695215 0.14593858 -0.14391382 0.03678041 -0.12541433 -0.11774978 -0.33673218 0.15157904
0.129306 -0.2818319 -0.078146346 0.27530637 -0.016427705 0.20185447 -0.2543448 0.27232596
-0.3097134 0.072405964 -0.117361404 0.11479701 -0.29832563 -0.20484856 -0.2619792 0.12393855
0.13422242 -0.20774388 -0.21898206 -0.26657364 -0.19207056 0.15283905 -0.24253865 -0.09278461
0.18339469 0.26681954 0.8719836 -0.21827656 0.015066844 0.07695502 0.22076234 -0.22250175
-0.059373584 -0.78076416 0.075326905 0.19039176 -0.15616317 -0.22370042 -0.1475968 0.24524419
-0.2580538 0.24979556 0.25219765 -0.28831428 -0.22335936 0.15111972 0.05400603 -0.18391073
-0.26381588 0.164367 -0.2055474 0.1807009 0.016956653 -0.124877915 -0.1779819 -0.12405593

l3.bias f4 [21]
00000000: cd5f ed3d 18c8 173e 638f 023d 0c1c 233e
00000010: 3788 0cbe 841e 0d3d c205 3b3d 9487 0fbe
00000020: b81a b0bd c36f 3cbd 98dc 173d 4e5b d5bd
00000030: 1fb6 a4bd 060f 0abe 3eff 68ba dada 02be
00000040: 78f2 01be bf61 39bc a1ab d13d f4aa b03c
00000050: 5c74 cd3d
0.11590538 0.14822423 0.031875025 0.15928668 -0.13723837 0.03445293 0.045659788 -0.14016563
-0.08598846 -0.04600502 0.03707561 -0.104178056 -0.08042549 -0.13482293 -0.00088881317 -0.12778798
-0.1269015 -0.011314808 0.10237814 0.021565892 0.100319594
