data.pth (torch, 108225 bytes, 6 tensors)

l1.weight f4 [98, 127]
-0.08070733 -0.14957902 0.023894778 0.13023803 0.077746816 -0.06445304 0.19033435 0.0042151134
-0.05926602 -0.2409548 -0.16805938 -0.065154664 -0.03956275 0.07109145 -0.05200589 -0.060798816
0.34641528 0.097714074 0.0076276874 -0.16025004 -0.07439459 0.08253779 0.15560135 0.13056643
0.008961333 -0.06488007 -0.10736187 -0.04503168 -0.09207299 -0.0013028404 -0.009330584 -0.12728241
-0.15491873 -0.13869321 0.16848701 -0.1132221 0.03930276 -0.20309044 0.0722194 0.30157694
-0.05094831 -0.21432915 -0.03121319 0.12765367 -0.031127475 0.09590953 0.12540969 0.22010821
-0.008120858 -0.20836022 0.009675985 -0.0075437436 -0.100632034 -0.1515673 0.2237562 -0.0038100714
-0.2614443 0.11112944 -0.056974374 0.2171679 -0.19144244 0.02915137 -0.09108508 -0.08357808
0.0046990835 -0.11965444 -0.072698765 -0.0112762125 0.0674245 -0.11843877 0.18655007 0.085247114
-0.011657081 0.020511413 0.095316134 -0.22881694 -0.011455241 -0.058765076 0.13851382 0.04972552
-0.09196117 -0.16068572 -0.08420225 -0.2618346 0.07724003 0.046055805 -0.017967876 -0.06549468
0.19819999 -0.22194846 -0.083036095 -0.07443371 -0.07357669 0.13220973 -0.1168586 0.23635946
-0.09675399 -0.22732311 0.14588647 -0.08759211 0.07525226 -0.14978915 -0.24122863 -0.12855954
0.14230637 -0.10076631 -0.19792815 0.13029641 0.13428134 -0.16805504 0.15878318 -0.108670816
-0.09733431 -0.24080722 -0.028569486 -0.070833564 -0.099058315 -0.17978214 -0.07656781 0.20916921
-0.05234702 -0.15354471 -0.042590268 -0.12098418 -0.048091106 0.09564142 0.1397292 -0.017854992
0.13770735 0.039107602 0.10524934 0.12961744 0.15491633 0.07309663 0.13464442 0.1416627
0.18617636 0.11876954 0.1947368 0.20442908 0.06492954 -0.015047501 0.0674439 0.11502399
0.16044267 0.10144714 -0.033108797 -0.037810534 -0.06265573 0.11831629 0.063697785 -0.21106818
-0.096901506 -0.08311005 0.28444016 0.22545 -0.18343131 0.0695323 0.027099285 -0.11802042
0.11107535 -0.070572086 0.1594984 -0.05990263 0.1726358 0.18761356 -0.007200466 -0.119926006
0.037482783 -0.012351899 0.10508179 -0.064125255 0.10042543 0.1914858 -0.055586636 -0.20073006
0.12744573 0.14904025 -0.032962136 0.2358303 -0.270989 0.06995594 0.16508773 -0.17178069
-0.099513955 0.11578428 -0.13615064 -0.0061505223 0.020681828 -0.19603525 -0.08769402 -0.18919896
-0.13506962 -0.13429077 -0.11426706 0.18420768 0.22449665 0.0027481045 0.02901831 -0.09360017
0.07536481 0.10125442 -0.2645793 -0.08943006 -0.052511983 0.090513416 -0.061328422 0.118345544
0.22512813 0.20679298 -0.25081068 0.18418287 0.10568946 0.12328425 -0.15298231 0.080713645
-0.1064755 0.23010014 -0.03775404 -0.080888115 -0.0057400814 0.15650403 -0.19089957 -0.17958614
0.15510336 0.0021638302 0.06726289 0.058464967 0.07097747 -0.2547073 -0.12974578 0.17575581
0.03792348 0.16818231 0.09527678 0.05735078 0.12491053 0.1614866 0.08808304 -0.061778985
0.15240921 -0.16314994 0.0041146083 -0.17715007 0.13225323 -0.0101123825 -0.076112375 0.10615931
-0.0027225676 0.05470165 0.11878606 0.15817277 0.09621126 0.07836274 0.12525825 0.17025699
00000000: e249 a5bd 3e2b 19be fbbe c33c 1e5d 053e
00000010: b939 9f3d f5ff 83bd 02e7 423e ef1e 8a3b
00000020: edc0 72bd dbbc 76be c217 2cbe cf6f 85bd
00000030: 8d0c 22bd 6598 913d 2104 55bd 2e08 79bd
00000040: 585d b13e 511e c83d aef1 f93b 9618 24be
00000050: 315c 98bd 9309 a93d f655 1f3e 35b3 053e
00000060: 8ed2 123c d8df 84bd 8ae0 dbbd 2473 38bd
00000070: c490 bcbd 12c4 aaba 4edf 18bc 5256 02be
00000080: 04a3 1ebe 9805 0ebe dc87 2c3e fde0 e7bd
00000090: eefb 203d f1f6 4fbe c4e7 933d 4b68 9a3e
000000a0: 2daf 50bd 1a79 5bbe ceb2 ffbc a5b7 023e
000000b0: 0cff febc 376c c43d 666b 003e 0c64 613e
000000c0: 590d 05bc 625c 55be 0688 1e3c 8231 f7bb
000000d0: 2b18 cebd 7534 1bbe 5820 653e 64b2 79bb
000000e0: 07dc 85be d597 e33d f65d 69bd 4361 5e3e
000000f0: 7d09 44be dbce ee3c d08a babd fc2a abbd
00000100: c5fa 993b 630d f5bd 17e3 94bd ddbf 38bc
00000110: db15 8a3d 0790 f2bd fb06 3f3e 0a96 ae3d
00000120: 57fd 3ebc 8d07 a83c 1b35 c33d fd4e 6abe
00000130: c3ae 3bbc a6b3 70bd 91d6 0d3e fdac 4b3d
00000140: 2356 bcbd cc8a 24be 3b72 acbd 2f0f 86be
00000150: 0530 9e3d 03a5 3c3d 5e31 93bc 1322 86bd
00000160: f0f4 4a3e 7546 63be d40e aabd b370 98bd
00000170: 60af 96bd fd61 073e 9053 efbd 3708 723e
00000180: f526 c6bd 64c7 68be 4363 153e 7e63 b3bd
00000190: db1d 9a3d 5462 19be a304 77be 1da5 03be
000001a0: c3b8 113e 915e cebd adad 4abe 6c6c 053e
000001b0: 0c81 093e 9f16 2cbe 0f98 223e ce8e debd
000001c0: 3657 c7bd 2b96 76be 8e0a eabc 3011 91bd
000001d0: 16df cabd cf18 38be 95cf 9cbd 7430 563e
000001e0: d469 56bd d33a 1dbe 2273 2ebd 8ec6 f7bd
000001f0: 2efb 44bd a6df c33d 2c15 0f3e a244 92bc
00000200: 2803 0d3e 4b2f 203d f78c d73d 6fba 043e
00000210: 63a2 1e3e b0b3 953d 3ae0 093e 0710 113e
00000220: 04a5 3e3e 723d f33d 1569 473e db55 513e
00000230: c7f9 843d cb89 76bc 0720 8a3d b391 eb3d
00000240: 154b 243e 85c3 cf3d 179d 07bd 38df 1abd
00000250: a651 80bd d04f f23d fc73 823d 4222 58be
00000260: 4c74 c6bd 9a35 aabd 24a2 913e 5ddc 663e
00000270: 6bd5 3bbe f366 8e3d 52ff dd3c b1b4 f1bd
00000280: 797b e33d 1988 90bd 8c53 233e 765c 75bd
00000290: 70c7 303e c51d 403e e3f1 ebbb c49b f5bd
000002a0: 8c87 193d 9f5f 4abc 1f35 d73d 1a54 83bd
000002b0: d9ab cd3d db14 443e d0ae 63bd 2e8c 4dbe
000002c0: 2281 023e 029e 183e 4e03 07bd 807d 713e
000002d0: 12bf 8abe 0f45 8f3d c20c 293e 47e7 2fbe
000002e0: f9cd cbbd 4f20 ed3d 136b 0bbe 528a c9bb
000002f0: f06c a93c 77bd 48be ec98 b3bd 5fbd 41be
00000300: b14f 0abe 8583 09be d904 eabd f0a0 3c3e
00000310: 73e2 653e 8b19 343b cfb7 ed3c 72b1 bfbd
00000320: de58 9a3d 7a5e cf3d f076 87be 1b27 b7bd
00000330: ce16 57bd 195f b93d 8333 7bbd 265f f23d
00000340: fd87 663e 8ac1 533e 426a 80be 6f9a 3c3e
00000350: b773 d83d 747c fc3d 65a7 1cbe 324d a53d
00000360: d40f dabd 5f9f 6b3e fba3 1abd aba8 a5bd
00000370: 4b17 bcbb 9842 203e 2d7b 43be 6ee5 37be
00000380: 6ad3 1e3e 0ccf 0d3b 20c1 893d f678 6f3d
00000390: a35c 913d ff68 82be 14dc 04be 55f9 333e
000003a0: a755 1b3d fc37 2c3e 7920 c33d a7e8 6a3d
000003b0: 18d1 ff3d be5c 253e e264 b43d f60b 7dbd
000003c0: 2911 1c3e c710 27be d6d3 863b d466 35be
000003d0: 646d 073e 68ae 25bc cee0 9bbd 0d6a d93d
000003e0: 1b6d 32bb d60e 603d 1b46 f33d 0bf8 213e
000003f0: 690a c53d a57c a03d b343 003e d957 2e3e

l1.bias f4 [98]
0.2754148 0.25470808 0.18337457 0.26095036 0.16860196 0.07529439 0.083233245 0.10510017
0.19451143 0.12385857 0.24190281 0.15726644 0.12018715 0.24052562 0.25001976 0.047170535
0.10908503 0.14426157 0.19597982 0.22522298 0.19421376 0.06873294 0.20419891 0.09826328
0.128877 0.12838268 0.11751788 0.08908008 0.14602944 0.09904135 0.07269516 0.033517327
0.17003788 0.17943375 0.18822983 0.26537243 0.13620268 0.29177678 0.26449513 0.07649058
0.13572323 0.18223184 0.24628492 0.15917662 0.15001634 0.079410225 0.18781713 0.1747076
0.17174584 0.17133485 0.16352639 0.09338771 0.23708925 0.2734097 0.18172653 0.19987266
0.13382469 0.1386199 0.15653148 0.2406883 0.07457443 0.14056997 0.21400847 0.21337718
0.24363229 0.15553744 0.242959 0.20355664 0.13252471 0.17362775 0.204805 0.17935862
0.1488038 0.14489909 0.05397225 0.070305996 0.21682043 0.1729609 0.19067718 0.15603928
0.07472637 0.11452647 0.1513059 0.14649801 0.21649498 0.1157975 0.17325859 0.09008536
0.120147415 0.06623808 0.2005805 0.14612925 0.0993671 0.28329057 0.16862945 0.23752551
0.15136166 0.08126968
00000000: 2b03 8d3e 1969 823e 8bc6 3b3e 499b 853e
00000010: fea5 2c3e f233 9a3d 3176 aa3d c23e d73d
00000020: 012e 473e 90a9 fd3d 5fb5 773e 740a 213e
00000030: ae24 f63d 594c 763e 9702 803e e435 413d
00000040: f967 df3d 4eb9 133e efae 483e daa0 663e
00000050: f9df 463e dbc3 8c3d 8519 513e 423e c93d
00000060: 55f8 033e c076 033e 37ad f03d 9e6f b63d
00000070: be88 153e 31d6 ca3d 33e1 943d 7749 093d
00000080: 691e 2e3e 7bbd 373e 52bf 403e e5de 873e
00000090: b778 0b3e c463 953e e86b 873e 18a7 9c3d
000000a0: 08fb 0a3e fc9a 3a3e 1d32 7c3e 32ff 223e
000000b0: e29d 193e d4a1 a23d 2253 403e 8de6 323e
000000c0: 24de 2f3e 6772 2f3e 7673 273e 0e42 bf3d
000000d0: 86c7 723e 5bfc 8b3e 8516 3a3e 6bab 4c3e
000000e0: 5709 093e 60f2 0d3e ca49 203e fe76 763e
000000f0: 7bba 983d 93f1 0f3e 0925 5b3e 8c7f 5a3e
00000100: be7a 793e 3545 1f3e 3eca 783e 2771 503e
00000110: 8fb4 073e 79cb 313e 67b8 513e c9a9 373e
00000120: 0660 183e 6d60 143e 0212 5d3d 97fc 8f3d
00000130: 2d06 5e3e aa1c 313e e140 433e c3c8 1f3e
00000140: 240a 993d db8c ea3d efef 1a3e 9303 163e
00000150: dcb0 5d3e 3d27 ed3d b36a 313e ac7e b83d
00000160: d90f f63d d5a7 873d f964 4d3e e8a2 153e
00000170: fa80 cb3d 760b 913e 33ad 2c3e e339 733e
00000180: 8dfe 1a3e b870 a63d

l2.weight f4 [98, 98]
-0.19813278 -0.09886458 0.23129147 0.23192629 0.14186063 0.15362161 0.15541749 -0.11921034
-0.016350113 0.20258617 0.20480801 -0.040317535 -0.1071563 -0.20669074 0.180168 -0.012956245
0.045586623 0.23694068 -0.12982726 0.034206297 -0.1250843 0.23269957 0.086600006 0.21472363
-0.17865105 -0.07284495 0.24823429 -0.12773573 -0.06638298 0.1738276 0.2484323 -0.05972558
0.14429882 0.18490635 -0.19507286 0.00217365 0.22381833 0.03319143 0.13711065 0.11012264
0.13156517 -0.23162803 0.118217945 0.09526297 0.03879859 0.15861192 -0.07122986 0.029576704
0.2539521 0.037414905 0.032480393 0.07876065 -0.04628396 -0.28523213 0.07726783 0.18601272
0.092686206 0.23046799 0.0019670117 -0.06752094 -0.2045304 -0.13534121 0.025820369 -0.020449711
0.27720165 0.15634395 0.12591055 0.2526526 -0.11644132 0.09886085 0.1060707 0.18442924
-0.12954639 -0.14730634 0.23618579 0.19998604 -0.13719255 -0.062699646 -0.12462591 -0.24465598
0.15406469 0.1377052 -0.09744308 -0.003943907 0.16886996 -0.048183706 0.15474474 -0.08677082
0.21233514 0.15245591 -0.14565858 -0.024640264 0.07102499 0.16976312 0.17775185 0.15156703
-0.04830931 -0.29045644 0.16704442 -0.119257815 0.16383465 0.053432368 0.09019269 0.105088346
0.054331012 0.04963832 0.24861757 0.16179836 -0.18074368 0.11085694 0.03224386 -0.10106528
0.029910125 0.06421289 -0.040631805 -0.1663556 -0.14726013 -0.060593676 -0.015133861 0.2086402
0.254308 0.15701875 -0.23499705 -0.0531342 -0.10897683 0.19824708 0.16593087 -0.2235632
0.22178015 0.14404508 0.037926212 0.32242727 -0.097685404 -0.03904578 -0.0857479 0.25063398
0.101757735 -0.032760818 0.21283342 0.054388244 -0.033455566 -0.24869336 -0.1650696 0.19568087
0.18074542 -0.107003994 0.19912782 0.15975079 0.08294653 0.1756839 -0.13832799 0.10564121
-0.011668045 0.22415425 0.07212829 -0.15282421 -0.06002594 -0.13095033 -0.12803443 0.22692701
0.042544793 -0.059606962 -0.161747 0.22200653 -0.26841298 0.2452234 0.26494092 0.20735325
0.10502472 0.0027874922 -0.04190701 0.0703518 0.2201816 0.10305839 0.17901048 0.085572846
0.03979254 0.24671626 0.06607363 0.23734136 -0.011587445 -0.29298404 -0.26054862 0.015122012
0.19580446 -0.07476714 0.11435591 0.017393274 0.03321726 0.106357604 0.15851098 -0.034641728
0.10573887 -0.049353525 0.1076337 -0.027726833 -0.1899863 0.23589097 0.13807797 -0.21924806
-0.086924456 0.23282552 0.03409288 0.12833028 -0.11067084 0.032525994 -0.13792983 0.3053984
0.18754664 0.2557206 -0.06327108 0.074767664 0.26170915 -0.017738773 -0.18372934 0.19210193
-0.190238 -0.007939407 0.025447661 0.28672975 -0.105997786 -0.07594171 -0.055451598 -0.07501788
0.15952103 0.14623952 0.0990126 0.26747686 0.16799507 -0.2460164 0.29517442 -0.20663735
0.27871197 0.00012548696 0.14095509 -0.18302855 -0.14216766 0.23579335 -0.11809919 -0.052411783
0.0019452348 0.18986584 0.17194678 -0.074101634 0.26932207 0.12101013 -0.1842131 0.12995784
0.13960162 0.13911282 0.09364894 0.0050966823 0.17635645 -0.20650797 0.13372345 0.17849113
00000000: 52e3 4abe 8379 cabd acd7 6c3e 167e 6d3e
00000010: ea43 113e fc4e 1d3e c325 1f3e 8d24 f4bd
00000020: acf0 85bc c072 4f3e 31b9 513e 0024 25bd
00000030: c374 dbbd bda6 53be f67d 383e 6e46 54bc
00000040: 0ab9 3a3d 94a0 723e 70f1 04be e71b 0c3d
00000050: 1916 00be cc48 6e3e 585b b13d 83e0 5b3e
00000060: 4df0 36be bc2f 95bd 2131 7e3e 28cd 02be
00000070: cdf3 87bd ddff 313e 0965 7e3e cfa2 74bd
00000080: 12c3 133e 1758 3d3e 2ec1 47be cc73 0e3b
00000090: a230 653e bdf3 073d bc66 0c3e fb87 e13d
000000a0: 05b9 063e e62f 6dbe 401c f23d 3b19 c33d
000000b0: 45eb 1e3d 2a6b 223e f6e0 91bd d84a f23c
000000c0: 0206 823e 5f40 193d 290a 053d 434d a13d
000000d0: 4094 3dbd f209 92be 993e 9e3d 1e7a 3e3e
000000e0: 44d2 bd3d cdff 6b3e fbe8 003b 6b48 8abd
000000f0: 6b70 51be e396 0abe 3d85 d33c 2786 a7bc
00000100: 60ed 8d3e a118 203e b2ee 003e ae5b 813e
00000110: c978 eebd 8f77 ca3d 983b d93d 05db 3c3e
00000120: cfa7 04be 79d7 16be b0da 713e 24c9 4c3e
00000130: 347c 0cbe ac68 80bd de3b ffbd 1987 7abe
00000140: 22c3 1d3e 9802 0d3e 3d90 c7bd e43b 81bb
00000150: 3fec 2c3e 475c 45bd 6875 1e3e e6b4 b1bd
00000160: 626e 593e 671d 1c3e 8627 15be 61da c9bc
00000170: 8d75 913d 62d6 2d3e 9504 363e 6334 1b3e
00000180: fcdf 45bd b5b6 94be b10d 2b3e 713d f4bd
00000190: 45c4 273e e6db 5a3d f2b6 b83d 8f38 d73d
000001a0: 328a 5e3d 8d51 4b3d 9b95 7e3e 78ae 253e
000001b0: df14 39be f708 e33d 2312 043d 50fb cebd
000001c0: 1406 f53c 0c82 833d 896d 26bd 1f59 2abe
000001d0: 5ccb 16be 1331 78bd 04f4 77bc c7a5 553e
000001e0: a834 823e 86c9 203e 11a3 70be 3fa3 59bd
000001f0: 3f2f dfbd 4801 4b3e c8e9 293e c0ed 64be
00000200: 561a 633e 8e80 133e 8458 1b3d 3015 a53e
00000210: 490f c8bd 78ee 1fbd 989c afbd 1953 803e
00000220: 5c66 d03d 3530 06bd 01f1 593e 35c6 5e3d
00000230: b408 09bd 79a9 7ebe 0108 29be 9160 483e
00000240: 5415 393e e924 dbbd 2ae8 4b3e b695 233e
00000250: dfdf a93d 7be6 333e daa5 0dbe 6b5a d83d
00000260: 542b 3fbc b188 653e ffb7 933d f37d 1cbe
00000270: c3dd 75bd d817 06be 751b 03be 8e5f 683e
00000280: 7343 2e3d 6e26 74bd 01a1 25be ae55 633e
00000290: 6d6d 89be d81b 7b3e 56a6 873e 6954 543e
000002a0: 3317 d73d 5cae 363b afa6 2bbd 9b14 903d
000002b0: 4977 613e 4710 d33d 864e 373e d140 af3d
000002c0: 81fd 223d 30a3 7c3e 9c51 873d 9d09 733e
000002d0: 44d9 3dbc 0102 96be a166 85be 51c2 773c
000002e0: f780 483e 841f 99bd 6e33 ea3d 577c 8e3c
000002f0: d20e 083d 04d2 d93d b450 223e 7ce4 0dbd
00000300: 9f8d d83d ec26 4abd 0f6f dc3d 6223 e3bc
00000310: c58b 42be 678d 713e 5064 0d3e 9082 60be
00000320: 7305 b2bd d069 6e3e faa4 0b3d 0369 033e
00000330: 65a7 e2bd fa39 053d 7a3d 0dbe 2e5d 9c3e
00000340: 3a0c 403e cfed 823e 4594 81bd ca1f 993d
00000350: befe 853e e750 91bc 8b23 3cbe 5eb6 443e
00000360: c0cd 42be 4914 02bc 9d77 d03c 3ece 923e
00000370: 5e15 d9bd 5487 9bbd 3721 63bd f9a2 99bd
00000380: 7b59 233e d0bf 153e 1ec7 ca3d baf2 883e
00000390: e606 2c3e b9eb 7bbe 1a21 973e be98 53be
000003a0: 56b3 8e3e 2695 0339 8856 103e d66b 3bbe
000003b0: 6694 11be d073 713e fddd f1bd bdad 56bd
000003c0: 40f7 fe3a 316c 423e d112 303e 99c2 97bd
000003d0: 95e4 893e 29d4 f73d 5ca2 3cbe ab13 053e
000003e0: baf3 0e3e 9773 0e3e 04cb bf3d 1202 a73b
000003f0: c996 343e d376 53be cdee 083e 61c6 363e

l2.bias f4 [98]
0.023756756 0.1571184 -0.020824889 0.17880507 0.091291815 0.046006277 0.106830776 -0.029173754
-0.06098144 0.1154327 0.1613602 0.09318754 0.21055678 0.06039051 0.1977429 -0.107820906
-0.0076866713 0.15360394 -0.0006380002 0.043524593 0.09565186 0.04631248 0.013331026 0.048527125
-0.07960523 -0.059741486 0.0009611902 -0.056449614 0.115330234 -0.09131483 0.15241326 0.113566056
-0.0150912525 0.1656436 0.14058466 0.00737287 0.02542253 0.16641822 0.17963456 -0.029013192
0.12234863 0.03158668 0.22401556 0.030190408 0.034756705 0.004041668 0.07346646 0.0808025
-0.007153123 0.017162278 0.07200524 -0.001072595 0.18462232 -0.078422785 0.10054737 0.06326264
0.019971194 0.15592127 0.116290994 -0.049667384 0.039872874 0.040271796 -0.038911372 -0.015430928
0.031221265 0.5087021 0.03692022 -0.058264047 0.19655666 0.15789174 0.15230636 0.13947998
-0.032603633 0.17384449 0.023439167 0.034850575 -0.11170328 0.15468003 0.03342771 0.17975421
0.1876662 0.0068547474 -0.110394195 0.06221495 0.0017326885 0.048700754 0.10657764 0.052647036
0.11739057 -0.026529789 0.039043006 0.1563672 0.0045466945 0.046184316 0.10567241 0.17637712
-0.07682945 0.11063488
00000000: 879d c23c a5e3 203e f598 aabc ad18 373e
00000010: 34f7 ba3d 1471 3c3d 18ca da3d ccfd eebc
00000020: adc7 79bd fb67 ec3d 9c3b 253e 1cd9 be3d
00000030: 329c 573e 0a5c 773d 1d7d 4a3e 35d1 dcbd
00000040: 79e0 fbbb 5a4a 1d3e 783f 27ba d846 323d
00000050: 1fe5 c33d 28b2 3d3d 606a 5a3c 61c4 463d
00000060: 1108 a3bd 7db3 74bd 62f8 7b3a b637 67bd
00000070: 4232 ec3d 4503 bbbd 3912 1c3e 5295 e83d
00000080: 4d41 77bc 7a9e 293e 6df5 0f3e 1e98 f13b
00000090: e942 d03c 8a69 2a3e 1ff2 373e 13ad edbc
000000a0: eb91 fa3d 0961 013d 5664 653e e051 f73c
000000b0: 0c5d 0e3d f86f 843b 9575 963d c87b a53d
000000c0: bf64 eabb e897 8c3c 7c77 933d 5196 8cba
000000d0: a20d 3d3e 209c a0bd c8eb cd3d d88f 813d
000000e0: a19a a33c d3a9 1f3e f929 ee3d 0770 4bbd
000000f0: bd51 233d 0af4 243d 8861 1fbd 01d2 7cbc
00000100: bdc3 ff3c 4d3a 023f a839 173d 48a6 6ebd
00000110: 2646 493e 5fae 213e 33f6 1b3e d7d3 0e3e
00000120: 638b 05bd 4a04 323e 7f03 c03c 7abf 0e3d
00000130: b0c4 e4bd 7164 1e3e 7feb 083d 7d11 383e
00000140: 912b 403e ca9d e03b 5a16 e2bd 1ad5 7e3d
00000150: 611b e33a 717a 473d 6145 da3d 6ba4 573d
00000160: 786a f03d 0055 d9bc 8feb 1f3d b91e 203e
00000170: 70fc 943b c42b 3d3d c76a d83d 349c 343e
00000180: c258 9dbd 8a94 e23d

l3.weight f4 [20, 98]
-0.0049679247 -0.2532815 0.003320627 -0.027108828 -0.10176143 0.17416754 0.28906918 -0.16211529
-0.16658904 -0.3098185 0.13290924 0.28517252 0.15938154 0.20489565 -0.30167538 0.088934995
-0.2815284 -0.03871768 -0.32089782 -0.28386977 0.25633526 -0.035176363 -0.18478782 -0.22044323
0.011595104 -0.44294405 -0.11664595 0.09400984 -0.052722685 0.03422778 0.29674533 0.018420385
-0.92863685 0.21914946 0.25830486 0.19126622 0.19593921 0.16235541 0.2451176 0.087439924
0.24142262 -0.03701751 0.18915397 -0.036857564 0.03590956 0.22924165 -0.25921345 -0.2674932
-0.20381609 0.1676374 -0.19797082 -1.0573684 0.27141908 -0.25546807 -0.103256635 0.21672632
-0.32797495 -0.23735765 0.1516307 0.001290168 -0.2641437 -0.109872855 -0.18542533 -0.011289366
-0.3251029 0.4223724 -0.337666 0.02078175 -0.0074860705 0.28161538 0.07912779 0.16365124
0.19001122 0.13992772 -0.16575892 -0.114602864 0.093842745 0.09215029 0.23178062 0.077070564
0.1490101 0.18014257 -0.21366583 -0.27649483 -0.2613767 -0.19330113 0.19756873 -0.12034625
0.10006302 -0.2916816 0.14210531 -0.111837715 -0.3241166 -0.32771984 -0.17304966 -0.16504426
-0.360427 0.21205859 -0.26299116 0.10949843 -0.36699003 0.30674592 -0.027107611 0.17774382
0.15748957 -0.36993083 -0.28444305 0.31647205 0.08301955 -0.14251961 0.23866925 0.17357387
0.062176622 -0.079087935 -0.2437905 -0.24705708 -0.22242168 0.1596739 -0.106336735 -0.030145777
0.019201063 -0.15148453 0.08160398 -0.4547882 0.026559362 -0.20723651 0.1675509 -0.035419814
0.13982876 0.08708981 -1.4774176 0.22464424 -0.14464429 -0.3286887 0.04549642 -0.32681593
0.14736894 0.0127337435 0.07534518 0.1090301 0.21248564 -0.2854596 0.11515414 -0.32317555
0.3066317 0.16506766 -0.30506018 -0.32688287 0.06305567 -0.82844865 -0.10116208 -0.25233528
0.1435355 0.112505 0.092020236 -0.25004438 -0.35634652 -0.32000113 -0.12504438 0.19021702
-0.119210966 -0.011518472 0.10582293 0.76147217 -0.033817425 -0.23265034 -0.32418814 0.17609327
0.13106379 0.035091482 -0.3309338 0.078691535 -0.35709402 -0.0064060125 -0.04011234 0.23612283
-0.14238578 0.17662883 0.08334699 -0.3482016 -0.34171495 -0.3174952 -0.23221864 0.11610051
-0.2742461 -0.10210623 0.044123873 0.11502699 0.1027749 -0.37143624 -0.035497364 0.055882722
0.12506187 0.30563313 -0.13736364 -0.2312375 0.10900279 0.2031386 -0.16382287 -0.22742407
0.15418027 -0.32425508 -0.253294 0.22622535 -0.26631004 0.13178188 -0.2701799 0.080464035
0.18542181 0.032228075 0.15191303 0.07235235 0.10134287 -0.034887146 -0.19916552 -0.11720941
-0.22286722 -0.12131153 0.10127305 0.025590194 -0.043946024 0.029629208 -0.2497779 -0.23156041
-0.058437336 -0.081165366 0.19286908 -0.103377976 0.780005 0.039781783 -0.2021108 -0.16340311
-0.1747211 0.24826498 0.028440773 0.092548795 0.021560851 -0.31525353 -0.2950419 -0.069854625
-0.35052806 0.15677063 0.2120713 0.10997359 -0.11489806 -0.03035654 0.15831776 -0.6746297
0.23985396 -0.22553174 0.11339871 -0.15283483 0.18509431 0.22138067 0.23018555 0.08235518
00000000: f9c9 a2bb 1dae 81be e09e 593b 5513 debc
00000010: 4c68 d0bd fa58 323e e000 943e 8d01 26be
00000020: 5196 2abe 88a0 9ebe 5c19 083e 2202 923e
00000030: ea34 233e 2ad0 513e 3275 9abe 8d23 b63d
00000040: 7e24 90be 6e96 1ebd b84c a4be 6157 91be
00000050: 603e 833e 1715 10bd 0539 3dbe dfbb 61be
00000060: 64f9 3d3c 90c9 e2be 12e4 eebd 3b88 c03d
00000070: bef3 57bd 6e32 0c3d 01ef 973e 59e6 963c
00000080: 25bb 6dbf b768 603e 8940 843e 4bdb 433e
00000090: 4aa4 483e 7f40 263e 1c00 7b3e b413 b33d
000000a0: 7e37 773e ac9f 17bd 94b1 413e f5f7 16bd
000000b0: e715 133d 53be 6a3e a0b7 84be def4 88be
000000c0: 2ab5 50be 23a9 2b3e ddb8 4abe d957 87bf
000000d0: 71f7 8a3e b6cc 82be 3778 d3bd 81ed 5d3e
000000e0: 55ec a7be e20d 73be 1445 1b3e db1a a93a
000000f0: d83d 87be 0505 e1bd 23e0 3dbe 08f7 38bc
00000100: e373 a6be 3241 d83e 8fe2 acbe 7d3e aa3c
00000110: b64d f5bb e42f 903e c00d a23d 3194 273e
00000120: 4d92 423e 3649 0f3e b5bc 29be e8b4 eabd
00000130: a030 c03d 4bb9 bc3d e657 6d3e 2cd7 9d3d
00000140: 1b96 183e 4b77 383e 37cb 5abe bb90 8dbe
00000150: 2bd3 85be bbf0 45be 754f 4a3e 1878 f6bd
00000160: d7ed cc3d 4a57 95be 0e84 113e 2c0b e5bd
00000170: 9cf2 a5be e5ca a7be ee33 31be 5d01 29be
00000180: e389 b8be e325 593e c7a6 86be b640 e03d
00000190: 1ee6 bbbe cd0d 9d3e c810 debc 7a02 363e
000001a0: f244 213e 9367 bdbe 85a2 91be a008 a23e
000001b0: 2706 aa3d a9f0 11be b665 743e 59bd 313e
000001c0: eaac 7e3d dbf8 a1bd 38a4 79be 88fc 7cbe
000001d0: 82c2 63be 8e81 233e 13c7 d9bd 47f4 f6bc
000001e0: 8c4b 9d3c c31e 1bbe fd1f a73d 00da e8be
000001f0: 0593 d93c cf35 54be 7792 2b3e 5e14 11bd
00000200: 452f 0f3e 245c b23d 051c bdbf 2409 663e
00000210: a21d 14be e349 a8be 745a 3a3d 6b54 a7be
00000220: e2e7 163e 31a1 503c 934e 9a3d 2c4b df3d
00000230: d695 593e c327 92be efd5 eb3d 4477 a5be
00000240: d5fe 9c3e 7f07 293e d930 9cbe 315d a7be
00000250: 5523 813d 3615 54bf 112e cfbd 1732 81be
00000260: f8fa 123e 0569 e63d 1b75 bc3d d105 80be
00000270: 0d73 b6be 30d7 a3be a20b 00be 40c8 423e
00000280: e124 f4bd f9b7 3cbc b1b9 d83d d7ef 423f
00000290: 2484 0abd e43b 6ebe fdfb a5be cb51 343e
000002a0: 9635 063e 16bc 0f3d 2870 a9be 0729 a13d
000002b0: 07d5 b6be 87e9 d1bb d64c 24bd 2fca 713e
000002c0: 94cd 11be 30de 343e d4b1 aa3d 7b47 b2be
000002d0: 43f5 aebe bb8e a2be b9ca 6dbe 1bc6 ed3d
000002e0: fc69 8cbe 121d d1bd 3cbb 343d 4593 eb3d
000002f0: a67b d23d e42c bebe af65 11bd 48e5 643d
00000300: 3810 003e f27b 9c3e 0ea9 0cbe 86c9 6cbe
00000310: db3c df3d 9103 503e 2fc1 27be dbe1 68be
00000320: 6fe1 1d3e c304 a6be c0af 81be 9ea7 673e
00000330: ca59 88be d4f1 063e 0555 8abe 54ca a43d
00000340: 37df 3d3e 9601 043d 178f 1b3e 782d 943d
00000350: da8c cf3d d3e5 0ebd 0cf2 4bbe 7d0b f0bd
00000360: 4e37 64be 2e72 f8bd 3f68 cf3d 87a2 d13c
00000370: bf00 34bd f4b8 f23c c7c5 7fbe 2c1e 6dbe
00000380: fd5b 6fbd 073a a6bd 797f 453e d5b7 d3bd
00000390: 68ae 473f 39f2 223d 22f6 4ebe 2553 27be
000003a0: 17ea 32be 2d39 7e3e a0fc e83c 398a bd3d
000003b0: 62a0 b03c e968 a1be bb0f 97be f10f 8fbd
000003c0: 6a78 b3be 7b88 203e 3829 593e d539 e13d
000003d0: ad4f ebbd 47ae f8bc 0d1e 223e 88b4 2cbf
000003e0: 479c 753e cbf1 66be 953d e83d bc80 1cbe
000003f0: 5d89 3d3e 9db1 623e c3b5 6b3e d5a9 a83d

l3.bias f4 [20]
0.10429383 0.052124087 0.06240718 0.08638613 -0.005620891 0.084608935 -0.06886204 0.034391813
0.050561342 -0.115324564 -0.010466209 -0.13124447 -0.016495645 0.027270354 -0.084164225 0.050588943
-0.020103775 -0.0022267865 -0.061961383 0.06935592
00000000: 0198 d53d 1180 553d ac9e 7f3d 36eb b03d
00000010: 742f b8bb 7347 ad3d 8b07 8dbd 6ede 0c3d
00000020: 6919 4f3d 492f ecbd 767a 2bbc f364 06be
00000030: e021 87bc 1466 df3c 4b5e acbd 5a36 4f3d
00000040: acb0 a4bc 47ef 11bb 38cb 7dbd 7a0a 8e3d
