data.pth (torch, 78295 bytes, 6 tensors)

l1.weight f4 [83, 110]
000000 f4 92 6f 3e 46 18 2c 3e 46 41 a4 3d 81 61 2e 3e
       0.23395902 0.16806135 0.080202624 0.17029382
000010 1a f7 0d be 75 17 94 3d 4a be ad 3d e7 f5 00 3e
       -0.13863793 0.072310366 0.084835604 0.12593804
000020 22 6a d2 3d 75 55 8c be 84 e2 31 be 8e 13 77 3e
       0.102741495 -0.2740895 -0.17371565 0.24128553
000030 33 5a e1 3d 7e 30 80 3e dc 8f 07 3d 74 cd f3 bc
       0.11003532 0.25036997 0.03309618 -0.029761054
000040 7b cb 61 3e 47 b4 f1 3c 94 25 68 3d 9f 74 0e be
       0.22050278 0.029504908 0.056676462 -0.13911675
000050 84 fb 87 be a6 d4 dc bd cf 13 26 be 9e 92 2a be
       -0.2655908 -0.10782747 -0.16218494 -0.16657493
000060 d5 23 fb 3d ee 39 23 3e ce 9a 36 be ae 37 18 3d
       0.12262694 0.15940067 -0.17832491 0.037162475
000070 6f 86 02 be d8 58 80 be b9 17 43 be c4 17 8c 3d
       -0.12746595 -0.25067782 -0.19052018 0.068404704
000080 fc b9 77 3e 5e 8b 83 3e d4 1f 82 3c 92 11 0b be
       0.24192041 0.25692266 0.015884317 -0.13580921
000090 22 66 28 3d 51 ac 8d 3d 53 ed 93 3e 9e 43 5c be
       0.041113026 0.06917632 0.28892002 -0.21510169
0000a0 ef d9 9e bb 2b d9 0a be dc 73 d7 3d a4 44 5c be
       -0.004847757 -0.13559406 0.10520145 -0.2151056
0000b0 72 a6 44 3e 8d 0b 4e 3e bd 40 94 3c 43 8d 3f bc
       0.19204119 0.20121594 0.018097276 -0.011691394
0000c0 5a 13 8c bd 3f 74 f0 bd fc b3 4f 3e c5 15 28 3d
       -0.068396285 -0.11740922 0.20283502 0.041036386
0000d0 8c a2 65 be 82 0b 12 3e b6 10 b1 3d 33 17 5d 3e
       -0.22425288 0.14262202 0.086457655 0.21590881
0000e0 41 46 83 be cd 75 18 3d b8 c9 24 be e6 36 d1 3d
       -0.25639537 0.03722172 -0.16092575 0.10215549
0000f0 f7 9f a9 bd 68 ca ab bd be f7 a9 3b 80 9c cf bd
       -0.08282464 -0.08388215 0.005187004 -0.10137272
000100 89 9d b8 3d 5f de 1b 3d 21 91 32 3e b2 7f 96 bd
       0.090144224 0.038053866 0.17438175 -0.07348575
000110 a2 4d 3b be d5 ea fe bd 9f b9 98 3d 90 e2 5a 3d
       -0.18291333 -0.124471344 0.074572794 0.053438723
000120 16 7c 93 be 86 ba d0 bd f4 04 97 3e d5 d5 14 3e
       -0.28805608 -0.101918265 0.29495966 0.14534695
000130 90 7c bd 3d 70 49 a7 bd be 03 17 3e ed 75 04 be
       0.09252274 -0.08168304 0.14747521 -0.1293561
000140 31 4d 08 3e 18 f8 23 3c 20 9f 0f 3e a7 c9 59 bd
       0.13310696 0.010007881 0.14025545 -0.053170826
000150 c7 42 e5 bc 30 4d 34 3e 16 fd 36 3d 7f b2 92 3d
       -0.027985943 0.1760757 0.044674955 0.07162952
000160 9f 04 56 bc 65 94 7e 3e ac 7c 54 3e 31 99 23 3e
       -0.013062625 0.24861296 0.20750684 0.15976407
000170 33 f5 99 bd 67 05 ff bc fb 07 26 3e f7 96 0e 3e
       -0.07517471 -0.031130506 0.16213982 0.13924776
000180 2a c1 3d bd 1e 28 03 3e 03 fd d0 bc 9a 07 b1 bd
       -0.046326794 0.12808272 -0.02551127 -0.08644028
000190 0b be d2 bd cf cf 48 be 27 24 e7 3d ea 51 2e 3e
       -0.10290154 -0.19610523 0.112861924 0.17023435
0001a0 14 47 6c 3d a1 4c be bd ff 78 86 3d b4 da 8b 3d
       0.057684973 -0.092919596 0.06566047 0.06828824
0001b0 83 4c 83 3d 41 dd 29 3e 6a e4 43 bc ef 61 22 be
       0.06411078 0.16588308 -0.011956314 -0.15857671
0001c0 72 7c 37 3d 59 8f 34 be 50 07 61 3f 5d 1e e9 bc
       0.044796415 -0.17632808 0.87901783 -0.028456861
0001d0 cd 7f be 3b 0b e5 d9 bd 34 36 2f 3d fa c9 7c 3e
       0.005813575 -0.106393896 0.0427763 0.24686423
0001e0 a7 3d 2f bf e7 63 2a 3e a9 49 be 3c 44 81 e9 bd
       -0.6845345 0.16639672 0.023228483 -0.114016086
0001f0 a1 d8 e8 bd 91 07 77 3c 20 9f d8 bd 7f da 15 3d
       -0.11369444 0.015077488 -0.10577226 0.036585327
000200 1d 55 f8 bd c7 e0 c4 be 14 29 1f 3c 47 ca b4 3e
       -0.12125609 -0.38452742 0.009714384 0.35310575
000210 5d df 85 3e 61 d8 47 3e d8 7d 1b 3c 8e 80 66 3d
       0.26146975 0.19516136 0.009490453 0.056274943
000220 55 8c a0 3d b3 5f bf bc ea 76 11 3f bc f3 d1 3d
       0.07839266 -0.023361063 0.56822073 0.10251567
000230 61 ea c2 bd 17 2e c0 be f1 b0 2f 3d 84 31 a1 3e
       -0.095173605 -0.37535164 0.042893354 0.3148309
000240 2d 0d 68 bc 23 61 8b be 93 4a fa 3d 23 50 af bd
       -0.014163298 -0.27222547 0.12221255 -0.08560207
000250 3b 69 b7 bd e7 63 a2 3e 64 da a3 3d 4c a7 3f 3e
       -0.08955618 0.31716844 0.08000639 0.18716162
000260 3d f4 8a bd bf 51 bf 3e 69 ba a5 bd 6b ec a0 bd
       -0.06784866 0.37367055 -0.080921955 -0.07857593
000270 e8 ab 50 be f8 59 cd 3d 4a c1 85 3e a7 59 e1 3d
       -0.20378077 0.10026926 0.2612403 0.11003428
000280 09 fe 50 3e e5 f2 bc bd 3d 8b 01 bc c7 db 95 bd
       0.20409407 -0.09226016 -0.007906732 -0.0731731
000290 7b 60 fe bd c9 27 e5 bd 8f a7 82 be fb ae 05 3e
       -0.12420746 -0.11189229 -0.25518462 0.13055031
0002a0 fc 36 c4 3d 91 be a8 bb 56 f5 34 3e 0c f9 af 3e
       0.095808 -0.0051496704 0.17671713 0.34369695
0002b0 d1 d7 3c bd 34 53 11 3c e7 5e ef bd 6b 25 04 3d
       -0.046104256 0.008869935 -0.11688023 0.032262247
0002c0 be fa 8b bd e4 62 71 3d fa 44 42 3e bd c4 6c 3e
       -0.06834935 0.0589322 0.18971625 0.23121925
0002d0 88 7a 95 bc 28 7f 34 be 69 e8 6a 3e c5 bf 1c 3e
       -0.018246904 -0.17626631 0.2294022 0.1530753
0002e0 8c 5f 8b be 33 db e8 bd 49 e1 a6 bd d7 dc 11 3e
       -0.27221334 -0.11369934 -0.081484385 0.142444
0002f0 ea 44 6d be 4a f1 1a 3e b5 69 df bd de e4 49 3d
       -0.2317082 0.15131107 -0.10908834 0.04929053
000300 87 57 11 be a2 9b 24 be ed 08 69 3e fc af 6f be
       -0.14193545 -0.16074994 0.22757311 -0.23406976
000310 c6 ac db 3d 19 40 de 3b a8 d3 d3 be 8e 26 a3 bc
       0.10726313 0.0067825434 -0.41372418 -0.019915845
000320 16 35 e3 be d8 5d b1 bc 6c f7 4e 3f bf 7e c0 3d
       -0.4437644 -0.021651193 0.80846286 0.09399175
000330 e2 e4 8a 3c 77 51 83 be bf 03 13 3e 83 0c 53 be
       0.016954843 -0.2564809 0.14356898 -0.20610242
000340 eb 04 b0 3d 6d a0 64 3d 2d 0b 80 3e 57 2f d5 bd
       0.08594688 0.055817056 0.25008526 -0.1040942
000350 63 ea fd 3d ee 1b 58 3e ec 57 c4 bd 88 1d 32 3e
       0.12398221 0.21104404 -0.09587082 0.17394078
000360 15 0c 83 bd 73 e0 16 3e 45 21 8c bc 8a c6 f2 3d
       -0.06398789 0.14734058 -0.017105708 0.118542746
000370 e4 23 bc bd 5a 98 5d be 14 b5 6f bb 3f 0c c9 bd
       -0.09186533 -0.21640149 -0.0036576437 -0.09816789
000380 ec a1 5e be c2 d8 50 3d 08 97 29 bd df d1 fc 3d
       -0.21741456 0.050987966 -0.0414038 0.12344717
000390 77 68 c3 3d 57 c5 42 be 09 68 43 3e 95 db dd 3d
       0.095414095 -0.19020592 0.19082655 0.108328976
0003a0 e3 99 42 3e af 36 16 be c8 d7 09 be 25 f8 fd 3d
       0.19004016 -0.14669298 -0.1346122 0.124008454
0003b0 b2 61 cc bd 7c 07 45 3d 61 0f e8 bd 6a 51 33 3e
       -0.099795714 0.04810284 -0.11331058 0.17511526
0003c0 3d 6a a7 bc 7e 61 f7 3d c6 5a 23 3e e7 b3 51 be
       -0.0204364 0.12079142 0.15952596 -0.20478784
0003d0 50 a9 a0 bd 23 af 47 3e 0f 64 1c 3e 89 1d 00 3e
       -0.07844794 0.19500403 0.15272544 0.12511267
0003e0 fb 72 ea 3d 14 dc be 3e 86 52 d0 bd 2d 95 ec 3c
       0.11447712 0.3727728 -0.1017199 0.028879726
0003f0 bf 7d 73 3e cb b4 4c 3e b6 2b be bd aa 70 6f 3e
       0.23778437 0.19990842 -0.09285681 0.23382822

l1.bias f4 [83]
000000 6b 7b 93 3e 8e 35 a8 3d 84 40 f5 3d cf af f3 3d
       0.28805098 0.0821334 0.11975196 0.11898767
000010 d5 e3 6a 3e 6a b2 24 3e a5 1a 0a 3e 0b fd d6 3d
       0.22938474 0.16083685 0.13486727 0.10497483
000020 f4 68 6a 3e 66 2c 68 3e 99 67 66 3e 6b 9b 06 3e
       0.22891599 0.22673187 0.22500457 0.13145225
000030 74 d1 80 3e f7 f0 17 3e c9 69 34 3e 5d 1a 80 3d
       0.251598 0.14838015 0.17618479 0.062550284
000040 61 ec 61 3e 1f 55 82 3e 1e 62 27 3e 56 6b 2e 3e
       0.22062828 0.25455567 0.16346022 0.17033133
000050 ab c4 4e 3e d7 23 17 3e 7e 38 18 3e 65 dd 61 3e
       0.2019221 0.14759766 0.148653 0.22057112
000060 2e 97 1f 3e e0 54 27 3e d5 20 4a 3e ce b1 5f 3e
       0.15585014 0.16340971 0.19739087 0.21845171
000070 62 fd 88 3e 1b d0 56 3e 8b 09 0d 3e 85 f4 15 3e
       0.26755816 0.20977823 0.13773172 0.14644058
000080 bc 18 b4 3d f6 00 df 3d ed 90 fc 3d 63 f4 40 3e
       0.0879378 0.10888855 0.1233233 0.18843226
000090 3c 6a 67 3e 05 05 1d 3e 9d 10 46 3e ef d8 54 3e
       0.22599119 0.15333946 0.19342275 0.20785879
0000a0 52 ed 5c 3d db 1c 2d 3e 60 09 91 3e 49 9b 0a 3e
       0.053937264 0.16905539 0.28327465 0.13535799
0000b0 7f 55 7f 3e 2a 31 79 3e 16 c6 2d 3e 50 9f 75 3e
       0.24934958 0.24335161 0.16970095 0.23986554
0000c0 e5 57 4a 3e 06 01 65 3e de 30 6d 3e b8 51 50 3e
       0.19760092 0.22363672 0.23163173 0.20343673
0000d0 bf a1 9f 3e 9b cc 21 3e 67 4f 05 3e 32 38 f1 3d
       0.3117809 0.15800707 0.13018571 0.117782965
0000e0 3e ee fe 3d 0a a1 59 3e ac 1a 41 3e 54 12 7b 3e
       0.12447785 0.21252838 0.18857831 0.2451871
0000f0 a6 10 0b 3e b6 c3 16 3e e3 79 52 3e 08 6c 93 3e
       0.1358057 0.14723095 0.20554309 0.2879336
000100 b8 08 91 3e 37 f3 49 3e 9e 51 6a 3e 7c 99 f1 3d
       0.28326964 0.19721685 0.22882697 0.11796853
000110 93 80 66 3e be d0 fa 3d 28 2c 2a 3e f0 3c 84 3e
       0.22509985 0.12246846 0.16618407 0.25827742
000120 6d 44 2e 3e 07 43 6f 3e 32 27 83 3e bf ca 93 3d
       0.1701829 0.23365413 0.2561584 0.07216405
000130 f1 7a 36 3e aa 80 4f 3e 4a cf 7d 3e 6b b4 20 3e
       0.17820336 0.20263925 0.24786106 0.15693824
000140 5b 86 6a 3e ff 36 29 3e 47 f6 70 3e
       0.22902815 0.16524886 0.23531447

l2.weight f4 [83, 83]
000000 48 0d da bd 8e cb 20 bd 12 42 73 3e 49 01 88 3c
       -0.106470644 -0.039256625 0.23755673 0.016602175
000010 25 96 58 3e bf 1c 07 be f2 9b b5 3d 33 06 0d be
       0.21151026 -0.1319456 0.08867635 -0.13771896
000020 31 82 67 be 96 6a 97 3e 88 71 8f 3e 48 83 4f bd
       -0.22608258 0.29573506 0.28016305 -0.05066231
000030 47 d4 3e 3d 31 32 44 bd d6 c7 e0 bc 07 6d 82 bd
       0.046589162 -0.04789943 -0.02743904 -0.063684516
000040 ab 28 22 be 07 0e 99 3c b9 40 6c 3e 98 b3 05 bd
       -0.15835826 0.018683447 0.23071565 -0.032641977
000050 83 41 0a 3d 23 ca 07 bd fd d5 fa 3c 57 6c 08 3e
       0.033753883 -0.033151757 0.030619616 0.13322578
000060 12 d0 a0 3a e8 f1 90 be 6c 38 2c 3e fc 94 90 3e
       0.0012269041 -0.2830956 0.16818398 0.28238666
000070 bc 16 54 3c 93 37 8b 3e c8 98 7b 3e 30 ce c1 3d
       0.012944873 0.27190837 0.2457 0.09463155
000080 2a ab c6 3d 7b c4 07 be a3 82 12 be 0c 87 b9 bd
       0.09700616 -0.13258545 -0.14307646 -0.09058961
000090 84 c1 64 3e 60 b4 a3 3e 2a 30 4e 3e e3 86 65 be
       0.22339445 0.31973553 0.2013556 -0.22414736
0000a0 06 cb ef 3c 93 29 4f 3e 16 92 43 3e ae 63 66 bd
       0.029271614 0.20230703 0.19098696 -0.056247406
0000b0 bd f9 60 3e e6 f3 f7 3d 49 fd 89 bd 54 23 df 3d
       0.21970268 0.12107067 -0.067377634 0.1089541
0000c0 c7 a6 bd 3d 53 e5 d7 bc 6d 78 96 3e 9b 00 f9 bc
       0.09260326 -0.026354467 0.29388753 -0.030395797
0000d0 48 f8 69 be bc 05 f9 3d 1e 32 08 be 8e a2 67 3d
       -0.22848618 0.12159297 -0.13300368 0.05655151
0000e0 78 27 91 be a8 48 14 3e e6 2f 45 be 2b 58 4f be
       -0.28350425 0.14480841 -0.19256553 -0.20248477
0000f0 19 31 76 3e 3f 1d 21 3e df a6 0b 3e 13 51 74 3e
       0.24042167 0.15733813 0.13637875 0.23859052
000100 df 98 f7 3d 0a 5d 7f 3e 94 ed 71 3d 46 5c 3d bc
       0.12089705 0.24937835 0.059064463 -0.011557644
000110 db 79 55 3d 59 a2 c7 bc 09 0b 17 3e 3f 2f 37 3d
       0.052118164 -0.024369406 0.14750303 0.04472279
000120 0e dd a5 3c 68 f6 60 3d 2f f4 81 be 54 62 c3 bd
       0.020247009 0.05492249 -0.2538161 -0.09540239
000130 ea cc 80 3e cd a7 52 3e eb 59 10 3e fe 8d 44 3e
       0.25156337 0.20571823 0.14096801 0.1919479
000140 35 59 61 3e 08 6d 1a bd 52 03 6b be e8 43 09 3e
       0.22006686 -0.037701637 -0.22950485 0.1340481
000150 19 2c 64 be da 5d 91 be da c9 71 3d ad 8a a5 3d
       -0.22282447 -0.28391916 0.05903039 0.08083091
000160 cb f1 52 3e 10 e9 b2 bd b5 2a b2 3d 03 f6 91 3e
       0.20600049 -0.087358594 0.08699552 0.28508005
000170 d0 c4 63 be 92 06 71 bc 23 58 80 3e 9d f8 52 be
       -0.22243047 -0.014711039 0.25067243 -0.20602651
000180 77 78 1b 3e c4 40 42 bd 28 d1 4e be 9b 27 23 3e
       0.15182672 -0.047425047 -0.20196974 0.15933077
000190 cd f8 0c bc 03 a9 73 be 36 ec 5c bb c5 79 14 3e
       -0.008604241 -0.23794942 -0.0033710129 0.14499576
0001a0 ad cf 52 3e da 24 6d be 6f ec 0b 3e 0c 58 98 3e
       0.20587035 -0.23158589 0.13664411 0.29754674
0001b0 d5 8c 34 3e 82 99 f4 3d 24 a6 68 3e 78 ea 7a 3e
       0.17631848 0.11943342 0.22719628 0.24503505
0001c0 42 da 43 be c8 a0 6d be 30 ad a7 bc ff 8d a1 be
       -0.19126227 -0.23205864 -0.020468324 -0.31553647
0001d0 80 b7 4e 3e bd 02 90 be b9 73 31 3c f1 3a e0 3d
       0.20187187 -0.2812709 0.010830813 0.10948742
0001e0 4f ac cf 3d 0f fa bf 3d 3a 6c 91 3e 9a 66 ac be
       0.10140287 0.09373867 0.28402883 -0.3367203
0001f0 3f 32 bf bd ae ce 4d bd b1 a7 dc bd f0 65 65 bd
       -0.093357556 -0.050245933 -0.10774172 -0.05600542
000200 78 72 10 bd 95 d6 8a 3d e4 b9 80 3e a3 a4 11 3e
       -0.035265416 0.067792095 0.25141823 0.1422296
000210 b6 e3 5e 3e c0 d6 86 3d 8c 5f e2 3d 2a 09 7e 3e
       0.21766552 0.06583929 0.1105338 0.24808183
000220 51 17 97 be 9a 99 b4 bd e7 8c 4c be fa 2f 36 3e
       -0.29509977 -0.0881836 -0.19975625 0.17791739
000230 30 5c 89 3e 15 a5 8e 3d 4c b9 88 3e 7b 98 8c be
       0.26828146 0.06965081 0.2670387 -0.27460083
000240 5d e0 5a 3d 1b 17 4f bd 6c 71 7f 3e 34 4f 21 3e
       0.053436626 -0.050559144 0.24945611 0.1575287
000250 3d f0 0a 3a 53 a5 7e 3e 85 91 2e be 02 eb cf 3c
       0.00053000805 0.24867754 -0.17047699 0.025380615
000260 ec 6b 92 bd 7c 2d 1d bd 74 20 da bd 0b 29 8c bd
       -0.07149491 -0.038373455 -0.10650721 -0.06843766
000270 ef 29 19 3e ab f5 31 3e 3a 37 65 3c c4 7c 45 3d
       0.14957403 0.17378871 0.013990218 0.04821469
000280 3e d3 1e 3e 92 13 44 3e e5 bf c6 bd 68 f0 1b 3e
       0.1551027 0.1914809 -0.0970457 0.15228426
000290 5f 49 47 3c 61 7e 86 3d 83 db 7f be f7 82 f4 bd
       0.012163489 0.065670736 -0.24986081 -0.11939042
0002a0 0e 18 e1 bc e4 aa 9c 3e 42 92 c3 3c 23 31 48 be
       -0.02747729 0.3059913 0.023873452 -0.19549994
0002b0 62 46 86 3e 25 37 1f 3e de 9b 6c 3e 4f 26 17 3e
       0.26225573 0.1554838 0.23106334 0.14760707
0002c0 72 dc 84 3e e3 5b 96 3d df 91 27 be d7 e0 8b bd
       0.25949436 0.07341745 -0.16364239 -0.06829994
0002d0 00 4c 84 bd 59 04 4f 3d 64 6d 3c 3e 05 2f 3b bc
       -0.06459808 0.050541256 0.18401104 -0.011424785
0002e0 fa 10 bb bc e9 cd 98 bc 6a 96 f0 3c e1 26 92 3e
       -0.022835243 -0.018652873 0.029368598 0.28545287
0002f0 30 61 b9 3e 96 d1 22 3d a0 6a 78 3d 07 54 c1 bc
       0.3620696 0.039750658 0.06064856 -0.023599638
000300 d9 d8 c1 bd fe 33 04 3e 34 ac 79 3e 7c 30 d1 bd
       -0.094651885 0.12910458 0.24382097 -0.10214326
000310 3e db c8 3e a7 98 d7 3b 11 0f 76 3c 92 1d 5c 3d
       0.3922977 0.006579477 0.015018241 0.053739138
000320 fa 4b 89 bd 7f 67 89 be 11 a9 80 3d 9f 38 52 3d
       -0.067039445 -0.26836774 0.06282247 0.05132353
000330 57 2c 19 bd ba 6c 76 3e dc f5 aa be 41 cf 24 bd
       -0.0373958 0.24064913 -0.333907 -0.040236715
000340 96 dc 15 bd ce fc 0d be c8 54 fb 3d 91 a1 9f bd
       -0.03658732 -0.13865969 0.1227203 -0.07794488
000350 58 6c 79 3e 8d 1e 1f 3e 94 d3 09 be 10 02 8a 3e
       0.24357736 0.15538998 -0.13459617 0.269547
000360 76 cd 92 3e 04 11 1e 3e 4f 1f 02 3e 82 10 15 3e
       0.2867238 0.15436178 0.12707256 0.14557078
000370 59 53 78 bc da 48 1e 3e 3e a7 80 bb 3c b8 d5 3c
       -0.01515659 0.15457478 -0.003926187 0.026088826
000380 a1 bf 03 3d d6 e4 fe 3d 2c b7 1e 3d c3 44 17 be
       0.032165173 0.12445991 0.038748905 -0.14772324
000390 02 43 a8 3e dd a5 b6 3d 96 41 80 3d 02 03 22 be
       0.32863623 0.08918355 0.062625095 -0.1582146
0003a0 da e9 33 be 7b b1 71 3e 8e 40 b6 3d f6 b6 a0 3e
       -0.17569676 0.2360286 0.088990316 0.31389588
0003b0 68 74 78 be f3 a5 82 3e fe ed 57 be 58 c7 4c be
       -0.24263155 0.25517234 -0.2108688 -0.19997919
0003c0 f4 4f f5 3d 31 fb 12 be 4c 25 20 3e 03 c3 60 3e
       0.119781405 -0.14353634 0.15639228 0.21949391
0003d0 ac 81 db 3c 0d 13 8b be 2d 0b 1d be 35 14 17 3b
       0.02679523 -0.27162972 -0.15336294 0.0023052816
0003e0 9c ab b7 3c 55 fe 20 3e 0a 30 2b be 94 0b a3 bc
       0.022420697 0.1572202 -0.16717544 -0.019902982
0003f0 04 89 9e 3e 2e b7 d9 3d f7 5c eb 3d 12 be 73 3e
       0.3096391 0.10630642 0.11492341 0.23802975

l2.bias f4 [83]
000000 77 48 db 3d da da e6 3d cb fa 07 bd 0d 74 32 bb
       0.10707181 0.112722114 -0.03319816 -0.0027229816
000010 b1 bb d3 3d f5 00 e6 3d 08 76 cf 3d 06 eb a4 bd
       0.10338534 0.11230651 0.101299345 -0.0805264
000020 9b d3 01 3d db cc 7c 3d 6b 0d 66 3c b8 31 33 3e
       0.031695943 0.061718803 0.014041285 0.17499435
000030 1f 1a 8d 3d 78 f8 42 bd 08 b1 e6 3d be 73 8c 3d
       0.06889748 -0.04760024 0.11264235 0.068580136
000040 8b 58 09 3e 71 f7 f2 bc 77 53 fc 3d 20 4d d4 3d
       0.13412683 -0.029659005 0.12320607 0.10366273
000050 54 c0 48 3c 4c 2e 0f 3d 10 57 9f bd 8c d0 c1 3b
       0.012252886 0.03495626 -0.07780278 0.0059147533
000060 28 2f ee 3d 54 4e 81 bb 61 1b 56 3e f7 ad 18 3d
       0.11630088 -0.003946105 0.20908882 0.03727528
000070 51 a6 a8 3d d6 51 74 3d 38 a8 f5 3d 2c 6e b5 bd
       0.08234847 0.059648357 0.11994976 -0.08858904
000080 21 fd 87 bc 20 f9 35 bd 48 44 87 bd 83 9f 5a 3d
       -0.016600193 -0.044427037 -0.066048205 0.05337478
000090 0f b9 20 3d ef ce 68 3c bb 35 98 3d 28 de de 3c
       0.039238986 0.014209493 0.07432123 0.027205542
0000a0 75 f1 a2 3d 06 4c 66 3d 83 ce 49 3e e0 bb 39 bc
       0.079562105 0.056224845 0.19707684 -0.011336297
0000b0 ef 77 1d 3e 33 01 25 3d aa c2 14 3e ec 4e 58 bd
       0.15377782 0.040284347 0.14527383 -0.05280964
0000c0 52 ed 89 bd ed 82 b7 3d 1a a2 31 3e a2 aa 1a 3e
       -0.067347184 0.08960519 0.17346993 0.15104154
0000d0 4b 95 0f 3e 4c 85 1b 3e 4a b1 96 3c 42 52 9f 3d
       0.14021794 0.15187567 0.018395085 0.07779361
0000e0 7d d6 0d 3e 5e f0 2c 3d 74 5c 12 3d fb 6c f4 3d
       0.13851352 0.04222142 0.0357327 0.11934849
0000f0 c6 ef a9 3d 58 4d 02 3e 94 a1 ba 3d 0e df 84 bd
       0.08297686 0.12724817 0.0911285 -0.06487857
000100 86 f1 46 3e d1 59 c5 bc da b1 92 3c 82 1b 74 bc
       0.19428071 -0.02409068 0.017907072 -0.0148991365
000110 03 ed 12 3e 91 3b 48 3e 76 50 b6 3c 58 17 d6 3c
       0.14348225 0.19553973 0.022255164 0.026134178
000120 53 2a ef 3d 0b b1 9c 3d 2c e8 4e 3d d6 41 ce 3d
       0.116779946 0.07650956 0.050514385 0.10071151
000130 a1 01 ef 3d 21 86 b4 3d ef a4 8d 3d 42 d3 0a 3d
       0.116702326 0.088146456 0.06916224 0.033892877
000140 fd 8a ee 3d 2c dd 09 3e 38 02 47 3e
       0.11647604 0.13463277 0.1943444

l3.weight f4 [15, 83]
000000 4a 67 6e 3e 22 6b a4 be 04 67 47 be 98 99 0f 3e
       0.23281589 -0.32112986 -0.19472891 0.14023435
000010 cc ff 6b 3d fe cd 64 3d 0c 56 ad 3d 0d 5c b9 3d
       0.057616994 0.055860512 0.08463678 0.090507604
000020 cb b0 0f 3d 28 ce cb bd b0 84 7b 3d 00 82 c4 3d
       0.035080712 -0.099514306 0.061405838 0.09595108
000030 fb 59 f0 3c 54 2b 45 3e a4 ba f5 3d c2 d8 75 3e
       0.029339781 0.1925481 0.119984895 0.24008468
000040 77 6f aa 3d ae cd 1e be c9 bf cc bd 02 e5 77 be
       0.083220415 -0.15508148 -0.099975176 -0.24208453
000050 61 f9 c3 3c c8 8b 8d be 25 6a 54 3e 07 1c 18 bf
       0.023922624 -0.27645707 0.20743616 -0.59417766
000060 81 0b c3 bd db 8d 9a 3e e8 1d 85 bd bf b1 80 3e
       -0.095236786 0.30186352 -0.06499845 0.2513561
000070 37 41 5d 3e 15 e7 a2 be 30 db 28 3d ff fe 38 3d
       0.21606909 -0.31816927 0.04122466 0.04516506
000080 dc 35 24 3e d2 9d 98 3d 23 1b e9 3d 56 5f b8 bd
       0.1603617 0.07451977 0.11382129 -0.09002559
000090 00 de 6c be ee e2 9c bd a3 55 73 be 41 14 92 3d
       -0.23131561 -0.07660471 -0.23763137 0.071327694
0000a0 cd d6 1f 3e 5c 73 86 be 17 93 db be ba d8 f1 bd
       0.15609284 -0.26259887 -0.42885658 -0.118089154
0000b0 25 53 2e bd 6b d3 1c 3e 33 3a 4e 3e c9 a9 21 3e
       -0.04255976 0.15315025 0.20139389 0.15787424
0000c0 ef ca 72 3c f4 10 44 3e 37 85 05 be 74 50 1e 3e
       0.014818891 0.19147092 -0.13039099 0.15460378
0000d0 7a 3e cb be 3c 48 39 be 15 59 5f 3c 03 45 87 3d
       -0.39696103 -0.18093961 0.013632079 0.0660496
0000e0 e8 34 9b be a4 91 84 3e a4 de 9c 3d 78 c4 02 3e
       -0.30313802 0.25892365 0.07659653 0.1277026
0000f0 0c f7 e5 be 9d 29 8f 3d 2d 37 51 be d4 1f bd be
       -0.44915044 0.06990359 -0.20431204 -0.36938345
000100 58 49 81 3e af 27 f0 bd 4b dd 5f be 8f 2b bb bd
       0.2525127 -0.11726319 -0.2186176 -0.091391675
000110 97 a1 b0 3d a8 fc b3 bd 2c 8d b4 3d 20 39 6c 3e
       0.08624571 -0.08788425 0.08815989 0.23068666
000120 c0 d8 73 be 5c 3d c3 3d 3e a7 85 3e cb a7 76 be
       -0.23813152 0.09533188 0.26104158 -0.24087445
000130 65 74 a3 be b7 6f af be 13 28 f0 bc f0 fa 8e be
       -0.3192474 -0.3426492 -0.029315984 -0.27925825
000140 f4 88 a0 bd 28 16 93 3d e7 0d c4 be d9 9b c9 bd
       -0.07838622 0.0718196 -0.38291857 -0.09844179
000150 59 7e 4a be 43 77 10 3e 18 fc 35 be 91 84 90 be
       -0.1977476 0.14107995 -0.17771947 -0.2822614
000160 d9 f0 ab bc 26 b9 58 be 53 30 a9 bd 3f 68 01 3e
       -0.020988869 -0.21164379 -0.0826117 0.12637423
000170 0c d2 27 3e 30 1b 84 3e cc 73 00 be 04 99 20 bc
       0.1638872 0.25801992 -0.12544173 -0.009802107
000180 0b 3d 75 3e 95 48 8a be 2d 22 14 3e bb 9b 0d 3e
       0.23949067 -0.270085 0.14466162 0.13828938
000190 74 76 42 3e 1c d3 89 be d6 11 b4 be 67 d9 ce 3d
       0.18990499 -0.26918876 -0.35169858 0.1010006
0001a0 0c a0 00 be b3 29 3e 3e b9 00 62 be 1d 2c 03 be
       -0.12561053 0.18570594 -0.22070588 -0.12809797
0001b0 98 83 02 3e 8b 45 32 be b9 05 39 3e 12 a0 42 3e
       0.12745512 -0.17409341 0.1806859 0.19006374
0001c0 f7 d7 3e be 3f 05 98 be 19 68 5e 3d 1e 85 04 3e
       -0.18637072 -0.29691502 0.054298494 0.12941405
0001d0 d4 21 2d be e5 ca 93 bd 89 07 18 be 3d 24 30 3e
       -0.16907436 -0.072164334 -0.14846624 0.17201324
0001e0 13 bc 14 3e 5f 88 96 be 1f f2 47 be 49 8d 12 3e
       0.1452487 -0.29400918 -0.19525956 0.14311709
0001f0 e7 36 5c be c9 f1 0f 3f 7b 41 88 3e 7a c7 73 3d
       -0.21505319 0.5622831 0.26612458 0.059516408
000200 a3 72 04 3e 42 e4 26 3e 93 af 26 3e 74 f4 59 39
       0.12934355 0.16298011 0.16277914 0.00020785799
000210 1f 2d 5d 3e 5c 19 ce 3d cb 93 e3 3d 8e fb 7c be
       0.21599244 0.10063431 0.11112174 -0.24705335
000220 cf 63 8a be 94 af 23 be c9 ab 6c 3d 00 39 70 3e
       -0.27029273 -0.15984946 0.057781015 0.23459244
000230 d2 3d ff 3d 24 67 99 be 48 a7 37 3e 23 ef fa bd
       0.12462963 -0.29961503 0.17934906 -0.12252643
000240 fb ab 18 be 2e 0c 70 3e 06 13 a7 3d 8c ac 67 be
       -0.14909355 0.23442146 0.08157925 -0.22624415
000250 2b 52 c2 bd c8 dd 59 be c2 2e 84 be b6 9f 11 be
       -0.094883285 -0.21276009 -0.25816923 -0.14221081
000260 df 7d 14 be 85 0c 8a be e9 9b 8e be 35 75 52 be
       -0.14501141 -0.26962677 -0.27853325 -0.20552523
000270 0d 4f 59 3e 8b 00 1d 3d bc 62 4d be 7e c0 00 be
       0.21221562 0.038330596 -0.20057195 -0.1257343
000280 98 91 35 3e e4 23 8f be fc 3e ec bd 75 b0 85 be
       0.17731321 -0.2795707 -0.11535451 -0.2611119
000290 2c ef 90 be c4 c0 6b 3e bc e9 90 be 50 80 4b be
       -0.28307474 0.23022753 -0.28303325 -0.19873166
0002a0 9d 90 6b 3b c9 75 94 3c d7 1b 24 3e e9 c1 3a be
       0.003594435 0.01812257 0.16026245 -0.18238033
0002b0 6f 19 99 3d f9 68 38 bd 19 83 30 3e 18 e2 73 be
       0.07475554 -0.045021985 0.1723751 -0.23816717
0002c0 78 95 89 be 51 06 54 be 83 7e 22 be d8 0a 7a be
       -0.26871848 -0.20705535 -0.15868573 -0.24418199
0002d0 23 26 f9 3d ef 7a df 3d 45 fc 54 3e 87 2b 16 3d
       0.12165477 0.109121196 0.20799358 0.036662605
0002e0 fe 92 61 3e 9e 1a 8c be 4f 46 29 3e 37 e8 62 3e
       0.2202873 -0.27364057 0.16530727 0.22158895
0002f0 39 d5 d9 3d d8 40 b6 be e4 d0 bd bd 8f 40 85 be
       0.10636372 -0.35596347 -0.09268358 -0.26025817
000300 05 bb 83 be 79 21 28 3e d4 f7 34 3e 2e bb a6 be
       -0.25728622 0.16419019 0.17672664 -0.32564682
000310 d8 95 68 be da 68 52 3e bc 2b 61 3e 80 4f 44 3e
       -0.22713411 0.2054781 0.2198934 0.19170952
000320 31 43 95 3d 20 98 7d be f2 d9 97 3d dc 78 82 bd
       0.07288206 -0.24765062 0.07414617 -0.06370708
000330 10 57 9c be cd c2 3c be f7 52 d0 3d c8 65 47 bc
       -0.30535173 -0.18433686 0.10172074 -0.012170263
000340 ab 32 82 be 90 49 5c 3e 33 d4 2a 3e 73 2f fa 3d
       -0.25429282 0.21512437 0.1668251 0.122160815
000350 a9 fc 7a be c3 52 bc be c3 4b 60 bd 54 0b 21 be
       -0.24510445 -0.36781892 -0.054759752 -0.15726978
000360 8a 63 5d be d9 6b b0 be cc ec ee 3d d7 d5 a0 be
       -0.21620002 -0.3445728 0.11666259 -0.31413147
000370 01 85 90 be 0e 6d e4 3d a5 4c 86 be 5a b6 50 3e
       -0.28226474 0.11153613 -0.2623035 0.20382062
000380 73 b3 3a 3e 94 92 ae 3d dd a2 b5 be 66 54 44 3e
       0.18232517 0.08524051 -0.35475817 0.1917282
000390 5c 7a 87 be 84 f0 06 3e 95 d1 96 be fb 60 d2 bd
       -0.2646054 0.13177687 -0.29456773 -0.10272404
0003a0 51 10 e8 3d dc e7 0f be 19 e4 46 3e 77 66 0d 3e
       0.11331237 -0.14053291 0.1942295 0.13808618
0003b0 08 dc 18 be 2c d6 a9 3c 65 fe 4b be b1 dd 1d 3e
       -0.14927685 0.020732008 -0.19921263 0.154166
0003c0 4e f2 aa bd a5 cc 4b be af c3 8c 3e 01 42 9c be
       -0.08346997 -0.19902284 0.27493045 -0.30519107
0003d0 35 b3 1c bd 82 f7 9e bd 54 bf 4f bc 30 2f ce bd
       -0.038256843 -0.07762052 -0.0126798935 -0.10067594
0003e0 02 22 82 be 7a 2e 50 3e 32 4d 87 3c 85 02 7f 3e
       -0.2541657 0.2033023 0.016516302 0.24903305
0003f0 07 04 be bc 44 87 42 be fc 22 9d be 75 4b 3d 3e
       -0.02319528 -0.18996912 -0.30690753 0.18485816

l3.bias f4 [15]
000000 cf 97 22 bd ff 6a cd bd 4e b6 06 be 44 7e 53 3d
       -0.039695557 -0.100301735 -0.13155481 0.05163409
000010 66 e4 10 bd 62 39 af 3d d1 cd 24 bc fa 1d 33 3d
       -0.035374068 0.08555867 -0.010058836 0.04372976
000020 b9 72 f6 bd ac 4d 23 3d cf 36 df 3c eb 8b 6f bd
       -0.120336 0.039868996 0.027247814 -0.058483046
000030 6d 22 f9 bd 28 9f c2 bd f5 21 02 3e
       -0.12164769 -0.09503013 0.12708266
