data.pth (torch, 44545 bytes, 6 tensors)

l1.weight f4 [61, 79]
000000 b9 20 bc 3d a7 7d 69 bd e2 1a 4a 3c 4e 38 af 3d
       0.09185929 -0.057004597 0.012335511 0.08555661
000010 7c 3e d4 bd 2d 52 29 3e d9 f1 44 3e 94 22 b5 bd
       -0.103634804 0.16535254 0.19232883 -0.08844486
000020 53 0a 03 3e 61 22 49 bd 21 61 d3 bd 93 d6 e0 3c
       0.12796907 -0.049105052 -0.1032126 0.027446067
000030 fd 68 88 be 13 a7 53 3e b3 9a 6b 3e a7 3f 14 bd
       -0.266426 0.20669203 0.23008232 -0.036193516
000040 da 74 d3 3c 75 c2 46 be 8b 28 3b be 47 b2 d1 3d
       0.025812555 -0.19410117 -0.18277185 0.10239082
000050 8d df 78 3e a1 0a 36 be b3 f1 7c bd 5e 2b 51 3e
       0.24304028 -0.17777492 -0.06175394 0.204267
000060 70 04 f4 3b 94 be 1e 3e 8f 9f 2d 3e bd a5 28 be
       0.007446818 0.15502387 0.16955398 -0.16469474
000070 4b c7 10 3e 54 73 72 3d 05 b6 8e be 43 a0 8e bc
       0.14138524 0.059192017 -0.27873245 -0.017410403
000080 a4 11 f3 3d e4 0e c8 3e 4a 01 d8 bc 0a c5 1e 3e
       0.11868599 0.3907386 -0.026367802 0.15504852
000090 f7 27 30 3e d5 4a 5b bc af 8c 2a 3e fb bb 0f 3d
       0.17202745 -0.013384541 0.16655229 0.03509138
0000a0 24 7f 25 3e 23 06 ae 3d b6 be 1c 3e cb 49 27 3c
       0.16161782 0.08497264 0.15307125 0.010210465
0000b0 54 b9 8a 3d 8c 00 59 be 17 7c 11 be 67 fe 6f 3e
       0.0677363 -0.21191615 -0.14207493 0.2343689
0000c0 da 51 81 3e a1 51 00 bd 01 74 30 be e3 51 4a 3d
       0.2525776 -0.031327847 -0.17231752 0.0493945
0000d0 89 7a 31 be 8d ac 27 bb cc e2 e4 ba b0 f9 6a bd
       -0.173319 -0.0025585026 -0.001746261 -0.057367027
0000e0 f3 7f 87 bd c9 fd 97 be 06 0b 02 3e 63 2a 07 bd
       -0.06616201 -0.2968581 0.12699518 -0.032999408
0000f0 c3 33 56 3e b1 dd 14 3e 8f 00 29 3d 70 62 9d 3d
       0.20918183 0.14537694 0.0412603 0.07684791
000100 c4 42 1a be 72 bb 8f bd a0 d8 85 3e 93 09 c8 bc
       -0.15064532 -0.07018174 0.26141834 -0.024418628
000110 8f 4a fa 3d 41 bf b7 be 6f b0 55 be 84 13 cd 3c
       0.12221252 -0.35888103 -0.20868085 0.02503372
000120 b5 42 0b be 91 c2 f9 3d dd f5 41 be 45 a4 6c 3c
       -0.13599665 0.12195314 -0.18941446 0.014443462
000130 3d 6f aa 3c 49 66 bc 3d 7c 54 93 be 25 cf 60 3e
       0.020804996 0.09199197 -0.28775394 0.2195402
000140 e7 a3 5c 3e 2f 1e 10 bd a9 b8 ce bd 55 9a c0 bd
       0.21546899 -0.035185035 -0.10093815 -0.094044365
000150 e2 2e 85 be b3 b5 20 3e 2a d2 5f 3e b0 6c a7 bd
       -0.2601233 0.15694313 0.21857515 -0.08175027
000160 e2 b6 ca bd d2 91 f3 bd c8 dc 54 3e 3e 6d b1 bd
       -0.098981634 -0.118930474 0.20787346 -0.086634144
000170 44 97 85 bc 28 08 f8 bc 5c 68 57 3e e8 46 90 bd
       -0.01630748 -0.030277327 0.21035904 -0.07044774
000180 31 e6 ae bd 6c 92 42 3e 45 b1 d0 bc 66 60 be 3c
       -0.08539999 0.19001168 -0.025475154 0.023239326
000190 d4 a4 03 3e a6 4a e6 3d e7 53 e1 bd 32 cf 8a 3c
       0.12855846 0.11244707 -0.11002331 0.016944502
0001a0 b7 97 db bd 4e 94 e6 3d 62 d7 3e 3e c3 90 75 be
       -0.10722297 0.112587556 0.1863685 -0.23981003
0001b0 eb 69 81 3e 32 94 3f be 2f 11 3c bd 98 fe 07 bd
       0.25276121 -0.18708876 -0.045914825 -0.033201784
0001c0 58 3b 10 3e 3f af 05 be 0f 63 9b 3d 16 95 af 3e
       0.14085138 -0.13055132 0.07587253 0.3429343
0001d0 1a 97 12 3e eb 2e be 3d 87 5b 02 3e b8 2e 84 3e
       0.14315453 0.09286293 0.12730227 0.25816894
0001e0 11 3e 0c bc e9 b7 13 3e db 30 55 3e ba 15 8b 3d
       -0.00855972 0.14425625 0.20819418 0.067912534
0001f0 48 25 91 3c bd 65 4b 3e 64 8a 53 bd d3 30 ba bd
       0.017717972 0.19863029 -0.05164565 -0.09091344
000200 8e 95 99 3e 08 d8 8b 3e 33 98 a6 3d d4 d1 9d 3e
       0.29996914 0.27313256 0.081344984 0.3082415
000210 1a 6a fc ba bb 48 15 bd 40 94 de 3c c4 b8 a3 3e
       -0.0019257695 -0.036446314 0.0271703 0.31976902
000220 75 19 82 3e 28 03 a2 bd 4b 5d 21 bb e2 9f aa 3e
       0.25410047 -0.07910758 -0.0024622257 0.33325106
000230 f9 c0 25 3e 7e 37 0a bd 68 dc 31 bd e2 e7 00 be
       0.16186894 -0.033744328 -0.043423086 -0.12588456
000240 ec 74 7f bd 0b df 8d be be a6 dd bd 6d 10 96 3d
       -0.062367365 -0.2770923 -0.10822819 0.07327352
000250 c0 de 76 be b8 46 f0 3c c3 73 2e 3e c7 13 79 3e
       -0.2410841 0.029330596 0.17036347 0.2432395
000260 b8 50 23 bc d9 15 40 be 76 dd 35 bb b6 ba 63 3e
       -0.009967975 -0.18758334 -0.002775041 0.22239193
000270 50 96 8f 3e d9 1c 7b bd 4c d2 3d 3e d2 ed 2a 3d
       0.28044367 -0.06130681 0.18537253 0.04173071
000280 78 51 cc 3c 29 83 e2 3a 12 64 87 bd 0b 80 03 be
       0.024941191 0.001728152 -0.06610884 -0.12841813
000290 c8 e8 7e bd 17 65 f2 bd 7e e3 9e bd ca fd bc bc
       -0.062233716 -0.118356876 -0.077582344 -0.023070235
0002a0 52 85 c7 3d 17 df a9 bd ed bb 0a 3e 82 96 e8 bd
       0.09742226 -0.08294504 0.1354825 -0.11356832
0002b0 3d a1 16 bc 94 b6 9d 3d bb 43 0e 3d 05 8f 69 bd
       -0.009193716 0.0770084 0.03473256 -0.05702116
0002c0 6d 4d 06 3c 29 3a 43 bd 90 4e 7d bd 87 11 a1 3e
       0.008197171 -0.047662888 -0.0618425 0.31458685
0002d0 6c f1 72 be c1 f3 6f bd 1b 41 4d 3e 51 2f 41 bd
       -0.23724908 -0.05858207 0.20044367 -0.047164265
0002e0 5f e7 d5 bd 39 98 6b 3e db a7 01 3e 57 2b 2e 3e
       -0.10444521 0.23007287 0.12661688 0.1700872
0002f0 23 85 ad 3e a1 9e 0b bc 88 f4 b7 bd 29 37 16 be
       0.33890638 -0.008521707 -0.089821875 -0.1466948
000300 c1 a9 3b be 95 13 50 be ce 6f 94 bd 76 f5 d8 3a
       -0.18326475 -0.2031997 -0.072478876 0.0016552645
000310 58 71 75 3e 1e 50 58 be ba 3e d5 3a 40 7d 35 3d
       0.23969018 -0.21124312 0.0016269304 0.0443089
000320 7c 36 ee bd 23 17 c0 bd 94 70 33 bd ec 5b 97 3e
       -0.11631486 -0.09379413 -0.043808535 0.29562318
000330 ba 7f 70 be 19 0a 0c bd 69 e7 4e 3d 90 58 e4 bd
       -0.23486224 -0.034189317 0.05051366 -0.111497045
000340 35 4b 43 be f3 57 3b bd 4a 6a 0f bb 0d 8d 9c 3d
       -0.19071658 -0.04573817 -0.0021883422 0.07644091
000350 2e 5d 1c be 2d 2c 89 3e 6c 92 88 be 37 e9 05 be
       -0.1526992 0.26791516 -0.2667421 -0.13077246
000360 52 20 46 3e 11 ef 31 3c 78 52 29 3d b4 3f ca 3d
       0.19348267 0.0108602205 0.041338414 0.09875432
000370 ff 22 8b 3c 22 6d 0d 3e 58 1b 1f 3e 13 c3 4f bc
       0.01698446 0.13811162 0.15537775 -0.012680787
000380 30 b5 0a be 1c 6f 2f 3e bc 5b 79 3e 17 bb a3 3b
       -0.1354568 0.17132229 0.243514 0.004996668
000390 e4 24 62 3e 30 4e 4b 3e 60 a0 81 3e a9 dc 2a be
       0.22084385 0.19854045 0.2531767 -0.16685738
0003a0 94 ab 28 be 46 ae 03 3e c6 3e 42 3e 1b 09 87 3e
       -0.16471702 0.12859449 0.18969259 0.26374134
0003b0 62 dc 0a be 4a 3b dd bd e2 26 6e 3e 6b ca 61 be
       -0.13560632 -0.10802324 0.2325702 -0.22049873
0003c0 26 f0 4a 3d 3f ac a0 bb 40 e8 25 be 4d 05 bf 3e
       0.04954543 -0.004903346 -0.16201878 0.37308732
0003d0 70 2a 04 3e c5 11 f1 3b 1b 71 0a 3d 6c 2c 5d 3e
       0.12906814 0.0073568546 0.033799272 0.21598977
0003e0 ac 95 b9 bc f2 20 6e 3e 9d 46 b0 bd 72 58 4e be
       -0.022654377 0.23254755 -0.086072184 -0.20150927
0003f0 13 a1 91 3e 2f 7a 63 3e 49 18 80 bd 74 ba a0 3e
       0.28443202 0.22214578 -0.06254632 0.31392252

l1.bias f4 [61]
000000 69 00 8e 3e 3a 98 db 3d 5e 20 80 3d 3d 23 21 3e
       0.27734688 0.10722394 0.062561736 0.15736099
000010 59 91 42 3e 9c d3 ca 3d 27 31 f9 3d a1 a0 7d 3e
       0.19000758 0.099036425 0.12167578 0.24768306
000020 e2 47 a2 3e 11 ff 26 3e 34 ed 46 3e 47 91 64 3e
       0.31695467 0.16308238 0.19426423 0.22321044
000030 4b 0b 55 3e 86 30 9a 3d c2 11 50 3e a6 d2 7b 3e
       0.20805089 0.07528786 0.20319274 0.24592075
000040 8d e3 5b 3e 4a 26 de 3d 35 28 1a 3e f7 d0 ea 3d
       0.21473522 0.10847147 0.150544 0.11465638
000050 64 c2 c4 3d 38 25 8e 3e 0f 0c 3e 3e 87 bc 99 3e
       0.096073896 0.2776277 0.18559287 0.30026647
000060 10 57 1c 3e ab 3a 8a 3e 39 3f 0f 3e 89 a6 28 3e
       0.15267587 0.26997885 0.13988961 0.16469778
000070 cf 10 7a 3e 6e f9 64 3e dd 15 6c 3e fd 31 d7 3d
       0.24420474 0.22360775 0.23055215 0.105075814
000080 81 ad 81 3e 68 52 13 3e bf c4 16 3e 4c f8 05 3e
       0.25327685 0.14386904 0.1472349 0.13082999
000090 9e 3e 20 3e 62 f2 8a 3e b0 8a 97 3e 12 9b 67 3e
       0.15648887 0.27138048 0.29597998 0.22617748
0000a0 ee a7 6d 3e 8f b8 9f 3d b5 af 33 3e 5b 0a 97 3e
       0.23208591 0.07798874 0.17547496 0.29500088
0000b0 f2 00 0e 3e d1 a2 84 3e ca af 72 3e 36 dc 8d 3e
       0.13867548 0.2590547 0.2369987 0.2770707
0000c0 df 33 df 3d c5 ba 1d 3e b2 85 13 3e a0 08 6a 3e
       0.108985655 0.15403278 0.1440647 0.22854853
0000d0 57 1f 48 3e 70 81 36 3e c8 73 5e 3e 42 28 35 3e
       0.19543205 0.17822814 0.21723855 0.17691138
0000e0 26 8b 46 3e 7b ed 41 3e f5 da a3 3e 27 df 2c 3e
       0.19389018 0.18938248 0.32002988 0.16882001
0000f0 2f 74 77 3e
       0.24165414

l2.weight f4 [61, 61]
000000 97 ed 3e 3e dc 0c bd 3d 66 1d 82 3e 1a bc a2 bd
       0.18645321 0.09230968 0.25413054 -0.07946034
000010 1b 7d 7e 3e b5 04 1d 3e 1e 54 0f 3d 36 fb 41 3e
       0.24852411 0.15333827 0.03499233 0.18943486
000020 f5 b9 9e be 1d fa 38 3c 63 0b fe bd 90 b5 c5 bd
       -0.3100125 0.0112901 -0.124045156 -0.09653771
000030 3f 28 75 3e 0d 49 9a 3e 4f de 12 be 23 80 56 3e
       0.23941134 0.30133858 -0.14342616 0.20947318
000040 42 55 ab 3d c6 b9 63 be 93 14 00 bd 48 bc 80 be
       0.08365871 -0.22238836 -0.03126962 -0.25143647
000050 c4 ef 13 3e 65 64 e8 bd d7 bd 81 be 4a e0 ed 3d
       0.14446932 -0.11347274 -0.2534015 0.11615045
000060 ae bd 81 3e 90 a0 94 3e d2 77 9b 3e 37 ee 9e 3e
       0.25340027 0.2902875 0.30364853 0.31041119
000070 f7 85 93 be 3c 3b f6 3c f7 69 6b be 09 a1 16 3d
       -0.28813145 0.030057542 -0.22989641 0.03677467
000080 34 a8 12 be 25 49 6c be 1e 33 94 be 7c 4f 1b 3e
       -0.14321977 -0.23074777 -0.2894525 0.1516704
000090 d4 d2 89 3d 8b 40 32 3e 3f 97 7a bc 4e 2d 97 bc
       0.067296654 0.17407434 -0.015294849 -0.01845422
0000a0 9e 24 c2 bd 6d 4a 23 be ed 4c a5 be ed dc ec 3d
       -0.094796404 -0.1594636 -0.32285252 0.11565576
0000b0 3c 65 05 be 35 5c 28 bc 82 83 35 3e 27 00 78 3e
       -0.13026899 -0.01027589 0.17725947 0.24218808
0000c0 a9 7b d6 3d fa 0d 4d 3e 95 47 51 be 90 0d 10 bd
       0.10472805 0.20024863 -0.20437463 -0.035169184
0000d0 8d fa f7 3d d0 09 50 3e 91 a3 0e be c2 74 a9 3d
       0.12108336 0.20316243 -0.13929583 0.08274223
0000e0 fd 13 45 3e be 1a 91 bc b1 dc 00 3e fc 51 26 3e
       0.19245906 -0.017712947 0.12584187 0.16242212
0000f0 a1 dc 03 3e 1e 51 f7 bd 49 a3 63 3d 07 46 86 3e
       0.12877132 -0.12076019 0.055575643 0.26225302
000100 b8 a6 89 3e 6a 58 99 3e 84 a3 61 bd 81 4d 80 3e
       0.2688501 0.29950267 -0.05508758 0.2505913
000110 9d 54 82 3e 83 8a f4 bc c3 94 6c 3e c5 61 63 3e
       0.2545518 -0.029851204 0.23103623 0.22205265
000120 40 ed b5 bc 29 10 64 3e 81 b5 78 3e 9a c2 83 be
       -0.022207856 0.2227179 0.24287988 -0.25734407
000130 27 32 2d 3e 7e dd ab bc 7c 97 a8 3e 57 31 07 3e
       0.16913663 -0.02097964 0.32928073 0.13202415
000140 a6 85 97 be da ec a6 bd 13 29 06 be f2 b6 e1 3d
       -0.29594153 -0.081506446 -0.13101606 0.11021222
000150 e6 0b c6 3d 79 12 f4 3c 9b 3f 88 3e e3 ba 94 3e
       0.09670238 0.029793965 0.26611027 0.29048833
000160 b9 f5 0c 3e 05 58 50 3e ea 2f 6c be 65 8f 6a be
       0.13765611 0.20346077 -0.23065153 -0.22906263
000170 2b 99 a4 be 53 c8 87 3e 39 ed 8d be eb 62 0c be
       -0.32148108 0.26520023 -0.2772005 -0.13709609
000180 00 e3 4a 3e 09 0c 65 be 78 6d 64 3e 37 d6 41 3e
       0.19813156 -0.22367872 0.22307384 0.18929373
000190 1d 53 6b 3e e1 00 82 be 1c 4c 83 3e 3f 36 9b be
       0.22980924 -0.25391296 0.25644004 -0.30314824
0001a0 0e 55 b4 3d 6a 28 79 3e ab 9c 83 3e aa a2 04 3e
       0.088052854 0.24331823 0.25705466 0.12952676
0001b0 52 e6 ac bd ec 87 79 3e 61 fe 7f 3e 98 76 57 be
       -0.084423676 0.24368256 0.24999382 -0.21041334
0001c0 4c 0a 94 be 04 af 98 3e 10 ac e3 3d d3 95 5d 3e
       -0.28914106 0.29821026 0.11116803 0.21639185
0001d0 cc db 30 3e 5a da 2d be 3b 8a 93 be 74 e0 af 3e
       0.17271346 -0.16977826 -0.288164 0.34350932
0001e0 2b d8 5f 3d 80 c1 1b 3e 9d 3c bc 3d 96 c6 ad bd
       0.054649513 0.15210533 0.091912486 -0.08485143
0001f0 d5 77 28 be 40 04 c8 bd c6 02 27 be 8b e3 83 3e
       -0.16451962 -0.097664356 -0.16309652 0.2575954
000200 e0 97 4e 3e e4 6f 81 bd 4e 7d 82 3e a6 a7 34 3d
       0.20175123 -0.063201696 0.25486225 0.044105195
000210 2d e5 fd 3d f6 bc 8d bd 9a 9d 8e be f1 59 11 3e
       0.123972274 -0.06920807 -0.27854615 0.14194466
000220 3f d6 8f 3e f9 43 7d be 7e cd 8c be 5c 1c 58 3e
       0.28093144 -0.24732961 -0.27500528 0.21104568
000230 f8 5b 56 3d b6 56 2b be 53 58 87 3e cd 4e 9e 3d
       0.052333802 -0.16732296 0.26434574 0.07729874
000240 87 5d fb bd 93 2d 8f bc ba b1 7a 3e 11 b2 4f 3e
       -0.12273698 -0.017477786 0.2448186 0.2028277
000250 19 d9 d5 bd d6 05 7e be 0a 73 5d 3e 2a 14 27 3e
       -0.10441799 -0.24806914 0.21625915 0.16316286
000260 29 23 8a 3e 05 96 03 3e 9a 58 8f 3e f4 95 80 3e
       0.2697995 0.12850197 0.27997285 0.25114405
000270 3a bb e4 bc 03 bb 84 be 27 b6 64 3e c1 b5 42 3d
       -0.027921308 -0.2592393 0.2233511 0.047536615
000280 3d 34 f8 3d df 08 81 be e8 e3 71 be d8 41 0f 3e
       0.12119339 -0.2520208 -0.23622096 0.13989961
000290 64 ea 9b 3e 94 8d 22 3d bb d8 9c 3e e5 43 80 3e
       0.30452263 0.0396858 0.30634102 0.250518
0002a0 01 d0 96 3e 03 f7 85 3e 05 7a 16 be d0 7c 2d be
       0.2945557 0.26165017 -0.14694984 -0.16942143
0002b0 e7 34 ac 3e 65 ea 4d 3e f2 23 4a bd ab 64 4b bc
       0.3363411 0.20108946 -0.049350686 -0.012414138
0002c0 24 19 31 3e a6 e1 04 3e cb e6 e9 3c 97 da 23 3e
       0.17294747 0.12976703 0.028552433 0.16001354
0002d0 aa 04 a9 be 39 ca 50 3e aa f7 4d 3d 83 19 b4 3e
       -0.3301137 0.20389642 0.05028502 0.35175714
0002e0 ff e7 31 bd e0 bf 7a be eb 64 86 3e 37 9b 9b 3e
       -0.04343414 -0.24487257 0.2624887 0.30391857
0002f0 1b 85 6b 3d 7f 5e a5 3d 09 26 27 bd c5 9b 8f 3e
       0.057499986 0.08074664 -0.040807758 0.2804853
000300 9e 55 d9 3d 92 79 96 3e fb 54 8e 3e a0 dc c0 3d
       0.10612033 0.29389626 0.2779921 0.09417081
000310 fc 50 a3 be 59 0b 86 3e 2d 93 68 3e 64 66 40 be
       -0.31897724 0.26180533 0.22712393 -0.18789059
000320 30 9d ab 3e f6 20 8f 3e bf d3 ab 3e ad ab a0 be
       0.33518362 0.27954835 0.33559987 -0.31380978
000330 59 d2 7d be cf f2 55 3e 64 f2 cc 3d 40 d2 35 be
       -0.24787273 0.20893405 0.1000717 -0.17755985
000340 ac 7f fd 3d 6f 5e c0 be 38 09 ca 3d 11 b3 83 3e
       0.12377867 -0.37572047 0.098650396 0.25722554
000350 5f dd e0 3d b6 42 64 bd 65 e0 70 3b 63 34 78 3e
       0.10979723 -0.055727683 0.0036754843 0.24238734
000360 61 ce 53 be 28 2d 28 3e cc 19 b5 3d c3 71 cc bd
       -0.20684196 0.16423476 0.08842811 -0.09982636
000370 96 2c a0 3e 97 70 01 3e 64 d7 8e 3e a7 34 d9 3d
       0.31284016 0.12640606 0.27898705 0.10605746
000380 e0 d1 2a be 46 17 48 3e b0 ad 5b 3d 45 39 86 3e
       -0.16681623 0.19540128 0.05363244 0.26215568
000390 0a d8 9a 3e 93 0e 8d 3e 65 47 ac bb ba d8 6b be
       0.3024295 0.27550182 -0.0052575343 -0.23031893
0003a0 4b f2 36 3e ed 58 a0 3e 20 b3 8f be 51 61 81 3e
       0.17865865 0.31317845 -0.2806635 0.2526956
0003b0 b4 61 a1 be 4a 4a 0d be 14 06 84 3e d7 17 0e bd
       -0.31519854 -0.1379787 0.25785887 -0.034690704
0003c0 fb 25 9d be c7 26 03 3e 23 0f 53 3e 9b 0f f6 3d
       -0.3069304 0.12807761 0.20611243 0.12014695
0003d0 f2 4e 9b 3e 3e 0d eb bd 17 7d 04 3e 62 b5 2c bd
       0.30333668 -0.11477135 0.12938343 -0.042165168
0003e0 cb fd a5 3e fd 3a 5c 3e fb 22 6c bd fa ca 5a 3e
       0.3242019 0.21506877 -0.057650547 0.21366492
0003f0 fb f9 10 3e 0b 05 c6 bc aa e9 a9 3e 66 86 7a 3e
       0.1415786 -0.024172327 0.33186084 0.24465331

l2.bias f4 [61]
000000 9e a6 2a 3d b6 d2 6f 3e 8c ba 0d 3e 95 2c 73 3e
       0.041662805 0.23420224 0.13840693 0.23747475
000010 3a ce 3e 3e 48 3d ab bd f5 70 b3 3d 53 db 8c 3e
       0.18633357 -0.08361298 0.08761779 0.2751108
000020 85 7a df 3d e8 b8 2e 3e 94 6b 8e 3d 57 3a ef 3b
       0.109120406 0.17062724 0.06954113 0.007300656
000030 76 65 4f 3e 0d 2e 7e bd fd ef 5f 3e c2 bb ce 3d
       0.20253548 -0.062055636 0.21868892 0.10094406
000040 e7 c4 62 3d 0a ad 9c bc c8 b6 d7 3a 73 5c 14 3e
       0.055363562 -0.01912548 0.0016457671 0.14488392
000050 85 e6 3e bd da 1a 6c 3e 4e d3 8b 3d 1c b1 45 3e
       -0.04660656 0.23057118 0.068274125 0.19305843
000060 70 70 64 3e 8c 74 fa 3d 69 25 17 3e 3b ad ed 3d
       0.22308517 0.12229261 0.14760365 0.11605307
000070 cb 4c fd 3d 07 ad f5 3c e1 07 4c 3d 83 0e c7 bd
       0.12368163 0.029989732 0.0498122 -0.09719565
000080 b2 1c 22 3e 5a 0b 77 bc 88 e6 6e 3e 88 c4 e6 bd
       0.15831259 -0.01507839 0.23330128 -0.11267954
000090 04 ee bf 3d 0a 4b b2 bd 04 78 4f 3e fd 22 5b 3d
       0.0937157 -0.08705719 0.20260626 0.053500164
0000a0 0c 69 80 3e cf 8a 1a 3e a6 3e 36 3e f3 88 2c 3e
       0.25080144 0.15092014 0.17797336 0.16849117
0000b0 37 af a4 bd 2f 39 3b 3d f1 41 a7 3e 0b 0d 06 3e
       -0.08041232 0.04570883 0.32667497 0.13090913
0000c0 91 25 50 3e 95 84 a6 3d 44 65 24 bd 65 aa 83 3e
       0.2032683 0.08130757 -0.040135637 0.25715938
0000d0 2e be 28 3e 8b 95 81 bd 2b c6 4c 3e 69 c7 61 3e
       0.16478798 -0.06327351 0.1999747 0.22048725
0000e0 1d 70 13 3e 99 79 91 3c 18 c1 d9 3d f8 4e 0b 3e
       0.14398237 0.017758178 0.10632533 0.13604343
0000f0 57 11 6e 3d
       0.058122005

l3.weight f4 [13, 61]
000000 89 a3 da be ad 0a 76 be 67 ca 08 3d 1d ad 20 bc
       -0.42702892 -0.2402751 0.03339615 -0.009806898
000010 c2 3c 8e 3e 88 3d b7 be 54 74 78 be 87 bf 17 3e
       0.2778073 -0.35789132 -0.24263126 0.14819156
000020 3c 85 4e 3e 3c 8f 26 3e dc e6 b5 be 84 6a b1 bd
       0.20168012 0.16265577 -0.35527694 -0.08662894
000030 49 a6 c4 3d 32 7f 99 3e 04 81 92 be d3 44 91 be
       0.09602029 0.29979855 -0.28614056 -0.2837282
000040 6b 74 58 3e 83 a2 9a 3e bb b3 87 be 97 23 83 be
       0.2113816 0.30202112 -0.2650431 -0.2561309
000050 57 2a 9d be 35 43 81 3e f0 e0 91 be b8 4b 49 3e
       -0.30696365 0.25246587 -0.28491926 0.1965779
000060 54 e8 ea bd cf 62 a5 3e 9e a4 67 3e 32 bb a2 3e
       -0.11470094 0.32301947 0.2262139 0.31783444
000070 f2 75 23 be 0e 03 80 3d 85 5b 72 be b7 b5 e9 bb
       -0.15962961 0.06250583 -0.23667724 -0.007132258
000080 e9 dc 9a be 68 8d 23 be d3 4c 90 3e c7 20 03 be
       -0.30246666 -0.15971911 0.28183612 -0.12805472
000090 65 28 ea bc 87 76 75 3d 2b eb 86 3e 62 b5 21 3e
       -0.028583715 0.05992749 0.26351294 0.15791848
0000a0 e7 8e 87 3e 6e f8 5e 3e bc 1d 9c be c6 3f f6 3d
       0.26476213 0.21774456 -0.30491436 0.120238826
0000b0 35 56 88 bd 35 74 c1 3e 05 74 db 3e 88 1f b1 3e
       -0.06657068 0.3778397 0.42861953 0.3459437
0000c0 98 8f b7 be 18 f2 64 3e b7 41 9d bd 92 b1 2a be
       -0.3585174 0.22357976 -0.0767855 -0.166693
0000d0 c0 74 92 be 43 03 1c bd 26 68 76 be e2 76 36 3e
       -0.28604698 -0.038089048 -0.24063167 0.17818788
0000e0 3f c1 09 3e a3 93 0f be fd 0a 8f 3e 82 ae 6d 3e
       0.13452624 -0.14021163 0.2793807 0.232111
0000f0 99 6f 17 be 9b 3a ac be c2 77 8a 3e ea c6 c3 bd
       -0.14788665 -0.33638462 0.27044493 -0.09559424
000100 c7 df a9 3e 6e f6 bc 3e 61 01 48 be a2 5e d5 be
       0.3317854 0.3690676 -0.19531776 -0.41673762
000110 86 b9 9f 3e 37 21 28 3d 79 d3 27 3e d5 6d c3 be
       0.3119623 0.0410473 0.16389264 -0.38169733
000120 42 b1 ae be 5c 39 fa bd ae a4 91 be b5 f5 73 3d
       -0.34119612 -0.12217972 -0.28445953 0.059560496
000130 79 10 2c 3e a2 da c0 be 46 97 81 be 58 6f c8 be
       0.16803159 -0.37666804 -0.25310725 -0.3914745
000140 82 ba a5 3e a2 e4 4b be c9 33 88 3e c7 5d a5 be
       0.32368857 -0.19911435 0.2660201 -0.3229811
000150 eb c1 a5 be 8b 87 05 be d1 60 1f 3e 99 72 a4 3e
       -0.3237451 -0.13039987 0.15564276 0.3211868
000160 52 2f 87 be f5 0d 59 be 78 ad a8 be 50 34 7c 3d
       -0.2640329 -0.2119673 -0.32944846 0.061573327
000170 29 ae c3 bd bd bf d1 3e 96 15 18 be 89 33 7d 3e
       -0.09554703 0.40966597 -0.14851984 0.2472669
000180 63 be fc bd 16 70 16 3e 92 56 6d 3d b5 2f 89 be
       -0.12341001 0.14691195 0.057943888 -0.2679421
000190 91 0d c4 3d 2a 90 0a 3e ed ef d0 3d 2c c6 b6 be
       0.095729 0.13531557 0.10202012 -0.35698068
0001a0 31 19 83 3e ec d0 e2 3d 9b 32 0b bf 33 e1 15 3f
       0.25605157 0.11075005 -0.5437409 0.5854675
0001b0 8a 6a c3 3d 36 d1 be 3e df ad 88 be b3 fb ae bd
       0.09541805 0.3726899 -0.26695153 -0.085441016
0001c0 a6 1b 0c be 85 9d 8a be 54 46 ae be fb e2 5a bd
       -0.13682422 -0.27073303 -0.3403803 -0.05343912
0001d0 0c 5b b8 3e 4f f3 b0 3e 5c 0f 37 be 79 b1 a7 be
       0.36006963 0.3456063 -0.17876953 -0.32752588
0001e0 a2 0f 37 be 4e d6 7a 3e 01 1e 6d 3e 0c 52 6c 3e
       -0.17877057 0.24495813 0.23155977 0.23078173
0001f0 28 b3 8f be 9a 2d 5a 3e 56 a3 3e 3e ee 59 92 be
       -0.28066373 0.21306458 0.18616995 -0.28584236
000200 64 d8 82 3e 6b b3 11 bd ba 26 86 be 5b f4 46 be
       0.25555718 -0.035571497 -0.2620142 -0.19429152
000210 1c 08 b5 3e 4a ce ad be 62 4c 9c be 9a d1 b3 be
       0.3535775 -0.3394645 -0.30527025 -0.3512085
000220 3a fe 8c 3e af 53 8d 3e 00 7f a6 be a9 f7 35 be
       0.2753771 0.27602908 -0.32518768 -0.17770256
000230 1c b5 69 3e 7b a1 95 3e 9b f6 a8 be 48 a0 f2 3d
       0.22822994 0.29224762 -0.33000645 0.118469775
000240 df 50 99 3e e7 e9 79 3e 98 38 7d 3e f9 b3 a6 3d
       0.29944512 0.24405633 0.2472862 0.08139796
000250 7a 3a 1d 3e ed fb 5f be cd 75 51 3e 08 4b 29 be
       0.15354338 -0.21873446 0.20455094 -0.16532528
000260 37 d9 68 be f2 7a bf bd 07 c1 f3 3d 52 49 28 be
       -0.22739111 -0.09349622 0.119020514 -0.1643422
000270 10 ba ac be c3 30 5c 3d 7e 56 b4 be d1 59 75 bd
       -0.33735704 0.05375744 -0.35222238 -0.05990011
000280 78 45 64 3e 38 8a 92 bd dd 4b 54 be 1c 3c 8d be
       0.22292125 -0.071552694 -0.20732065 -0.27584922
000290 99 4f 1d be df 1a 37 3e 70 d9 8a 3d cb 26 be 3e
       -0.15362395 0.17881344 0.06779754 0.37138972
0002a0 f6 2b df 3e c4 71 95 be ac 52 2d 3e fc 9e 10 be
       0.43588227 -0.2918836 0.16926068 -0.14123148
0002b0 8f 13 07 bc 00 06 8f 3e b9 b2 7e 3e dd 8f 9b be
       -0.008244409 0.27934265 0.24872865 -0.30383196
0002c0 31 0e a0 3e 04 ec 1b 3e 8b 09 90 3e 37 a6 9e be
       0.31260827 0.15226752 0.2813228 -0.30986187
0002d0 49 6c 7b be a6 30 99 3e 9c 87 9d be bb 05 b2 be
       -0.24553026 0.29919928 -0.30767524 -0.34769997
0002e0 74 1a 06 3e e9 01 88 3e e4 13 a8 3e c5 c2 97 be
       0.13096029 0.26563957 0.32827675 -0.29640785
0002f0 9f 85 a0 be 27 d5 b1 3e 6d 2e 5e 3e e2 aa 32 3e
       -0.31351945 0.34732935 0.21697398 0.17447999
000300 05 22 45 3e 77 1e c4 be e0 6f 9f be 80 cc 40 3e
       0.19251259 -0.38304493 -0.3114004 0.1882801
000310 f2 bb 5f be 1f e0 a2 3e 9b 75 a1 be 04 2f af be
       -0.21849039 0.31811616 -0.31535038 -0.34215558
000320 70 a3 29 be 35 72 a8 be 66 5c ae be 7e 95 39 be
       -0.16566253 -0.32899633 -0.3405487 -0.18123433
000330 94 8c 85 3e 27 7b 7c 3e 51 bb 3e 3e 20 e7 b0 3e
       0.26083815 0.24656354 0.18626143 0.34551334
000340 c7 8a 8b be 47 b7 a9 3e f0 95 6a 3e 97 b9 a1 be
       -0.27254316 0.33147642 0.22908759 -0.31586906
000350 f7 ef a0 bd e8 73 9b be ef 67 1c bd 10 f7 85 bd
       -0.0785827 -0.30361867 -0.038185056 -0.06541264
000360 24 19 16 be 00 67 93 be 27 a9 c0 ba ef 9a 8b be
       -0.14658028 -0.2878952 -0.0014698849 -0.27266642
000370 57 47 85 3c e2 80 95 be a2 c5 c9 be 01 65 6d 3e
       0.016269369 -0.29199892 -0.39408594 0.23183061
000380 38 39 94 be 42 e6 a0 3e 68 10 39 3e 3e 7a c2 3b
       -0.28949904 0.31425673 0.18072665 0.0059349826
000390 8d 66 cd be df a8 03 3f 3a fe 34 3e fd f9 9c 3e
       -0.40117303 0.5142955 0.17675105 0.30659476
0003a0 95 1a 51 be 5e db 20 3d bd b3 a0 3e 5f 9e 85 be
       -0.20420296 0.039271705 0.3138713 -0.2609739
0003b0 09 b8 6b be 11 2b 23 3e 6c cd 94 be b6 91 a7 be
       -0.23019423 0.15934397 -0.29062974 -0.32728356
0003c0 49 dc 15 3c 55 4a 81 3e 16 9f 20 3e f5 14 ca bd
       0.009146758 0.25252023 0.15685686 -0.098672785
0003d0 fd ae 9f 3e 9d f0 83 3e db db 84 be 4d 35 bd bd
       0.31188193 0.2576951 -0.25948986 -0.09238682
0003e0 50 c7 87 3e 06 7f 6c 3d 79 5e 69 be d4 ad 8a be
       0.2651925 0.057738326 -0.22789945 -0.27085745
0003f0 64 b9 5e 3e 21 48 88 be 90 a6 4b 3e 24 70 96 3e
       0.21750408 -0.2661753 0.19887757 0.29382432

l3.bias f4 [13]
000000 a5 0c 39 3e 42 89 29 3e 47 7f ef 3d 3d c4 5e 3e
       0.1807123 0.16556266 0.11694198 0.21754546
000010 2f 1f a2 bd 3b 4a 23 bd 95 88 1f 3d 94 a9 1b be
       -0.07916104 -0.039865714 0.038948614 -0.15201408
000020 af 48 e1 bd 21 f9 8d bd 74 4f 66 3d 44 c6 b3 bd
       -0.110001914 -0.06932283 0.056228116 -0.087780505
000030 8a ca dd bd
       -0.10829647
