data.pth (torch, 5249 bytes, 6 tensors)

l1.weight f4 [8, 54]
0	0xbebc6ffe	-0.36804193
1	0x3f086c28	0.53290033
2	0xbf1cd6ad	-0.6126507
3	0x3eb0b92e	0.3451628
4	0x3f285759	0.6575828
5	0xbf1da5eb	-0.61581296
6	0x3afac11f	0.0019131041
7	0xbecddd2f	-0.40207812
8	0xbf537854	-0.8260548
9	0xbed111e5	-0.40833965
10	0x3f011eeb	0.504378
11	0xbe9337bc	-0.2875346
12	0x3ec65613	0.38737544
13	0xbe5b69da	-0.21427098
14	0x3ee4e4fa	0.44705945
15	0xbebaeaba	-0.36507207
16	0x3f3a50ab	0.7277934
17	0xbf317759	-0.69322735
18	0x3ee31225	0.4434978
19	0x3f655acf	0.8959169
20	0xbdc24589	-0.09485919
21	0x3f50abaa	0.8151194
22	0x3f4ea9fb	0.8072812
23	0x3f2240d2	0.6338016
24	0xbd819b73	-0.06328478
25	0x3e885d24	0.2663356
26	0x3ebd1dde	0.3693685
27	0x3f24b06b	0.6433169
28	0x3eb2616d	0.34839955
29	0x3efd73c0	0.49502373
30	0xbefb6e71	-0.49107698
31	0xbed9d5d1	-0.4254594
32	0xbdfbedc2	-0.12301208
33	0xbf38ad64	-0.72139573
34	0x3f21617f	0.6303939
35	0xbe9bfe64	-0.30467522
36	0x3ec27c25	0.3798534
37	0xbf47386e	-0.7782048
38	0xbda8676e	-0.08222853
39	0x3dfa6445	0.12226156
40	0xbe89d4fa	-0.269203
41	0x3f49c93e	0.78822696
42	0xbe7a49b0	-0.24442172
43	0x3f03e465	0.5152038
44	0xbf060e02	-0.52365124
45	0x3ee8959b	0.4542664
46	0xbf4624f8	-0.7740016
47	0xbe9baf7c	-0.3040732
48	0x3efe0075	0.49609724
49	0x3f134126	0.57521284
50	0xbe103052	-0.14080933
51	0x3f0eafc7	0.55736965
52	0x3c54b13b	0.012981708
53	0x3e30cf61	0.17266609
54	0x3efd838e	0.4951443
55	0x3e8170fd	0.25281516
56	0xbf29fffb	-0.6640622
57	0xbe23d6a5	-0.15999849
58	0xbdb85c6e	-0.090020046
59	0xbd9acb55	-0.07558314
60	0xbe494422	-0.19654897
61	0xbf1d566c	-0.61459994
62	0xbf35c44b	-0.71002644
63	0xbf3b93fb	-0.73272675
64	0xbc8487e5	-0.01617808
65	0x3f0a89f4	0.5411675
66	0x3f187baf	0.59563726
67	0x3f10541b	0.56378335
68	0x3e4339e5	0.19065054
69	0x3f01d41e	0.5071429
70	0x3d75c344	0.060000673
71	0xbe806396	-0.25075978
72	0x3f099665	0.5374511
73	0xbe6ace1b	-0.22930185
74	0x3f16f9f1	0.5897513
75	0xbe8b1593	-0.27164897
76	0xbe2835c1	-0.16426755
77	0x3eea209c	0.45728004
78	0x3e0d7493	0.13814001
79	0xbd5baae2	-0.053629763
80	0x3f115b09	0.56779534
81	0x3d322196	0.04348906
82	0x3f17a6eb	0.5923907
83	0xbd03ffe7	-0.03222647
84	0xbc3e62d1	-0.011620239
85	0x3f1e6cbd	0.6188467
86	0x3eeb3d2c	0.45945108
87	0xbf0a62c6	-0.54056966
88	0x3e4a1cc9	0.19737543
89	0x3ea29cfb	0.31760392
90	0x3f0af669	0.5428224
91	0xbf1b9ee1	-0.60789305
92	0xbe5aac3e	-0.21354768
93	0xbecc8269	-0.39943245
94	0xbd0c3900	-0.034234047
95	0x3f4be6ab	0.79648846
96	0x3f000d4d	0.50020295
97	0x3e374d73	0.17900638
98	0x3e135ba3	0.14390425
99	0x3e1d9899	0.15390243
100	0x3f997da8	1.1991472
101	0x3f2eb83d	0.68249875
102	0x3f1cce83	0.6125261
103	0x3f48e3e8	0.7847276
104	0x3ee9a52f	0.45633838
105	0x3f33be13	0.70211905
106	0xbe627568	-0.221151
107	0x3f29d304	0.6633761
108	0xbe831707	-0.25603506
109	0xbd7fd693	-0.062460493
110	0x3f0e8189	0.55666405
111	0x3df51aa5	0.11967973
112	0x3ea2801c	0.31738365
113	0x3f88172e	1.0632074
114	0x3e97f7ba	0.29681188
115	0x3eb2e247	0.3493826
116	0x3f07d2fe	0.53056324
117	0x3ef0c06a	0.470218
118	0x3e062bf4	0.13102704
119	0xbdfc7321	-0.123266466
120	0xbd9a3352	-0.0752932
121	0xbe00f635	-0.1259392
122	0xbd77d3d5	-0.060504753
123	0xbd6bd61b	-0.057577234
124	0x3e7e9f90	0.24865556
125	0x3f61f40f	0.8826303
126	0xbeb96e2e	-0.36216873
127	0x3e90a4a1	0.28250602
128	0xbe8aea55	-0.27131906
129	0x3e275ac6	0.16343221
130	0x3e6c04f5	0.23048766
131	0xbe3010e4	-0.17193943
132	0x3d1a801d	0.037719835
133	0x3e933cf9	0.28757456
134	0xbe7c182c	-0.24618596
135	0xbe922f2e	-0.2855162
136	0xbdd86b69	-0.10567362
137	0xbd3546a4	-0.04425682
138	0x3f330f2c	0.69945025
139	0xbe9ebb03	-0.31002054
140	0x3dd7ae7c	0.10531327
141	0x3f2a66f4	0.66563344
142	0xbe11bf80	-0.14233208
143	0xbe95a7ad	-0.2922949
144	0xbe0a7420	-0.1352086
145	0x3f1c33ee	0.6101674
146	0x3e7d4062	0.24731591
147	0x3ef0c7c6	0.47027415
148	0x3efdcc65	0.49570003
149	0xbf0507b9	-0.5196491
150	0xbe34389c	-0.1759972
151	0xbe5a3e91	-0.2131293
152	0x3e44ffcc	0.19238204
153	0xbe5db3be	-0.21650597
154	0xbf528f38	-0.82249784
155	0xbdd4e500	-0.10395241
156	0xbd142948	-0.03617218
157	0xbed9d4f8	-0.42545295
158	0xbd9af17e	-0.07565592
159	0xbeac69f1	-0.33674577
160	0x3eb6b9de	0.3568868
161	0x3ec7367c	0.38908756
162	0x3f0c5caa	0.54828894
163	0xbdcc42f8	-0.09973711
164	0xbe4e7489	-0.20161642
165	0x3ec251c9	0.37953022
166	0x3e9f94b3	0.31168136
167	0x3f91589f	1.135517
168	0xbc64717d	-0.013943073
169	0x3c5fa844	0.0136509575
170	0xbee4ed1e	-0.44712156
171	0x3d00c352	0.031436272
172	0x3f03e7b1	0.5152541
173	0xbe92fcc0	-0.28708458
174	0xbea2ec1f	-0.3182077
175	0xbefac53c	-0.48978603
176	0xbe5d3f34	-0.21606141
177	0xbd4b11bb	-0.049577456
178	0x3f0f7035	0.5603059
179	0x3f9af4a6	1.2105911
180	0xbe573432	-0.21016005
181	0x3f38479b	0.7198426
182	0x3e8ab07f	0.2708778
183	0x3f444701	0.76670843
184	0x3f37f649	0.71860176
185	0x3f0f94fe	0.5608672
186	0x3d1beba9	0.03806654
187	0x3eb93579	0.3617361
188	0xbecb33dc	-0.39688003
189	0xbeb8d133	-0.36097106
190	0xbeca1698	-0.39470363
191	0xbe9a2efb	-0.30113968
192	0x3f317dfe	0.69332874
193	0xbe8b524f	-0.27211234
194	0x3efee322	0.49782664
195	0xbe2f973d	-0.17147537
196	0xbe3ef598	-0.18648374
197	0xbdff92ef	-0.12479197
198	0xbe314bd2	-0.1731408
199	0xbe8b34ef	-0.27188823
200	0x3d9e302e	0.07724033
201	0x3c20110b	0.009769688
202	0x3f29b14a	0.66286147
203	0xbea85fbe	-0.32885545
204	0xbe92fc7a	-0.2870825
205	0xbd9eb5a2	-0.077494875
206	0xbe88e21e	-0.26735014
207	0xbe8d084f	-0.275454
208	0x3f5ea9ac	0.8697765
209	0x3effd136	0.49964303
210	0x3ea942a4	0.33058655
211	0xbeddb1d2	-0.4329973
212	0xbe69423d	-0.22779174
213	0xbe1e83e3	-0.15479998
214	0x3def8528	0.116953194
215	0x3ea630e9	0.3245919
216	0xbe912dd2	-0.2835527
217	0x3f2af6c7	0.667828
218	0x3ed5a560	0.41727734
219	0x3f0d6f77	0.55248207
220	0x3f31fe3e	0.6952857
221	0xbf18e009	-0.5971685
222	0x3ede4a5d	0.4341611
223	0x3efac96b	0.48981795
224	0x3f20b7d0	0.62780476
225	0x3f0cab37	0.54948753
226	0x3e9b20db	0.30298504
227	0xbe576dd2	-0.21037987
228	0x3f23f30a	0.64042723
229	0xbdea6fd0	-0.11447108
230	0x3f2f21b0	0.6841078
231	0xbec13d3a	-0.37742025
232	0x3ed5ad08	0.41733575
233	0xbf18dffc	-0.59716773
234	0x3d91b20e	0.07114039
235	0x3f245200	0.6418762
236	0xbe2feecd	-0.17180939
237	0x3f22fa73	0.63663405
238	0x3f475abd	0.7787283
239	0x3ec87992	0.3915525
240	0x3e95ccb1	0.2925773
241	0x3f18217d	0.594261
242	0xbdcef400	-0.10105133
243	0x3f295651	0.66147333
244	0xbe326525	-0.17421396
245	0x3f01c6d2	0.50694
246	0xbe915ec2	-0.28392607
247	0xbe5ec8ef	-0.21756338
248	0xbc09ad5c	-0.0084031485
249	0x3f28b9c5	0.6590846
250	0x3f359d92	0.7094356
251	0xbec77bdd	-0.38961688
252	0xbe6f66a3	-0.23378997
253	0x3f3d75d9	0.74007946
254	0x3e825764	0.254573
255	0x3e838a36	0.25691384

l1.bias f4 [8]
0	0x3f462513	0.7740032
1	0x3f697592	0.91195023
2	0x3f219d3a	0.63130534
3	0x3f4165cb	0.7554595
4	0x3f18e023	0.59717005
5	0x3f4262b6	0.7593187
6	0xbdd407a9	-0.103530236
7	0x3f17ce71	0.5929938

l2.weight f4 [8, 8]
0	0x3da50a24	0.08058575
1	0xbf3297a3	-0.6976263
2	0x3f98a93b	1.1926645
3	0x3f913293	1.1343559
4	0xbe05d6ab	-0.1307017
5	0x3efec9e3	0.49763402
6	0x3e28789e	0.16452262
7	0xbf4759e6	-0.7787155
8	0xbf6665af	-0.89998907
9	0x3f012ff3	0.5046379
10	0x3f29e7a3	0.66369075
11	0x3f82897d	1.0198208
12	0xbf20e1da	-0.6284462
13	0x3f0366c8	0.51328707
14	0x3d8353a5	0.06412438
15	0x3f316353	0.6929218
16	0xbf50852d	-0.8145321
17	0x3f8affa7	1.0859269
18	0x3f2317a2	0.63707936
19	0x3f958916	1.168246
20	0xbf8bf125	-1.0932966
21	0x3f2a0b31	0.66423327
22	0xbd3a8fce	-0.0455473
23	0xbf166a4b	-0.5875594
24	0xbf80e6a8	-1.0070391
25	0x3d21df79	0.03951976
26	0x3ed11461	0.4083586
27	0xbf3bdb6b	-0.7338168
28	0x3f455e6b	0.77097195
29	0x3f8471dd	1.0347248
30	0x3d9f0bac	0.07765898
31	0x3f791cb7	0.9730944
32	0xbe4ae271	-0.19812943
33	0xbe95c0e2	-0.2924872
34	0xbe9e8cc1	-0.30966762
35	0xbea208a8	-0.3164723
36	0xbea3443f	-0.31888005
37	0x3e868ea5	0.26280704
38	0xbdd6fb94	-0.104972035
39	0x3e1ec6c3	0.15505509
40	0x3f4d2776	0.8013834
41	0xbf693137	-0.9109072
42	0x3f8db56a	1.1070988
43	0x3f4c71ca	0.7986113
44	0x3f7bfff4	0.9843743
45	0x3f251f73	0.6450111
46	0x3e0c8a03	0.13724522
47	0x3f86b42f	1.0523738
48	0x3f6163b0	0.88042736
49	0x3f72efe9	0.94897324
50	0xbf631aa8	-0.8871255
51	0xbf80cb87	-1.0062112
52	0x3f3a5b17	0.7279524
53	0x3f8474f2	1.0348189
54	0x3df19cad	0.11797462
55	0xbf219bbd	-0.6312826
56	0x3f5922cc	0.8481872
57	0x3f86d92a	1.0535023
58	0xbf41422e	-0.7549161
59	0x3f3af15c	0.73024535
60	0x3f007c37	0.50189537
61	0xbf865cf8	-1.0497122
62	0x3d804e89	0.062649794
63	0x3f44114b	0.76588887

l2.bias f4 [8]
0	0x3e52cfc9	0.20587076
1	0x3efe94a9	0.49722794
2	0x3ec0a35c	0.37624633
3	0x3e714e08	0.23564923
4	0xbe9b6b97	-0.30355522
5	0xbe1e0c3a	-0.15434352
6	0x3dc805d0	0.09766734
7	0x3f2eaca4	0.6823218

l3.weight f4 [7, 8]
0	0x3e10baa2	0.14133695
1	0xbeadaeaa	-0.3392232
2	0xbf534620	-0.8252888
3	0xbf92447f	-1.1427153
4	0x3ea386d5	0.31938806
5	0x3fb2f643	1.3981403
6	0xbf8f0f3d	-1.1176525
7	0x3f80ae44	1.0053182
8	0x3f912344	1.1338887
9	0x3f3b2e00	0.73117065
10	0x3f2af69d	0.6678255
11	0xbf24df93	-0.6440365
12	0x3ba471a8	0.0050184317
13	0x3e123252	0.14277008
14	0xbf12c3f8	-0.57330275
15	0xbf82a467	-1.0206422
16	0xbfdad7e4	-1.7097135
17	0x3f9e41be	1.2363813
18	0x3f617b38	0.8807864
19	0xbf3dd290	-0.7414942
20	0xbcf3372e	-0.029689398
21	0xbf8499d6	-1.0359447
22	0xbf97d6d2	-1.1862433
23	0x3f66b637	0.9012179
24	0xbf7467c4	-0.95470834
25	0xbefdaf2a	-0.49547702
26	0xbf15f293	-0.58573264
27	0xbfb1ab2b	-1.3880361
28	0x3e0948fc	0.13406748
29	0xbf8285e2	-1.0197108
30	0x3f72721e	0.9470538
31	0x3f66bb61	0.9012967
32	0xbec15c46	-0.37765712
33	0x3f0bd4de	0.54621685
34	0xbf9013cc	-1.1256042
35	0x3f5d079c	0.86339736
36	0x3cf71a0f	0.030163793
37	0x3f55658e	0.83358085
38	0xbf4c0536	-0.7969545
39	0xbf8c3d04	-1.095612
40	0xbf6fbea3	-0.93650264
41	0x3e01b597	0.12666927
42	0x3f50f7b7	0.8162798
43	0x3f3aa383	0.7290575
44	0x3ccbfc7d	0.02490067
45	0xbf7e10df	-0.99244493
46	0x3ef59742	0.47966963
47	0xbf5ebf49	-0.8701063
48	0xbfdd46a8	-1.7287188
49	0xbf3bddf8	-0.7338557
50	0xbf569c4a	-0.8383223
51	0xbdf2abd3	-0.11849179
52	0x3e734908	0.23758328
53	0x3f3ac313	0.7295391
54	0x3f7ca37c	0.9868696
55	0xbf525aad	-0.8216961

l3.bias f4 [7]
0	0x3e99c4fa	0.30033094
1	0xbe837f55	-0.25683084
2	0x3d9c1b8e	0.07622443
3	0xbdc1e609	-0.09467704
4	0xbecf5793	-0.404965
5	0x3da213ed	0.07913957
6	0x3e012db2	0.12615088
